logs/skrl/reach_franka/2024-12-18_21-11-53_ppo_torch/checkpoints/agent_16800.pt (torch, 96272 bytes, 38 tensors)

log_std_parameter f4 [7]
00000000: c3c9 24c0 d5a7 20c0 507f 2dc0 5f2e 29c0
00000010: 778f 25c0 0484 2ec0 db4d 1ac0
-2.5748146 -2.5102437 -2.7108955 -2.6434553 -2.5868814 -2.7268076 -2.411002

net_container.0.weight f4 [64, 32]
00000000: b413 cebe 21fd 183e 54ac c2be 02c9 0abe
00000010: 6aa3 5c3d f644 7ebd e47f 8e3e dfcd ccbb
00000020: fe56 1b3d 49c6 1fbe a88e 263e ac11 80be
00000030: 9692 d03c 3e67 243d d685 7cbc 1039 2dbe
00000040: 2e7a 083e e47e 2bbd 3368 a83e 8f04 193e
00000050: d5a1 ad3d f205 b43e d61b 72be 28c7 82be
00000060: 973b 2ebe 8e81 26bd 98e2 a73d 3d64 013d
00000070: d6f9 863d 159d d4bd c827 8ebd 080a 20be
00000080: 48c9 aebd 20b4 7cbe 3ecd 80be 8759 77be
00000090: adc7 19bd f4f9 14bd 528b 11be 3ea9 ec3a
000000a0: c40f dc3b df02 87bc 4eae f9bd 3f8b 2b3c
000000b0: afac 573d 3cd5 eb3d 5f61 d6bd cd1d 04be
000000c0: 0084 64bd e39b acbd 3f57 03be 712c 813d
000000d0: 9ff8 b4be 40bc c9be f26c 0fbf fed5 af3e
000000e0: dfe2 25bf db2b 893e a510 5fbd 4241 31bd
000000f0: 7162 bdbd 4649 a9bd e743 8b3d 587b e6bc
00000100: a61e 5abe 0253 08be d80a 85be 43a0 783e
00000110: a2aa 11bd b5b8 dc3d 6dfd 273e 0817 053e
00000120: 1d22 3ebc 3860 b1bd 9491 3dbe 7955 ea3d
00000130: 80ff 1a3e 0301 56bd bbff 5abd d323 b7bb
00000140: a031 c73d 26b0 cfbc f166 983e d4aa e53e
00000150: 6e6f 0cbf 2af5 87be b0f8 48bc 82d4 063e
00000160: 2d35 afbd 3ca9 abbc b5a7 44bd 78d4 0c3d
00000170: 03d3 45bd a2bd d63d f959 c3bd c388 b63c
00000180: 17c6 d33d c347 30be 5cf6 d1bd 5cdb 77be
00000190: 41b4 093e 59e4 323e c388 d6bd 5199 593c
000001a0: 8686 aa3c 14a6 9d3b ab3c a13d 73ed a63c
000001b0: 64da 80bd fce4 98bd fabd f8bc 9bfd 903d
000001c0: 6df1 993d 82e1 07bd ae3b f3be 1596 43be
000001d0: 33c3 223f b01d ccbe e570 963e 1c4d 9a3e
000001e0: bd48 a13e 2f9d dfbd 497b 4bbe ac29 18be
000001f0: 0958 7fbb 4935 183e a5cc b1bc dc2b bebc
00000200: 8afa 03be 579e 4fbe a567 91bc 7c0d 13be
00000210: 0ab1 13be d50c f43b 432d 42bd 0242 3cbd
00000220: 9312 463d 9108 75bd ae41 72bb a55b de3b
00000230: 0380 46be 040f a13c 502a db3a 8a6f 873c
00000240: a33f 8bbd 9931 06be d268 c23e 9548 d7bd
00000250: de28 113f 8d0f d5be 417b d9be aa5d 0a3f
00000260: 1763 03bf c63d b13c 0eba 023d d4d4 d93a
00000270: e9f0 2a3e 4cb8 913c 6136 19bd ec6b 58be
00000280: c3e8 45be 5020 cbbe 366c 963d 8c8d 483b
00000290: 4e6d e23d 999b 7fbe eb60 48be 8c3e 2b3d
000002a0: 216e eebc 6165 10bc cd21 1cbe b2ec 863d
000002b0: 0a30 ba3d dea6 a53d a552 39bc cd67 bcbd
000002c0: ab45 fd3c 27a7 483d 7201 863e 2aa4 6c3d
000002d0: 2d5b 7cbd 12cf 093e 1e30 023d 5cc1 2f3c
000002e0: a3f3 d73c bd6b 023d 40e6 313c c6e0 443d
000002f0: aa28 e1bd 9118 9bbd f0c7 08be 8012 b53d
00000300: c58d 63bb 42ba 6ebe 88d5 6c3d 334a 8c3d
00000310: e0ef a9b9 25f7 9b3e 65d1 87be 8875 babd
00000320: 88f8 0b3d a4c9 14be 2b9c 0c3e a4fb 0cbe
00000330: 9849 0dbe 8576 b73d 4adf 963d fa64 213e
00000340: 9510 ddbd 45fc 2abd 2608 65bc 18f0 1a3e
00000350: cdb7 1fbf 7ab2 95be 5c76 1bbf 309e a73e
00000360: 5143 d6be a582 cfbd 409d 283c e4c9 52bc
00000370: 148a 003d d4de a63d 8994 f8bd 3521 153d
00000380: 5d6e 9ebe b12f b2be cc24 09bf 0f6d e839
00000390: fc01 413e bdf2 193e 6218 ae3e 2785 fb3b
000003a0: 634c f3bc d7cb 1bbe 1c04 8bbe 6a6a 21be
000003b0: cc8d c1bd d4a1 eabc bb02 a63c 5d92 0fbc
000003c0: 2e65 a6bd 1fb3 203e 2d34 9e3e 8357 083e
000003d0: 206e 8a3d e9ae 1fbd 1dbe 6dbf a8bf 33be
000003e0: b3d3 6abf d61c c03d 83d9 163e 7000 ee3c
000003f0: 6758 ccbd 200c eb3d 2330 9dbd 2413 a53e
-0.40249407 0.14940311 -0.380221 -0.13553241 0.05386678 -0.062077485 0.27831948 -0.0062501277
0.03792476 -0.15602984 0.16265357 -0.25013483 0.025460523 0.040137522 -0.015412768 -0.16916299
0.13327858 -0.04186906 0.32891998 0.14943145 0.08478133 0.35160786 -0.23643431 -0.2554257
-0.17014919 -0.040650897 0.08197516 0.031589735 0.06590621 -0.103815235 -0.069411814 -0.15628827
-0.08534485 -0.24678087 -0.25156587 -0.24155246 -0.03754394 -0.036371186 -0.14213303 0.0018055809
0.0067157466 -0.016480861 -0.12191449 0.010470211 0.05265492 0.115152806 -0.10467791 -0.12901993
-0.055789948 -0.084281705 -0.1282625 0.06307305 -0.35345933 -0.39401436 -0.5602561 0.3434295
-0.647993 0.26791272 -0.054459233 -0.043275125 -0.09247292 -0.08265929 0.06800061 -0.028134987
-0.21300754 -0.13312915 -0.25984836 0.24279885 -0.03556312 0.107774176 0.16405268 0.12997067
-0.011604813 -0.086609304 -0.18512565 0.11442084 0.15136528 -0.05224706 -0.05346654 -0.0055889874
0.09726262 -0.025352549 0.29766038 0.44856894 -0.5485753 -0.26554233 -0.012266323 0.13167003
-0.08555064 -0.02095472 -0.0480115 0.034382313 -0.04829694 0.10485388 -0.09538645 0.02228201
0.10340517 -0.17214875 -0.102520674 -0.24204773 0.13447668 0.1746992 -0.10475304 0.013281182
0.020816099 0.004811058 0.078728996 0.020376896 -0.06291655 -0.0746555 -0.030364025 0.070796214
0.075167514 -0.033174045 -0.4750647 -0.1910022 0.635791 -0.398664 0.29383007 0.30136955
0.31500807 -0.10918652 -0.19871248 -0.14859647 -0.0038962385 0.14864077 -0.021704027 -0.023214273
-0.12888542 -0.20275246 -0.017749617 -0.14360613 -0.14423004 0.0074478188 -0.047406446 -0.045961387
0.048357558 -0.059822623 -0.0036965418 0.006785827 -0.1938477 0.01966048 0.0016720984 0.016532678
-0.06799247 -0.13104858 0.37970597 -0.10511891 0.56702983 -0.41613427 -0.42476848 0.5404917
-0.51323074 0.021635901 0.031915717 0.0016619214 0.16693462 0.017788075 -0.037405375 -0.21134919
-0.19327073 -0.3967309 0.07344858 0.0030601947 0.110560045 -0.249617 -0.19568221 0.041807696
-0.029105248 -0.008813233 -0.15247269 0.06588115 0.09091194 0.08088468 -0.011311208 -0.09199486
0.03091701 0.048987534 0.26172978 0.057773747 -0.06161039 0.13457897 0.03178417 0.010727253
0.026361292 0.03184103 0.0108581185 0.048065923 -0.10994084 -0.07573045 -0.1335752 0.08841419
-0.0034721952 -0.23313239 0.057820827 0.0685009 -0.00032412913 0.30461994 -0.26526943 -0.091044486
0.034172565 -0.14530045 0.13731448 -0.13767868 -0.13797605 0.08958153 0.07366808 0.15761176
-0.107941784 -0.04174449 -0.0139789935 0.15130651 -0.6238983 -0.2923773 -0.6072748 0.32737875
-0.41848233 -0.1013234 0.010291398 -0.012865517 0.03138168 0.0814797 -0.12137706 0.03640862
-0.30943576 -0.3480201 -0.5357177 0.00044331743 0.18848413 0.15034004 0.34002978 0.007675785
-0.02969951 -0.15214477 -0.27151573 -0.1576325 -0.09450874 -0.028641619 0.020264974 -0.008762923
-0.08124767 0.1569333 0.30899182 0.13314633 0.06759286 -0.038985167 -0.92868215 -0.1755358
-0.9172928 0.093805 0.14731412 0.029052943 -0.09977799 0.11476922 -0.07675197 0.32241166

net_container.0.bias f4 [64]
00000000: ebc6 113e d984 573e 5a8b 743e 2749 823e
00000010: bc01 0abb ca48 ed3d 29d0 633e 5792 27be
00000020: 9a6b 273e 9066 a7be 13b0 96bd 6b27 5c3e
00000030: 6431 81be 4af3 a0be acdd 343e f4f7 98bd
00000040: d81f 19be 5a4c 92be e606 a13d bfaa 56be
00000050: d563 b0be 65fa 28be bb0d 073d 3641 ad3d
00000060: 75cc 173e 8689 fbbe dafd 343e 011d ca3e
00000070: 10ff 24be 54f6 05bd 5605 4f3c faba 6bbe
00000080: 82c3 77be 6f4c 49be bd04 5fbe 54fe 6ebe
00000090: 491c f2bd 0a7a b7be b6ea 0c3d 562c aa3e
000000a0: 49bb 853e 4eec a83e ec6f dcbe fa44 8ebe
000000b0: e78b 4dbe 5402 a1be 5ad1 e33d dfe7 21be
000000c0: 60c8 dbbe 7e09 a2bc 5466 edbd 2c16 ba3d
000000d0: 87c6 80be 6574 01be 1adf 8ebe d5e2 91bd
000000e0: d512 98bc 0109 8dbe 43f3 ccbe b888 9ebe
000000f0: 71f4 873a 671d b9be 85dd cd3b aee2 7cbe
0.14236037 0.21046771 0.23881283 0.25446436 -0.0021058163 0.11586149 0.22247376 -0.16364418
0.1634964 -0.32695436 -0.07357802 0.21499412 -0.25232995 -0.31435615 0.17662686 -0.07469168
-0.14953554 -0.28573877 0.07862644 -0.20963572 -0.34451166 -0.16501768 0.03297208 0.084597036
0.14824088 -0.4912836 0.17674962 0.39475253 -0.16112924 -0.03270562 0.0126355495 -0.23020545
-0.24195674 -0.19658063 -0.21779151 -0.23339206 -0.11821801 -0.35835296 0.034403525 0.3323695
0.2611945 0.32992786 -0.4305414 -0.27787 -0.200729 -0.3144709 0.11123915 -0.15811108
-0.42926311 -0.019779917 -0.11591783 0.0908626 -0.25151464 -0.12642057 -0.27904588 -0.07123343
-0.018563667 -0.27545932 -0.40029344 -0.30963683 0.0010372532 -0.36155245 0.0062825107 -0.24695846

net_container.2.weight f4 [64, 64]
00000000: bee6 053e d9df 43be c29d 95bc 0822 81bd
00000010: efbc 3ebe e9b4 44bd 38e5 cabc 728f 333e
00000020: 0760 2cbd daa3 883e 78c1 cc3d bb2e 633e
00000030: 7350 a53d 1163 dabc 43ac 4d3e 2bdf 7dbe
00000040: bd13 94bc cb41 c9bd 57b8 63bd d6d7 0cbd
00000050: 6eda 03bd ec78 2bbb ddca 09be 60b9 6ebe
00000060: 73f4 953e ad77 b93d 4ee1 9cbe 6c4e 25be
00000070: d797 f2bc b568 5cbe 6eef ebbd 2edd fbbe
00000080: 52ac 45be 4854 c63e 019e 1c3d 5fab e73d
00000090: 238e d63d 938a 8ebe a0e4 163d e0de f6bb
000000a0: 786c 87bd 09f4 563d 3b77 6c3e 67a1 463e
000000b0: 899f 0cbd 8057 073e b56c 81be 54f3 903e
000000c0: f6ef fdbd 6e42 7bbd 1dbe aa3d bb1d 7bbd
000000d0: 4e0f 893c 7f07 24be 0ad5 a2bc 04dd 083d
000000e0: 2a9c 07be b51d 8c3d 0ee5 f63c 5749 0c3e
000000f0: 0fe7 9cbe f5bb 7bbc 8bb8 52be bfd1 8b3d
00000100: c9ac 49bd e679 be3d b33d af3c 0c44 fb3d
00000110: 4e5d 0a3e 243a 7abd 7df9 733d 79bc a5be
00000120: 95d9 fa3d 95fa 853c 5e97 f1be 9083 bd3d
00000130: 27b2 6b3d 28ee f8bd 6a7b 3f3d 9ff8 5c3c
00000140: d157 36be 1a31 2a3d 0c34 cfbc 1a44 04be
00000150: 17f7 22be cab3 6b3e c9ee d6bc 132f 79bd
00000160: 5b6a c23d a291 923e 3ebb 743c c6f7 793c
00000170: 20d8 323d 20fd 063e 2e68 b9be f37a 39be
00000180: 877c 893e 01d2 f0bd 82cc 7cbe 96e5 16ba
00000190: 502e 93be d892 023d f951 27bd 6a3f 133e
000001a0: ece4 1c3e 8b0a e83d e75c 74bc 2af2 0abd
000001b0: 305d 5f3d d4e6 29be 5639 11be 30fb 36bd
000001c0: de02 81bd 575b e7bd f2b9 9dbc d5b5 34be
000001d0: 449c 28be f132 82be 2b32 073d af97 0fbd
000001e0: 4190 c13d 4718 b63d b643 51be c562 40be
000001f0: b8b8 b4bc 1bbf 8dbe e4c9 0cbd cce5 9fbd
00000200: 2873 74bd 3f9d f7bd ea15 54be 4561 693e
00000210: 6486 22be a7a2 283d 7a21 96be 6cf6 04be
00000220: e498 82be 55eb c23d d016 2fbc 04fd f8bd
00000230: c2e2 00be 2d94 3c3e efe6 83bd 86db e4bd
00000240: 3af7 a6be f7f2 e0bd 6204 393d a539 fdbd
00000250: ba92 da3d 3d3f 583d ef4a 1dbe 4444 fa3d
00000260: 9646 f0bc 15c2 0a3d 8647 cfbb 47e0 da3b
00000270: 26a8 13bd b21f a1bd 3d0a 0a3e d0fe 9fbd
00000280: 83c3 9abd d64d 56be 8f31 10be d19a ba3c
00000290: 23c0 db3d 3d4a 1fbe c9b5 c1bd a0ee db3d
000002a0: 9d1d 32be d649 933d 4d19 a9be 78c8 0f3d
000002b0: 4d39 a3bd 8e4e 543e d3a9 bd3d f549 293b
000002c0: 3295 debc f681 473d c848 9abd bee7 87be
000002d0: d0df 01be 8430 5abd 1983 aabd 1b77 c9bd
000002e0: 31a6 e3bd 1839 9e3d 9e1c 123d 1257 e33d
000002f0: 6cab b4bd 0050 bd3d 3dc7 3c3e 8fb6 873c
00000300: f1c3 9fbe 1110 163e b62e 6ebe 853b 823d
00000310: e3a3 d4bc c062 763d 4e28 d03d df65 9bbe
00000320: 37c3 0dbe 81eb 9abe d008 5cbd 6868 1c3e
00000330: 0bd7 fa3b 8b3c c83c 35d3 bebd 2fed 193c
00000340: 88f7 bcbe f7b0 9cbe 8519 8f3d 0b4a 273c
00000350: b0ea 5f3d 7982 b1be b97f 3cbe a77a 8abc
00000360: 82dd 08bd c6f3 38be 8d75 84bd d645 9f3c
00000370: 4f30 d3bc a370 603d 3f9c 87bd 82a7 1ebe
00000380: a9bc d33b 42a3 61be ce35 5a3d 5cfd 81be
00000390: a8b8 153e b87d 463c 86fa f43c f776 f23c
000003a0: dd12 2fbe 6feb 88bd c891 71be 5ff7 1ebd
000003b0: 272d 05be d4d7 54bc 8b18 723d ea76 f4bd
000003c0: 89d6 92bd e0d0 80bd 83bd 873e f8ed aebe
000003d0: ed40 423d d0c6 94be e97b 17be fb6f adbe
000003e0: 1ef8 bbbc d7b9 a8bd 55ce d33b 6442 8bbe
000003f0: 44ac 5a3b d258 c33c 114b 993c f6af 52bd
0.13076302 -0.1912836 -0.018263701 -0.06305319 -0.1862676 -0.048024092 -0.024767503 0.17535189
-0.042083766 0.2668751 0.09997839 0.22185795 0.08071985 -0.026658567 0.20085244 -0.24792163
-0.018075818 -0.09827002 -0.055595722 -0.034385525 -0.032190733 -0.0026164604 -0.13456292 -0.23312902
0.29288062 0.090560295 -0.30640644 -0.16143197 -0.029613419 -0.21524318 -0.11520277 -0.49192184
-0.19304016 0.38736176 0.03823662 0.11311983 0.10476329 -0.278401 0.036839128 -0.007533893
-0.06612486 0.052478824 0.23092358 0.19397508 -0.034331832 0.13216972 -0.2527825 0.28310645
-0.123992845 -0.06134265 0.083370425 -0.06130765 0.01673093 -0.16018485 -0.019876976 0.033413902
-0.13243166 0.06841604 0.030138519 0.13699852 -0.30645034 -0.015364637 -0.2057821 0.06827115
-0.049237046 0.09300594 0.021391725 0.12268838 0.13512155 -0.061090603 0.059564102 -0.32370356
0.12248532 0.016354838 -0.47185796 0.09253609 0.057542946 -0.121548 0.046748556 0.01348701
-0.17806937 0.041550733 -0.025293373 -0.12916604 -0.1591457 0.23017803 -0.026236909 -0.06083591
0.09492942 0.28626734 0.01493722 0.015256828 0.043663144 0.13182497 -0.36212295 -0.18113308
0.2685282 -0.11758805 -0.24687389 -0.0005756257 -0.2874627 0.031878322 -0.04084966 0.1437966
0.15321702 0.11330136 -0.014914728 -0.033922352 0.05453223 -0.1659196 -0.14182028 -0.044673145
-0.06299375 -0.112967186 -0.019253705 -0.17647488 -0.1646586 -0.2542949 0.03300683 -0.035056766
0.094513424 0.08891349 -0.20435986 -0.18787678 -0.022060737 -0.27684864 -0.034372225 -0.07807502
-0.059680134 -0.12090539 -0.20711485 0.22791012 -0.15871578 0.041170742 -0.29322416 -0.12984627
-0.2550727 0.09517542 -0.010686591 -0.12157634 -0.12586501 0.184159 -0.064405315 -0.11174683
-0.32610494 -0.10983842 0.045170195 -0.123645104 0.10672517 0.052794684 -0.15360616 0.12220052
-0.029330533 0.033876497 -0.006325665 0.006679568 -0.03604903 -0.078673735 0.13480468 -0.078122735
-0.07556822 -0.2092813 -0.14081405 0.0227789 0.107300065 -0.15555663 -0.09458501 0.107388735
-0.17394109 0.071918175 -0.33027115 0.03510329 -0.07969914 0.20733091 0.09260907 0.0025831435
-0.027170751 0.048707925 -0.07533413 -0.26543993 -0.12683034 -0.053268924 -0.08325786 -0.09837171
-0.11115683 0.077257335 0.035671823 0.11100592 -0.08821759 0.092437744 0.18435378 0.016566543
-0.3120418 0.14654566 -0.23260006 0.06359009 -0.025957054 0.06015277 0.101639375 -0.3035116
-0.13844 -0.302578 -0.05371934 0.15274203 0.0076550297 0.024442932 -0.09317628 0.009394928
-0.369076 -0.30603763 0.06987289 0.010210524 0.054667175 -0.34669855 -0.18408097 -0.016904188
-0.03341437 -0.18061742 -0.064677335 0.01944248 -0.025779871 0.05479492 -0.066215985 -0.15493587
0.006461699 -0.22034934 0.05327397 -0.2538861 0.14621222 0.012114935 0.029904615 0.029597742
-0.1709704 -0.066855304 -0.23590767 -0.03881013 -0.13005506 -0.012990911 0.059105437 -0.119367436
-0.071698256 -0.0628984 0.26511773 -0.3416593 0.0474252 -0.29057932 -0.14793362 -0.33874497
-0.02294546 -0.08238571 0.0064638057 -0.2719909 0.0033366838 0.023846064 0.018712552 -0.05143734

net_container.2.bias f4 [64]
00000000: eb04 bbbe 9cc5 43be 4682 5dbe a98e 27be
00000010: dee8 60be 0927 03be 6848 77be af58 033d
00000020: 64a4 a7be ef78 0a3e 85ba e6bd 4195 793d
00000030: dbd7 bebe d1f8 d9bd 95d8 b7be 3cc7 7b3e
00000040: 484f db3d 9a33 8ebe 1a40 e33c 94c5 58be
00000050: c579 8fbe bf8a 7dbe 1e0a 8dbd b321 343e
00000060: b247 a53d 84b8 c23d b8f1 1bbe 4352 41bd
00000070: 15aa 3a3d cb4f ca3c 110b 9fbd 0053 73be
00000080: 9d6b 123e 6281 2e3e 70af ba3d 018a da3d
00000090: af7f efbe 1a9a 9fbe 646d d1bd 8107 e5bd
000000a0: 2ed1 6c3d d9b6 cdbd 30c1 85be 0281 473e
000000b0: fd0a c8be d0bf 20bb a3d3 43be 6e13 873e
000000c0: 0dc3 66be a1bb 4b3e 7be3 ee3c cf10 25bd
000000d0: 5eb5 813e 2222 99be 5ab2 60be 332f 0a3e
000000e0: 70f6 d1be 9e1a 6fbd f176 b3bd ca12 f4bb
000000f0: e28a 18be f08b ddbe c246 cbbe a752 c7bc
-0.3652719 -0.1911835 -0.21631727 -0.16363014 -0.21963832 -0.1280786 -0.24148715 0.032066997
-0.32742608 0.13522695 -0.112660445 0.060933355 -0.3727406 -0.10643161 -0.35907426 0.2458772
0.10708481 -0.27773744 0.027740527 -0.2116912 -0.2802259 -0.24759959 -0.06886695 0.1759098
0.080703154 0.0950785 -0.15228927 -0.04719759 0.04557236 0.024696251 -0.077657826 -0.2376213
0.14298864 0.17041543 0.09115493 0.106708534 -0.46777102 -0.31172258 -0.10225943 -0.11183072
0.057816677 -0.10044641 -0.26123953 0.19482806 -0.39070883 -0.0024528392 -0.19123702 0.2638201
-0.22535343 0.19895793 0.029161206 -0.040299233 0.25333685 -0.29908854 -0.21943036 0.13494568
-0.4100833 -0.058374994 -0.08762921 -0.007448529 -0.1489673 -0.43270826 -0.3970242 -0.024331404

policy_layer.weight f4 [7, 64]
00000000: f2fe 853e ca63 b7bc 8b19 a7bd 97ad 04be
00000010: e6e8 1dbd 8c9a 34bc 19a7 5cbd ce5b 4a3d
00000020: 3be3 70bd b3e8 183e 1b31 453e 9cfc c33d
00000030: b194 3abd 219e 69be 1cec ffbb fcdf 53bd
00000040: ba14 8fbd 0c70 83bd 17b5 ab3c 7f45 163e
00000050: ee37 dcbd 2d0d bbbd 9979 fc3d 773b 873b
00000060: f856 4d3d 6286 8cbe 7f8f 18be 4cf8 f9ba
00000070: e614 37be 6bd9 ac3d a398 cabb fa07 f0bc
00000080: fbbc ccbc dccd fb3d 6c21 0e3e 58ab 12be
00000090: 6ca5 233d f101 0d3d 4a1b a1bd 7a9a 9abe
000000a0: d20e e53d a2a0 edbd a83b 06bd ef4f f9bc
000000b0: b215 1cbe 4802 00be 3368 75bd 1327 cd3d
000000c0: 9b8b af3d 796d 2ebc 0115 84bd 494b fa3b
000000d0: 10ec 53bd a12c 653d fdad f7ba 1a94 13be
000000e0: 9eca 8c3e 07b1 e73d 932b 393c 6006 b8bd
000000f0: e3d9 47bc 563e 31bd 1b54 8e3e e734 24be
00000100: 62b5 59bd aac6 b9bc 1732 62be 562a 00be
00000110: 3a7a dabd 1ddd 693c 6282 733d b897 c0bb
00000120: 1d96 0dbd ab55 dc3d 725f febc fc09 953d
00000130: 6a52 6ebc ca17 c23d 505b 863d 3ea3 53bd
00000140: 5c1a 55bc b36e 1b3d 19a6 acbc 8763 2fbd
00000150: ef42 73bd 1936 51be bc6e 973d 1e44 b93d
00000160: 09d8 543d 77de 85bd 25cb 393c 2663 12be
00000170: c910 903c c648 963d 37bf 69be fe62 5ebe
00000180: 3c91 663d 8955 ce3d fd11 f33d 1719 3e3d
00000190: b4cf 08bd be22 8bbd 5083 623e e702 64bc
000001a0: 6e7c 383e 90ca 5cbb 99f5 f03d 7767 143e
000001b0: f989 873d 9781 0f3e aa66 093e 8894 003b
000001c0: 9642 23bc 9915 8f3d b3cc c23d db26 563c
000001d0: c4d3 44bd 0aa4 acbd 6391 05bd 44e7 fa3d
000001e0: 2b6d dbbd 6be2 60bd cd3c a5bc 1291 adbc
000001f0: 4b69 31bd c17f 1c3c 007b 27be a1c5 6ebd
00000200: fadd 873e 824b d93d 6a53 fabb 49bb bebd
00000210: ff68 e63c 4d6d 51bd 4a1d d8ba aebf e73d
00000220: b788 4d3d 585a 923b 0933 1a3e 7f13 6abc
00000230: 2a10 c9bc 77ec 8abe 029f 56bd 5f17 10be
00000240: 7a65 593d 226d e3bd f2fc 20be 934c 0c3e
00000250: dbc3 2ebd 3394 a23c b24e eabd 2716 0a3d
00000260: bf1e d9bb 5041 e2bd 0a45 0fbe c778 a73d
00000270: 8450 be3d cc05 1cbe 232c 6cba 28b2 36bd
00000280: 02ae 0fbd c6cb 753d 734e 5a3e f39e 883d
00000290: 9096 713d 67a1 313e e722 37bd c2c9 83be
000002a0: 8437 523e 92c2 50bd df42 5c3b 4f39 2a3e
000002b0: ba75 05be 3851 4a3d 1c7f 963c 0b97 64bd
000002c0: 07a9 17be f68c 90bd f13a 033d 34c9 b8bd
000002d0: 145d 623d d4f4 c9bd 5639 d3bd 0910 abbd
000002e0: 8c8d 233e 015d 223e 894b bf3c d7b2 1fbd
000002f0: 883e acbd ff65 9fbb 4b18 a8bd c92d 15be
00000300: b92a 99bd 44ff 6b3d 0619 ae3d 1ed5 d7bc
00000310: 7c79 c6bd 3efb 49be 2270 97be 37b7 0abc
00000320: 82a3 38be 2b54 2fbc 5ba2 3f3d 5d37 1c3d
00000330: 8ed7 f1bd 0b0a 17be 4d52 2fbe dd2e d03c
00000340: 424c 053d 325b 79bc d0c9 103e 27ca 1fbe
00000350: 5c58 77bd fc36 2abd 1e19 a2bb 32fa d93d
00000360: 530b 73bd 0d45 28be 2229 9cbe e0be f6bd
00000370: 4070 2f3d 04da 413e 6f57 a8bc 44cb 4a3e
00000380: 4f61 9a3d 8bc5 e43d f875 debd 7f77 bb3c
00000390: 9a73 8abc 8d75 e4bd a4f5 763d 97ce e9bc
000003a0: f2b9 853d a219 c7bd 7d3d 39be 1743 0ebb
000003b0: 099e bd3c 97a4 f83d 2c7a 24bd 60c6 2c3d
000003c0: 996d 1b3d 1c81 01bd a9f9 293e b25c 7c3d
000003d0: 8580 8f3d 68e5 b4bd 6737 a43d 5cd2 a53d
000003e0: 3a99 11be e498 94bd 3491 733d 4294 19bb
000003f0: 64d2 81bd c1fa 04be 1241 68be 8ef5 71bb
0.2617107 -0.02238645 -0.08159169 -0.12956844 -0.038552187 -0.011023175 -0.053870294 0.049403958
-0.058810454 0.14932518 0.19257013 0.09569666 -0.04555196 -0.22814228 -0.007810129 -0.05172728
-0.06986375 -0.064178556 0.020960374 0.14674948 -0.10752855 -0.091333725 0.123278804 0.004126962
0.050131768 -0.27446276 -0.1489849 -0.0019071191 -0.17879066 0.08439907 -0.0061827465 -0.029300679
-0.024992457 0.12295124 0.13879937 -0.14323175 0.03995268 0.03442568 -0.07866533 -0.3019598
0.111844674 -0.11602904 -0.032771736 -0.030433623 -0.15242651 -0.1250087 -0.059913825 0.100172184
0.085715495 -0.0106462175 -0.06449319 0.007638369 -0.0517388 0.055950765 -0.0018896457 -0.14411965
0.27498335 0.11313062 0.011301893 -0.08985591 -0.012197944 -0.04327234 0.27798542 -0.16035806
-0.053151496 -0.022677738 -0.2208942 -0.1251615 -0.10667844 0.014273909 0.059450515 -0.0058774613
-0.034566987 0.10758527 -0.031051371 0.07277295 -0.014546016 0.09477194 0.06560385 -0.05166935
-0.013006773 0.037947368 -0.021075295 -0.042819526 -0.059390005 -0.20430793 0.07394168 0.090461954
0.05196384 -0.065365724 0.011339937 -0.14295635 0.017586129 0.07338099 -0.22826849 -0.2171745
0.05629085 0.10074908 0.11868665 0.046410646 -0.033401206 -0.06793736 0.22120404 -0.013916708
0.18016216 -0.0033690073 0.11765594 0.14492594 0.06618113 0.14014278 0.1341807 0.0019619782
-0.009964606 0.06986541 0.095116995 0.013070787 -0.048053518 -0.084297255 -0.032609355 0.12251142
-0.107141815 -0.05490343 -0.020170594 -0.021187339 -0.043313306 0.009551943 -0.16355515 -0.058293942
0.26536542 0.10610105 -0.0076393383 -0.093130656 0.028126238 -0.051129628 -0.0016488221 0.11315857
0.05017921 0.004466336 0.15058531 -0.014286875 -0.02454384 -0.27133533 -0.052397735 -0.14071415
0.05307529 -0.111048 -0.15721491 0.13701086 -0.04266725 0.019846058 -0.11440791 0.033712532
-0.0066259797 -0.110476136 -0.1399118 0.08177333 0.09292701 -0.15236586 -0.00090092624 -0.044603497
-0.035078056 0.060008787 0.21318989 0.06670942 0.05898148 0.17346726 -0.04471102 -0.25739866
0.2052899 -0.050966807 0.0033609194 0.16623424 -0.1303319 0.049393862 0.018371157 -0.05580811
-0.14810573 -0.07058136 0.032038633 -0.090227515 0.055264547 -0.098611504 -0.1031367 -0.08352668
0.15971965 0.1585579 0.023351448 -0.038988914 -0.084103644 -0.004864454 -0.082077585 -0.14568247
-0.07478852 0.057616487 0.085008666 -0.02634674 -0.0969114 -0.19724748 -0.29577738 -0.008466533
-0.18031123 -0.01070122 0.046785694 0.038138736 -0.11808692 -0.14749925 -0.17121239 0.025412971
0.03254343 -0.015219497 0.14139485 -0.15604459 -0.060387 -0.041556343 -0.004946842 0.10643424
-0.05933697 -0.16432591 -0.30500132 -0.12048125 0.04283166 0.18930823 -0.020549504 0.19804102
0.075380914 0.11170491 -0.108623445 0.022884129 -0.016900826 -0.111552335 0.060292855 -0.028540893
0.06529607 -0.09721686 -0.18089862 -0.002170747 0.023146646 0.12140768 -0.040155575 0.042181373
0.037946317 -0.03161727 0.16599144 0.06161184 0.07006935 -0.08832818 0.0801838 0.080967635
-0.14218608 -0.07255724 0.05946465 -0.0023434316 -0.06338957 -0.1298628 -0.22681072 -0.0036920044

policy_layer.bias f4 [7]
00000000: 000d 353d 0b52 943d c00d f1bc f260 923e
00000010: ccf1 3cbd 680a 06be 3dc4 563d
0.04420185 0.07242211 -0.029425502 0.28589588 -0.046129033 -0.13089907 0.05243324

value_layer.weight f4 [1, 64]
00000000: 6e4d 16bc 91de 6e3c 6417 0cbc 3bb8 8bbd
00000010: 305d 173d 0f1d 8dbd 5356 723d f9ab 53bd
00000020: 52d0 d6bd 4000 05bd 4205 ae3d 9044 49bd
00000030: 6c11 efbd 8bc5 aa3d 053c 843c 907c 9dbc
00000040: 35cf dcbd 1949 b3bc 85a8 febc 79ef f8bc
00000050: 0455 d43d 781d a73d a121 2d3d fd31 e4bc
00000060: b913 16bd edd0 aebc f032 1abd 7f36 193d
00000070: a552 c23b 7065 e1bc e075 98bd 09c7 e23c
00000080: a332 01bd 7f07 bb3c fc52 cd3c 3d5e 253d
00000090: fda0 113d 4d4b 16be 38c1 063c 912b 99bd
000000a0: d733 403d be14 163d 84c7 b7bd 1515 063e
000000b0: 2e31 c73b 4077 723c e92f 9ebd 2ada a6b9
000000c0: 4895 fd3d 2f8e e33c f8c8 4ebd 211a a1bc
000000d0: 9593 ab3d 80aa 3fbd e271 dbbc 3af5 3e3b
000000e0: 1445 59bd 34ac 3cbd e242 80bd b98f 05bd
000000f0: b8af 20bb b6af 71bd f5e5 37bd d26c 1dbd
-0.009173734 0.014579431 -0.008550499 -0.068222485 0.036954105 -0.06890308 0.059164356 -0.051677678
-0.10488953 -0.03247094 0.084970966 -0.049137652 -0.11673245 0.083384596 0.0161419 -0.019224435
-0.10781709 -0.021885442 -0.031086216 -0.030387627 0.10367778 0.081599176 0.0422684 -0.027855868
-0.036639903 -0.021339858 -0.037646234 0.037405487 0.005930262 -0.02751419 -0.07444358 0.027682798
-0.03154243 0.022830723 0.025063984 0.040373076 0.03555392 -0.14677162 0.008224778 -0.07479013
0.04692444 0.036640875 -0.089736015 0.1309398 0.0060788607 0.014798939 -0.07723982 -0.00031824532
0.12381989 0.02777776 -0.050484627 -0.01966578 0.083777584 -0.04679346 -0.026787702 0.0029137866
-0.053044394 -0.046062663 -0.06262757 -0.032607768 -0.00245188 -0.05900546 -0.04489704 -0.038433857

log_std_parameter f4 [7]
00000000: c3c9 24c0 d5a7 20c0 507f 2dc0 5f2e 29c0
00000010: 778f 25c0 0484 2ec0 db4d 1ac0
-2.5748146 -2.5102437 -2.7108955 -2.6434553 -2.5868814 -2.7268076 -2.411002

net_container.0.weight f4 [64, 32]
00000000: b413 cebe 21fd 183e 54ac c2be 02c9 0abe
00000010: 6aa3 5c3d f644 7ebd e47f 8e3e dfcd ccbb
00000020: fe56 1b3d 49c6 1fbe a88e 263e ac11 80be
00000030: 9692 d03c 3e67 243d d685 7cbc 1039 2dbe
00000040: 2e7a 083e e47e 2bbd 3368 a83e 8f04 193e
00000050: d5a1 ad3d f205 b43e d61b 72be 28c7 82be
00000060: 973b 2ebe 8e81 26bd 98e2 a73d 3d64 013d
00000070: d6f9 863d 159d d4bd c827 8ebd 080a 20be
00000080: 48c9 aebd 20b4 7cbe 3ecd 80be 8759 77be
00000090: adc7 19bd f4f9 14bd 528b 11be 3ea9 ec3a
000000a0: c40f dc3b df02 87bc 4eae f9bd 3f8b 2b3c
000000b0: afac 573d 3cd5 eb3d 5f61 d6bd cd1d 04be
000000c0: 0084 64bd e39b acbd 3f57 03be 712c 813d
000000d0: 9ff8 b4be 40bc c9be f26c 0fbf fed5 af3e
000000e0: dfe2 25bf db2b 893e a510 5fbd 4241 31bd
000000f0: 7162 bdbd 4649 a9bd e743 8b3d 587b e6bc
00000100: a61e 5abe 0253 08be d80a 85be 43a0 783e
00000110: a2aa 11bd b5b8 dc3d 6dfd 273e 0817 053e
00000120: 1d22 3ebc 3860 b1bd 9491 3dbe 7955 ea3d
00000130: 80ff 1a3e 0301 56bd bbff 5abd d323 b7bb
00000140: a031 c73d 26b0 cfbc f166 983e d4aa e53e
00000150: 6e6f 0cbf 2af5 87be b0f8 48bc 82d4 063e
00000160: 2d35 afbd 3ca9 abbc b5a7 44bd 78d4 0c3d
00000170: 03d3 45bd a2bd d63d f959 c3bd c388 b63c
00000180: 17c6 d33d c347 30be 5cf6 d1bd 5cdb 77be
00000190: 41b4 093e 59e4 323e c388 d6bd 5199 593c
000001a0: 8686 aa3c 14a6 9d3b ab3c a13d 73ed a63c
000001b0: 64da 80bd fce4 98bd fabd f8bc 9bfd 903d
000001c0: 6df1 993d 82e1 07bd ae3b f3be 1596 43be
000001d0: 33c3 223f b01d ccbe e570 963e 1c4d 9a3e
000001e0: bd48 a13e 2f9d dfbd 497b 4bbe ac29 18be
000001f0: 0958 7fbb 4935 183e a5cc b1bc dc2b bebc
00000200: 8afa 03be 579e 4fbe a567 91bc 7c0d 13be
00000210: 0ab1 13be d50c f43b 432d 42bd 0242 3cbd
00000220: 9312 463d 9108 75bd ae41 72bb a55b de3b
00000230: 0380 46be 040f a13c 502a db3a 8a6f 873c
00000240: a33f 8bbd 9931 06be d268 c23e 9548 d7bd
00000250: de28 113f 8d0f d5be 417b d9be aa5d 0a3f
00000260: 1763 03bf c63d b13c 0eba 023d d4d4 d93a
00000270: e9f0 2a3e 4cb8 913c 6136 19bd ec6b 58be
00000280: c3e8 45be 5020 cbbe 366c 963d 8c8d 483b
00000290: 4e6d e23d 999b 7fbe eb60 48be 8c3e 2b3d
000002a0: 216e eebc 6165 10bc cd21 1cbe b2ec 863d
000002b0: 0a30 ba3d dea6 a53d a552 39bc cd67 bcbd
000002c0: ab45 fd3c 27a7 483d 7201 863e 2aa4 6c3d
000002d0: 2d5b 7cbd 12cf 093e 1e30 023d 5cc1 2f3c
000002e0: a3f3 d73c bd6b 023d 40e6 313c c6e0 443d
000002f0: aa28 e1bd 9118 9bbd f0c7 08be 8012 b53d
00000300: c58d 63bb 42ba 6ebe 88d5 6c3d 334a 8c3d
00000310: e0ef a9b9 25f7 9b3e 65d1 87be 8875 babd
00000320: 88f8 0b3d a4c9 14be 2b9c 0c3e a4fb 0cbe
00000330: 9849 0dbe 8576 b73d 4adf 963d fa64 213e
00000340: 9510 ddbd 45fc 2abd 2608 65bc 18f0 1a3e
00000350: cdb7 1fbf 7ab2 95be 5c76 1bbf 309e a73e
00000360: 5143 d6be a582 cfbd 409d 283c e4c9 52bc
00000370: 148a 003d d4de a63d 8994 f8bd 3521 153d
00000380: 5d6e 9ebe b12f b2be cc24 09bf 0f6d e839
00000390: fc01 413e bdf2 193e 6218 ae3e 2785 fb3b
000003a0: 634c f3bc d7cb 1bbe 1c04 8bbe 6a6a 21be
000003b0: cc8d c1bd d4a1 eabc bb02 a63c 5d92 0fbc
000003c0: 2e65 a6bd 1fb3 203e 2d34 9e3e 8357 083e
000003d0: 206e 8a3d e9ae 1fbd 1dbe 6dbf a8bf 33be
000003e0: b3d3 6abf d61c c03d 83d9 163e 7000 ee3c
000003f0: 6758 ccbd 200c eb3d 2330 9dbd 2413 a53e
-0.40249407 0.14940311 -0.380221 -0.13553241 0.05386678 -0.062077485 0.27831948 -0.0062501277
0.03792476 -0.15602984 0.16265357 -0.25013483 0.025460523 0.040137522 -0.015412768 -0.16916299
0.13327858 -0.04186906 0.32891998 0.14943145 0.08478133 0.35160786 -0.23643431 -0.2554257
-0.17014919 -0.040650897 0.08197516 0.031589735 0.06590621 -0.103815235 -0.069411814 -0.15628827
-0.08534485 -0.24678087 -0.25156587 -0.24155246 -0.03754394 -0.036371186 -0.14213303 0.0018055809
0.0067157466 -0.016480861 -0.12191449 0.010470211 0.05265492 0.115152806 -0.10467791 -0.12901993
-0.055789948 -0.084281705 -0.1282625 0.06307305 -0.35345933 -0.39401436 -0.5602561 0.3434295
-0.647993 0.26791272 -0.054459233 -0.043275125 -0.09247292 -0.08265929 0.06800061 -0.028134987
-0.21300754 -0.13312915 -0.25984836 0.24279885 -0.03556312 0.107774176 0.16405268 0.12997067
-0.011604813 -0.086609304 -0.18512565 0.11442084 0.15136528 -0.05224706 -0.05346654 -0.0055889874
0.09726262 -0.025352549 0.29766038 0.44856894 -0.5485753 -0.26554233 -0.012266323 0.13167003
-0.08555064 -0.02095472 -0.0480115 0.034382313 -0.04829694 0.10485388 -0.09538645 0.02228201
0.10340517 -0.17214875 -0.102520674 -0.24204773 0.13447668 0.1746992 -0.10475304 0.013281182
0.020816099 0.004811058 0.078728996 0.020376896 -0.06291655 -0.0746555 -0.030364025 0.070796214
0.075167514 -0.033174045 -0.4750647 -0.1910022 0.635791 -0.398664 0.29383007 0.30136955
0.31500807 -0.10918652 -0.19871248 -0.14859647 -0.0038962385 0.14864077 -0.021704027 -0.023214273
-0.12888542 -0.20275246 -0.017749617 -0.14360613 -0.14423004 0.0074478188 -0.047406446 -0.045961387
0.048357558 -0.059822623 -0.0036965418 0.006785827 -0.1938477 0.01966048 0.0016720984 0.016532678
-0.06799247 -0.13104858 0.37970597 -0.10511891 0.56702983 -0.41613427 -0.42476848 0.5404917
-0.51323074 0.021635901 0.031915717 0.0016619214 0.16693462 0.017788075 -0.037405375 -0.21134919
-0.19327073 -0.3967309 0.07344858 0.0030601947 0.110560045 -0.249617 -0.19568221 0.041807696
-0.029105248 -0.008813233 -0.15247269 0.06588115 0.09091194 0.08088468 -0.011311208 -0.09199486
0.03091701 0.048987534 0.26172978 0.057773747 -0.06161039 0.13457897 0.03178417 0.010727253
0.026361292 0.03184103 0.0108581185 0.048065923 -0.10994084 -0.07573045 -0.1335752 0.08841419
-0.0034721952 -0.23313239 0.057820827 0.0685009 -0.00032412913 0.30461994 -0.26526943 -0.091044486
0.034172565 -0.14530045 0.13731448 -0.13767868 -0.13797605 0.08958153 0.07366808 0.15761176
-0.107941784 -0.04174449 -0.0139789935 0.15130651 -0.6238983 -0.2923773 -0.6072748 0.32737875
-0.41848233 -0.1013234 0.010291398 -0.012865517 0.03138168 0.0814797 -0.12137706 0.03640862
-0.30943576 -0.3480201 -0.5357177 0.00044331743 0.18848413 0.15034004 0.34002978 0.007675785
-0.02969951 -0.15214477 -0.27151573 -0.1576325 -0.09450874 -0.028641619 0.020264974 -0.008762923
-0.08124767 0.1569333 0.30899182 0.13314633 0.06759286 -0.038985167 -0.92868215 -0.1755358
-0.9172928 0.093805 0.14731412 0.029052943 -0.09977799 0.11476922 -0.07675197 0.32241166

net_container.0.bias f4 [64]
00000000: ebc6 113e d984 573e 5a8b 743e 2749 823e
00000010: bc01 0abb ca48 ed3d 29d0 633e 5792 27be
00000020: 9a6b 273e 9066 a7be 13b0 96bd 6b27 5c3e
00000030: 6431 81be 4af3 a0be acdd 343e f4f7 98bd
00000040: d81f 19be 5a4c 92be e606 a13d bfaa 56be
00000050: d563 b0be 65fa 28be bb0d 073d 3641 ad3d
00000060: 75cc 173e 8689 fbbe dafd 343e 011d ca3e
00000070: 10ff 24be 54f6 05bd 5605 4f3c faba 6bbe
00000080: 82c3 77be 6f4c 49be bd04 5fbe 54fe 6ebe
00000090: 491c f2bd 0a7a b7be b6ea 0c3d 562c aa3e
000000a0: 49bb 853e 4eec a83e ec6f dcbe fa44 8ebe
000000b0: e78b 4dbe 5402 a1be 5ad1 e33d dfe7 21be
000000c0: 60c8 dbbe 7e09 a2bc 5466 edbd 2c16 ba3d
000000d0: 87c6 80be 6574 01be 1adf 8ebe d5e2 91bd
000000e0: d512 98bc 0109 8dbe 43f3 ccbe b888 9ebe
000000f0: 71f4 873a 671d b9be 85dd cd3b aee2 7cbe
0.14236037 0.21046771 0.23881283 0.25446436 -0.0021058163 0.11586149 0.22247376 -0.16364418
0.1634964 -0.32695436 -0.07357802 0.21499412 -0.25232995 -0.31435615 0.17662686 -0.07469168
-0.14953554 -0.28573877 0.07862644 -0.20963572 -0.34451166 -0.16501768 0.03297208 0.084597036
0.14824088 -0.4912836 0.17674962 0.39475253 -0.16112924 -0.03270562 0.0126355495 -0.23020545
-0.24195674 -0.19658063 -0.21779151 -0.23339206 -0.11821801 -0.35835296 0.034403525 0.3323695
0.2611945 0.32992786 -0.4305414 -0.27787 -0.200729 -0.3144709 0.11123915 -0.15811108
-0.42926311 -0.019779917 -0.11591783 0.0908626 -0.25151464 -0.12642057 -0.27904588 -0.07123343
-0.018563667 -0.27545932 -0.40029344 -0.30963683 0.0010372532 -0.36155245 0.0062825107 -0.24695846

net_container.2.weight f4 [64, 64]
00000000: bee6 053e d9df 43be c29d 95bc 0822 81bd
00000010: efbc 3ebe e9b4 44bd 38e5 cabc 728f 333e
00000020: 0760 2cbd daa3 883e 78c1 cc3d bb2e 633e
00000030: 7350 a53d 1163 dabc 43ac 4d3e 2bdf 7dbe
00000040: bd13 94bc cb41 c9bd 57b8 63bd d6d7 0cbd
00000050: 6eda 03bd ec78 2bbb ddca 09be 60b9 6ebe
00000060: 73f4 953e ad77 b93d 4ee1 9cbe 6c4e 25be
00000070: d797 f2bc b568 5cbe 6eef ebbd 2edd fbbe
00000080: 52ac 45be 4854 c63e 019e 1c3d 5fab e73d
00000090: 238e d63d 938a 8ebe a0e4 163d e0de f6bb
000000a0: 786c 87bd 09f4 563d 3b77 6c3e 67a1 463e
000000b0: 899f 0cbd 8057 073e b56c 81be 54f3 903e
000000c0: f6ef fdbd 6e42 7bbd 1dbe aa3d bb1d 7bbd
000000d0: 4e0f 893c 7f07 24be 0ad5 a2bc 04dd 083d
000000e0: 2a9c 07be b51d 8c3d 0ee5 f63c 5749 0c3e
000000f0: 0fe7 9cbe f5bb 7bbc 8bb8 52be bfd1 8b3d
00000100: c9ac 49bd e679 be3d b33d af3c 0c44 fb3d
00000110: 4e5d 0a3e 243a 7abd 7df9 733d 79bc a5be
00000120: 95d9 fa3d 95fa 853c 5e97 f1be 9083 bd3d
00000130: 27b2 6b3d 28ee f8bd 6a7b 3f3d 9ff8 5c3c
00000140: d157 36be 1a31 2a3d 0c34 cfbc 1a44 04be
00000150: 17f7 22be cab3 6b3e c9ee d6bc 132f 79bd
00000160: 5b6a c23d a291 923e 3ebb 743c c6f7 793c
00000170: 20d8 323d 20fd 063e 2e68 b9be f37a 39be
00000180: 877c 893e 01d2 f0bd 82cc 7cbe 96e5 16ba
00000190: 502e 93be d892 023d f951 27bd 6a3f 133e
000001a0: ece4 1c3e 8b0a e83d e75c 74bc 2af2 0abd
000001b0: 305d 5f3d d4e6 29be 5639 11be 30fb 36bd
000001c0: de02 81bd 575b e7bd f2b9 9dbc d5b5 34be
000001d0: 449c 28be f132 82be 2b32 073d af97 0fbd
000001e0: 4190 c13d 4718 b63d b643 51be c562 40be
000001f0: b8b8 b4bc 1bbf 8dbe e4c9 0cbd cce5 9fbd
00000200: 2873 74bd 3f9d f7bd ea15 54be 4561 693e
00000210: 6486 22be a7a2 283d 7a21 96be 6cf6 04be
00000220: e498 82be 55eb c23d d016 2fbc 04fd f8bd
00000230: c2e2 00be 2d94 3c3e efe6 83bd 86db e4bd
00000240: 3af7 a6be f7f2 e0bd 6204 393d a539 fdbd
00000250: ba92 da3d 3d3f 583d ef4a 1dbe 4444 fa3d
00000260: 9646 f0bc 15c2 0a3d 8647 cfbb 47e0 da3b
00000270: 26a8 13bd b21f a1bd 3d0a 0a3e d0fe 9fbd
00000280: 83c3 9abd d64d 56be 8f31 10be d19a ba3c
00000290: 23c0 db3d 3d4a 1fbe c9b5 c1bd a0ee db3d
000002a0: 9d1d 32be d649 933d 4d19 a9be 78c8 0f3d
000002b0: 4d39 a3bd 8e4e 543e d3a9 bd3d f549 293b
000002c0: 3295 debc f681 473d c848 9abd bee7 87be
000002d0: d0df 01be 8430 5abd 1983 aabd 1b77 c9bd
000002e0: 31a6 e3bd 1839 9e3d 9e1c 123d 1257 e33d
000002f0: 6cab b4bd 0050 bd3d 3dc7 3c3e 8fb6 873c
00000300: f1c3 9fbe 1110 163e b62e 6ebe 853b 823d
00000310: e3a3 d4bc c062 763d 4e28 d03d df65 9bbe
00000320: 37c3 0dbe 81eb 9abe d008 5cbd 6868 1c3e
00000330: 0bd7 fa3b 8b3c c83c 35d3 bebd 2fed 193c
00000340: 88f7 bcbe f7b0 9cbe 8519 8f3d 0b4a 273c
00000350: b0ea 5f3d 7982 b1be b97f 3cbe a77a 8abc
00000360: 82dd 08bd c6f3 38be 8d75 84bd d645 9f3c
00000370: 4f30 d3bc a370 603d 3f9c 87bd 82a7 1ebe
00000380: a9bc d33b 42a3 61be ce35 5a3d 5cfd 81be
00000390: a8b8 153e b87d 463c 86fa f43c f776 f23c
000003a0: dd12 2fbe 6feb 88bd c891 71be 5ff7 1ebd
000003b0: 272d 05be d4d7 54bc 8b18 723d ea76 f4bd
000003c0: 89d6 92bd e0d0 80bd 83bd 873e f8ed aebe
000003d0: ed40 423d d0c6 94be e97b 17be fb6f adbe
000003e0: 1ef8 bbbc d7b9 a8bd 55ce d33b 6442 8bbe
000003f0: 44ac 5a3b d258 c33c 114b 993c f6af 52bd
0.13076302 -0.1912836 -0.018263701 -0.06305319 -0.1862676 -0.048024092 -0.024767503 0.17535189
-0.042083766 0.2668751 0.09997839 0.22185795 0.08071985 -0.026658567 0.20085244 -0.24792163
-0.018075818 -0.09827002 -0.055595722 -0.034385525 -0.032190733 -0.0026164604 -0.13456292 -0.23312902
0.29288062 0.090560295 -0.30640644 -0.16143197 -0.029613419 -0.21524318 -0.11520277 -0.49192184
-0.19304016 0.38736176 0.03823662 0.11311983 0.10476329 -0.278401 0.036839128 -0.007533893
-0.06612486 0.052478824 0.23092358 0.19397508 -0.034331832 0.13216972 -0.2527825 0.28310645
-0.123992845 -0.06134265 0.083370425 -0.06130765 0.01673093 -0.16018485 -0.019876976 0.033413902
-0.13243166 0.06841604 0.030138519 0.13699852 -0.30645034 -0.015364637 -0.2057821 0.06827115
-0.049237046 0.09300594 0.021391725 0.12268838 0.13512155 -0.061090603 0.059564102 -0.32370356
0.12248532 0.016354838 -0.47185796 0.09253609 0.057542946 -0.121548 0.046748556 0.01348701
-0.17806937 0.041550733 -0.025293373 -0.12916604 -0.1591457 0.23017803 -0.026236909 -0.06083591
0.09492942 0.28626734 0.01493722 0.015256828 0.043663144 0.13182497 -0.36212295 -0.18113308
0.2685282 -0.11758805 -0.24687389 -0.0005756257 -0.2874627 0.031878322 -0.04084966 0.1437966
0.15321702 0.11330136 -0.014914728 -0.033922352 0.05453223 -0.1659196 -0.14182028 -0.044673145
-0.06299375 -0.112967186 -0.019253705 -0.17647488 -0.1646586 -0.2542949 0.03300683 -0.035056766
0.094513424 0.08891349 -0.20435986 -0.18787678 -0.022060737 -0.27684864 -0.034372225 -0.07807502
-0.059680134 -0.12090539 -0.20711485 0.22791012 -0.15871578 0.041170742 -0.29322416 -0.12984627
-0.2550727 0.09517542 -0.010686591 -0.12157634 -0.12586501 0.184159 -0.064405315 -0.11174683
-0.32610494 -0.10983842 0.045170195 -0.123645104 0.10672517 0.052794684 -0.15360616 0.12220052
-0.029330533 0.033876497 -0.006325665 0.006679568 -0.03604903 -0.078673735 0.13480468 -0.078122735
-0.07556822 -0.2092813 -0.14081405 0.0227789 0.107300065 -0.15555663 -0.09458501 0.107388735
-0.17394109 0.071918175 -0.33027115 0.03510329 -0.07969914 0.20733091 0.09260907 0.0025831435
-0.027170751 0.048707925 -0.07533413 -0.26543993 -0.12683034 -0.053268924 -0.08325786 -0.09837171
-0.11115683 0.077257335 0.035671823 0.11100592 -0.08821759 0.092437744 0.18435378 0.016566543
-0.3120418 0.14654566 -0.23260006 0.06359009 -0.025957054 0.06015277 0.101639375 -0.3035116
-0.13844 -0.302578 -0.05371934 0.15274203 0.0076550297 0.024442932 -0.09317628 0.009394928
-0.369076 -0.30603763 0.06987289 0.010210524 0.054667175 -0.34669855 -0.18408097 -0.016904188
-0.03341437 -0.18061742 -0.064677335 0.01944248 -0.025779871 0.05479492 -0.066215985 -0.15493587
0.006461699 -0.22034934 0.05327397 -0.2538861 0.14621222 0.012114935 0.029904615 0.029597742
-0.1709704 -0.066855304 -0.23590767 -0.03881013 -0.13005506 -0.012990911 0.059105437 -0.119367436
-0.071698256 -0.0628984 0.26511773 -0.3416593 0.0474252 -0.29057932 -0.14793362 -0.33874497
-0.02294546 -0.08238571 0.0064638057 -0.2719909 0.0033366838 0.023846064 0.018712552 -0.05143734

net_container.2.bias f4 [64]
00000000: eb04 bbbe 9cc5 43be 4682 5dbe a98e 27be
00000010: dee8 60be 0927 03be 6848 77be af58 033d
00000020: 64a4 a7be ef78 0a3e 85ba e6bd 4195 793d
00000030: dbd7 bebe d1f8 d9bd 95d8 b7be 3cc7 7b3e
00000040: 484f db3d 9a33 8ebe 1a40 e33c 94c5 58be
00000050: c579 8fbe bf8a 7dbe 1e0a 8dbd b321 343e
00000060: b247 a53d 84b8 c23d b8f1 1bbe 4352 41bd
00000070: 15aa 3a3d cb4f ca3c 110b 9fbd 0053 73be
00000080: 9d6b 123e 6281 2e3e 70af ba3d 018a da3d
00000090: af7f efbe 1a9a 9fbe 646d d1bd 8107 e5bd
000000a0: 2ed1 6c3d d9b6 cdbd 30c1 85be 0281 473e
000000b0: fd0a c8be d0bf 20bb a3d3 43be 6e13 873e
000000c0: 0dc3 66be a1bb 4b3e 7be3 ee3c cf10 25bd
000000d0: 5eb5 813e 2222 99be 5ab2 60be 332f 0a3e
000000e0: 70f6 d1be 9e1a 6fbd f176 b3bd ca12 f4bb
000000f0: e28a 18be f08b ddbe c246 cbbe a752 c7bc
-0.3652719 -0.1911835 -0.21631727 -0.16363014 -0.21963832 -0.1280786 -0.24148715 0.032066997
-0.32742608 0.13522695 -0.112660445 0.060933355 -0.3727406 -0.10643161 -0.35907426 0.2458772
0.10708481 -0.27773744 0.027740527 -0.2116912 -0.2802259 -0.24759959 -0.06886695 0.1759098
0.080703154 0.0950785 -0.15228927 -0.04719759 0.04557236 0.024696251 -0.077657826 -0.2376213
0.14298864 0.17041543 0.09115493 0.106708534 -0.46777102 -0.31172258 -0.10225943 -0.11183072
0.057816677 -0.10044641 -0.26123953 0.19482806 -0.39070883 -0.0024528392 -0.19123702 0.2638201
-0.22535343 0.19895793 0.029161206 -0.040299233 0.25333685 -0.29908854 -0.21943036 0.13494568
-0.4100833 -0.058374994 -0.08762921 -0.007448529 -0.1489673 -0.43270826 -0.3970242 -0.024331404

policy_layer.weight f4 [7, 64]
00000000: f2fe 853e ca63 b7bc 8b19 a7bd 97ad 04be
00000010: e6e8 1dbd 8c9a 34bc 19a7 5cbd ce5b 4a3d
00000020: 3be3 70bd b3e8 183e 1b31 453e 9cfc c33d
00000030: b194 3abd 219e 69be 1cec ffbb fcdf 53bd
00000040: ba14 8fbd 0c70 83bd 17b5 ab3c 7f45 163e
00000050: ee37 dcbd 2d0d bbbd 9979 fc3d 773b 873b
00000060: f856 4d3d 6286 8cbe 7f8f 18be 4cf8 f9ba
00000070: e614 37be 6bd9 ac3d a398 cabb fa07 f0bc
00000080: fbbc ccbc dccd fb3d 6c21 0e3e 58ab 12be
00000090: 6ca5 233d f101 0d3d 4a1b a1bd 7a9a 9abe
000000a0: d20e e53d a2a0 edbd a83b 06bd ef4f f9bc
000000b0: b215 1cbe 4802 00be 3368 75bd 1327 cd3d
000000c0: 9b8b af3d 796d 2ebc 0115 84bd 494b fa3b
000000d0: 10ec 53bd a12c 653d fdad f7ba 1a94 13be
000000e0: 9eca 8c3e 07b1 e73d 932b 393c 6006 b8bd
000000f0: e3d9 47bc 563e 31bd 1b54 8e3e e734 24be
00000100: 62b5 59bd aac6 b9bc 1732 62be 562a 00be
00000110: 3a7a dabd 1ddd 693c 6282 733d b897 c0bb
00000120: 1d96 0dbd ab55 dc3d 725f febc fc09 953d
00000130: 6a52 6ebc ca17 c23d 505b 863d 3ea3 53bd
00000140: 5c1a 55bc b36e 1b3d 19a6 acbc 8763 2fbd
00000150: ef42 73bd 1936 51be bc6e 973d 1e44 b93d
00000160: 09d8 543d 77de 85bd 25cb 393c 2663 12be
00000170: c910 903c c648 963d 37bf 69be fe62 5ebe
00000180: 3c91 663d 8955 ce3d fd11 f33d 1719 3e3d
00000190: b4cf 08bd be22 8bbd 5083 623e e702 64bc
000001a0: 6e7c 383e 90ca 5cbb 99f5 f03d 7767 143e
000001b0: f989 873d 9781 0f3e aa66 093e 8894 003b
000001c0: 9642 23bc 9915 8f3d b3cc c23d db26 563c
000001d0: c4d3 44bd 0aa4 acbd 6391 05bd 44e7 fa3d
000001e0: 2b6d dbbd 6be2 60bd cd3c a5bc 1291 adbc
000001f0: 4b69 31bd c17f 1c3c 007b 27be a1c5 6ebd
00000200: fadd 873e 824b d93d 6a53 fabb 49bb bebd
00000210: ff68 e63c 4d6d 51bd 4a1d d8ba aebf e73d
00000220: b788 4d3d 585a 923b 0933 1a3e 7f13 6abc
00000230: 2a10 c9bc 77ec 8abe 029f 56bd 5f17 10be
00000240: 7a65 593d 226d e3bd f2fc 20be 934c 0c3e
00000250: dbc3 2ebd 3394 a23c b24e eabd 2716 0a3d
00000260: bf1e d9bb 5041 e2bd 0a45 0fbe c778 a73d
00000270: 8450 be3d cc05 1cbe 232c 6cba 28b2 36bd
00000280: 02ae 0fbd c6cb 753d 734e 5a3e f39e 883d
00000290: 9096 713d 67a1 313e e722 37bd c2c9 83be
000002a0: 8437 523e 92c2 50bd df42 5c3b 4f39 2a3e
000002b0: ba75 05be 3851 4a3d 1c7f 963c 0b97 64bd
000002c0: 07a9 17be f68c 90bd f13a 033d 34c9 b8bd
000002d0: 145d 623d d4f4 c9bd 5639 d3bd 0910 abbd
000002e0: 8c8d 233e 015d 223e 894b bf3c d7b2 1fbd
000002f0: 883e acbd ff65 9fbb 4b18 a8bd c92d 15be
00000300: b92a 99bd 44ff 6b3d 0619 ae3d 1ed5 d7bc
00000310: 7c79 c6bd 3efb 49be 2270 97be 37b7 0abc
00000320: 82a3 38be 2b54 2fbc 5ba2 3f3d 5d37 1c3d
00000330: 8ed7 f1bd 0b0a 17be 4d52 2fbe dd2e d03c
00000340: 424c 053d 325b 79bc d0c9 103e 27ca 1fbe
00000350: 5c58 77bd fc36 2abd 1e19 a2bb 32fa d93d
00000360: 530b 73bd 0d45 28be 2229 9cbe e0be f6bd
00000370: 4070 2f3d 04da 413e 6f57 a8bc 44cb 4a3e
00000380: 4f61 9a3d 8bc5 e43d f875 debd 7f77 bb3c
00000390: 9a73 8abc 8d75 e4bd a4f5 763d 97ce e9bc
000003a0: f2b9 853d a219 c7bd 7d3d 39be 1743 0ebb
000003b0: 099e bd3c 97a4 f83d 2c7a 24bd 60c6 2c3d
000003c0: 996d 1b3d 1c81 01bd a9f9 293e b25c 7c3d
000003d0: 8580 8f3d 68e5 b4bd 6737 a43d 5cd2 a53d
000003e0: 3a99 11be e498 94bd 3491 733d 4294 19bb
000003f0: 64d2 81bd c1fa 04be 1241 68be 8ef5 71bb
0.2617107 -0.02238645 -0.08159169 -0.12956844 -0.038552187 -0.011023175 -0.053870294 0.049403958
-0.058810454 0.14932518 0.19257013 0.09569666 -0.04555196 -0.22814228 -0.007810129 -0.05172728
-0.06986375 -0.064178556 0.020960374 0.14674948 -0.10752855 -0.091333725 0.123278804 0.004126962
0.050131768 -0.27446276 -0.1489849 -0.0019071191 -0.17879066 0.08439907 -0.0061827465 -0.029300679
-0.024992457 0.12295124 0.13879937 -0.14323175 0.03995268 0.03442568 -0.07866533 -0.3019598
0.111844674 -0.11602904 -0.032771736 -0.030433623 -0.15242651 -0.1250087 -0.059913825 0.100172184
0.085715495 -0.0106462175 -0.06449319 0.007638369 -0.0517388 0.055950765 -0.0018896457 -0.14411965
0.27498335 0.11313062 0.011301893 -0.08985591 -0.012197944 -0.04327234 0.27798542 -0.16035806
-0.053151496 -0.022677738 -0.2208942 -0.1251615 -0.10667844 0.014273909 0.059450515 -0.0058774613
-0.034566987 0.10758527 -0.031051371 0.07277295 -0.014546016 0.09477194 0.06560385 -0.05166935
-0.013006773 0.037947368 -0.021075295 -0.042819526 -0.059390005 -0.20430793 0.07394168 0.090461954
0.05196384 -0.065365724 0.011339937 -0.14295635 0.017586129 0.07338099 -0.22826849 -0.2171745
0.05629085 0.10074908 0.11868665 0.046410646 -0.033401206 -0.06793736 0.22120404 -0.013916708
0.18016216 -0.0033690073 0.11765594 0.14492594 0.06618113 0.14014278 0.1341807 0.0019619782
-0.009964606 0.06986541 0.095116995 0.013070787 -0.048053518 -0.084297255 -0.032609355 0.12251142
-0.107141815 -0.05490343 -0.020170594 -0.021187339 -0.043313306 0.009551943 -0.16355515 -0.058293942
0.26536542 0.10610105 -0.0076393383 -0.093130656 0.028126238 -0.051129628 -0.0016488221 0.11315857
0.05017921 0.004466336 0.15058531 -0.014286875 -0.02454384 -0.27133533 -0.052397735 -0.14071415
0.05307529 -0.111048 -0.15721491 0.13701086 -0.04266725 0.019846058 -0.11440791 0.033712532
-0.0066259797 -0.110476136 -0.1399118 0.08177333 0.09292701 -0.15236586 -0.00090092624 -0.044603497
-0.035078056 0.060008787 0.21318989 0.06670942 0.05898148 0.17346726 -0.04471102 -0.25739866
0.2052899 -0.050966807 0.0033609194 0.16623424 -0.1303319 0.049393862 0.018371157 -0.05580811
-0.14810573 -0.07058136 0.032038633 -0.090227515 0.055264547 -0.098611504 -0.1031367 -0.08352668
0.15971965 0.1585579 0.023351448 -0.038988914 -0.084103644 -0.004864454 -0.082077585 -0.14568247
-0.07478852 0.057616487 0.085008666 -0.02634674 -0.0969114 -0.19724748 -0.29577738 -0.008466533
-0.18031123 -0.01070122 0.046785694 0.038138736 -0.11808692 -0.14749925 -0.17121239 0.025412971
0.03254343 -0.015219497 0.14139485 -0.15604459 -0.060387 -0.041556343 -0.004946842 0.10643424
-0.05933697 -0.16432591 -0.30500132 -0.12048125 0.04283166 0.18930823 -0.020549504 0.19804102
0.075380914 0.11170491 -0.108623445 0.022884129 -0.016900826 -0.111552335 0.060292855 -0.028540893
0.06529607 -0.09721686 -0.18089862 -0.002170747 0.023146646 0.12140768 -0.040155575 0.042181373
0.037946317 -0.03161727 0.16599144 0.06161184 0.07006935 -0.08832818 0.0801838 0.080967635
-0.14218608 -0.07255724 0.05946465 -0.0023434316 -0.06338957 -0.1298628 -0.22681072 -0.0036920044

policy_layer.bias f4 [7]
00000000: 000d 353d 0b52 943d c00d f1bc f260 923e
00000010: ccf1 3cbd 680a 06be 3dc4 563d
0.04420185 0.07242211 -0.029425502 0.28589588 -0.046129033 -0.13089907 0.05243324

value_layer.weight f4 [1, 64]
00000000: 6e4d 16bc 91de 6e3c 6417 0cbc 3bb8 8bbd
00000010: 305d 173d 0f1d 8dbd 5356 723d f9ab 53bd
00000020: 52d0 d6bd 4000 05bd 4205 ae3d 9044 49bd
00000030: 6c11 efbd 8bc5 aa3d 053c 843c 907c 9dbc
00000040: 35cf dcbd 1949 b3bc 85a8 febc 79ef f8bc
00000050: 0455 d43d 781d a73d a121 2d3d fd31 e4bc
00000060: b913 16bd edd0 aebc f032 1abd 7f36 193d
00000070: a552 c23b 7065 e1bc e075 98bd 09c7 e23c
00000080: a332 01bd 7f07 bb3c fc52 cd3c 3d5e 253d
00000090: fda0 113d 4d4b 16be 38c1 063c 912b 99bd
000000a0: d733 403d be14 163d 84c7 b7bd 1515 063e
000000b0: 2e31 c73b 4077 723c e92f 9ebd 2ada a6b9
000000c0: 4895 fd3d 2f8e e33c f8c8 4ebd 211a a1bc
000000d0: 9593 ab3d 80aa 3fbd e271 dbbc 3af5 3e3b
000000e0: 1445 59bd 34ac 3cbd e242 80bd b98f 05bd
000000f0: b8af 20bb b6af 71bd f5e5 37bd d26c 1dbd
-0.009173734 0.014579431 -0.008550499 -0.068222485 0.036954105 -0.06890308 0.059164356 -0.051677678
-0.10488953 -0.03247094 0.084970966 -0.049137652 -0.11673245 0.083384596 0.0161419 -0.019224435
-0.10781709 -0.021885442 -0.031086216 -0.030387627 0.10367778 0.081599176 0.0422684 -0.027855868
-0.036639903 -0.021339858 -0.037646234 0.037405487 0.005930262 -0.02751419 -0.07444358 0.027682798
-0.03154243 0.022830723 0.025063984 0.040373076 0.03555392 -0.14677162 0.008224778 -0.07479013
0.04692444 0.036640875 -0.089736015 0.1309398 0.0060788607 0.014798939 -0.07723982 -0.00031824532
0.12381989 0.02777776 -0.050484627 -0.01966578 0.083777584 -0.04679346 -0.026787702 0.0029137866
-0.053044394 -0.046062663 -0.06262757 -0.032607768 -0.00245188 -0.05900546 -0.04489704 -0.038433857

exp_avg f4 [7]
00000000: d7bd d1b8 2677 d839 4687 bbb9 e574 42b8
00000010: 7401 a339 c1fc 2339 c196 0db8
-0.00010001257 0.00041287503 -0.00035768206 -4.636207e-05 0.00031090865 0.0001563905 -3.375742e-05

exp_avg_sq f4 [7]
00000000: 50fd b636 25aa 9036 3fa6 c836 6246 ae36
00000010: cbbd 9b36 252f 8d36 fa28 9336
5.453512e-06 4.311342e-06 5.979818e-06 5.1937977e-06 4.641455e-06 4.207616e-06 4.3857117e-06
