logs/skrl/reach_franka/2024-12-18_21-11-53_ppo_torch/checkpoints/agent_9600.pt (torch, 96162 bytes, 38 tensors)

log_std_parameter f4 [7]
00000000: ef9f 05c0 4bc2 05c0 146f 0ec0 4d7d 10c0
00000010: 8234 0bc0 4fdb 0ec0 8374 00c0
-2.0878866 -2.0899837 -2.2255297 -2.2576478 -2.1750798 -2.2321355 -2.0071113

net_container.0.weight f4 [64, 32]
00000000: 1e87 cebe 69be 1c3e 0c85 bdbe 3014 0bbe
00000010: 5af4 663d f95f 71bd 192c 8a3e e7d5 a2bc
00000020: 436e 093d 51c1 31be 53d9 193e fdea 7dbe
00000030: c504 823c ec36 3d3d c2a6 17bb dba6 2dbe
00000040: 83fe 083e dc7d 0dbd d1cb aa3e a31e 2d3e
00000050: 524e b63d e6f7 b83e 791f 77be 537d 87be
00000060: 5789 33be 02af 38bd 46cf ab3d 0a28 e43c
00000070: 959d 873d bac1 d8bd 59b4 85bd dd50 2bbe
00000080: 0754 bbbd 7a80 78be 6a1a 72be 1f67 80be
00000090: 935f 48bd 0fd0 adbc 8f06 18be d3df 6c3c
000000a0: 1a7e 933c 9a57 bbbc 8570 f7bd 9ba0 f93b
000000b0: 9dea 7c3d 3d1d ae3d 81d8 f2bd 29ba 07be
000000c0: 6ca8 76bd ef61 b5bd eaf1 0cbe 6845 953d
000000d0: d588 bcbe 757b d0be 9c5a 0cbf 9f59 b63e
000000e0: 61af 22bf 7200 853e c29a 51bd 352a 10bd
000000f0: 736c d2bd 2e87 c9bd 97b6 9c3d e75c 1abd
00000100: 78b6 5ebe f9d3 14be 12e7 7fbe e72a 6e3e
00000110: 5036 00bd 9d53 f73d 7f19 243e 5267 e73d
00000120: bfb9 37bc 8ecd b7bd 1bd1 4fbe 5f94 013e
00000130: 0ca9 103e 5d46 4fbd d6cd 86bd e71e f8bb
00000140: 08ae cd3d 403c 71bc d20b 903e 9eef f33e
00000150: e51d 0cbf 0752 89be 2384 45bb 6676 093e
00000160: f97e 9bbd 273b b9bc 1328 87bd 4c52 293d
00000170: 53ad 8cbd 4c2f e03d ec66 bbbd 86f1 9b3c
00000180: 3abb c63d 0c88 0cbe 0b42 bdbd c75b 5cbe
00000190: 41fa 143e 1544 323e a693 dabd 752b 243c
000001a0: 9f18 223d f7d9 03bc 0ec9 b13d cb83 f93c
000001b0: 538b 58bd cc6f a4bd cbb3 98bc 9a5b 8d3d
000001c0: 5a0e 9c3d b8e3 f5bc 5c4b e6be 4230 3dbe
000001d0: 2427 203f fdb6 c8be 4b03 9f3e 1a07 973e
000001e0: 474c aa3e a2d6 fbbd 8e38 2bbe 2b5a 0dbe
000001f0: bd36 e73c 0e5c 1d3e a7f8 61bc 1f7a 00bd
00000200: 159a 01be 5c0f 47be 9c3d a2bc bd8d 04be
00000210: a65c f1bd b71f 123b 7d17 3ebd c703 16bd
00000220: 29cd 3e3d c324 89bd f0db 4cbc f511 263c
00000230: da09 4ebe 73f2 db3c 2524 c0bb 4ba5 773c
00000240: 3241 94bd 1740 12be 472c c93e 3e29 04be
00000250: 32ca 103f 8a58 d4be 742b d6be 2602 0a3f
00000260: 14ac 01bf 8977 ca3c e017 033d ff81 b2bb
00000270: ecf5 303e 6fab 2c3d 09ce 3abd 669f 55be
00000280: 5569 3dbe 4851 c3be cc8f 8b3d 9ed5 e23b
00000290: edf6 cc3d 9d47 7ebe 5422 40be e345 8e3d
000002a0: 4790 eabc 7539 abbc c5da 2cbe f7b8 5c3d
000002b0: 7118 bb3d ed0a 8a3d 6ebe 513c 28e4 afbd
000002c0: 551d 0e3d 638e 703d 56da 8e3e fa33 3d3d
000002d0: 495c 8dbd 474b 163e d01e 0c3d e6b6 83ba
000002e0: 3296 ec3c 6e51 0f3d 3cac d13b 4ca9 0b3d
000002f0: 0a48 d2bd fd59 bbbd daad 00be a940 bd3d
00000300: eaff edba 235e 77be 0ddb 6e3d e6e0 723d
00000310: 6575 e2ba 7663 a33e 4594 86be 3692 bbbd
00000320: 9df7 583d a228 13be de77 0d3e 7cb9 05be
00000330: 2edf 0dbe 3fe9 da3d 55c0 8e3d c72d 2a3e
00000340: 65de e3bd 213c 49bd 0c23 a8bc 2811 173e
00000350: f754 23bf ad4b 9bbe 9e6a 17bf 5efc ac3e
00000360: 04ce cdbe f822 ccbd bbdd 543b 94fb 39bc
00000370: 3684 a63c cfe0 aa3d 1d4b debd 5f84 253d
00000380: 3210 9ebe 709f b3be f076 07bf 4651 8a3c
00000390: 96f9 3f3e a886 203e 05d6 ac3e 8100 793c
000003a0: 9fd9 22bd 6f56 3ebe e74d 8ebe 5acd 04be
000003b0: 3b46 a5bd d996 0ebd f9c1 053d cf69 b1bb
000003c0: 7123 a8bd f2b4 203e 5968 a03e be8b 0f3e
000003d0: fb73 c73d 2ad8 48bd 8f9e 6cbf 37cd 29be
000003e0: 51b1 69bf 346a b63d ba0f 163e ad1f 093d
000003f0: 41e2 a3bd 1604 e33d 7c13 9abd e8f2 a23e
-0.4033746 0.1530701 -0.3701557 -0.1358192 0.056385376 -0.058929417 0.2698677 -0.019877387
0.03355242 -0.173589 0.15024309 -0.24796672 0.015871415 0.046194956 -0.0023140167 -0.16958182
0.13378339 -0.034543857 0.33358625 0.16906218 0.08901657 0.36126631 -0.241331 -0.26462802
-0.1753286 -0.045088775 0.08389144 0.027851123 0.06621853 -0.105838254 -0.06528539 -0.16730066
-0.09146886 -0.2426776 -0.23642889 -0.25078675 -0.04891927 -0.021217374 -0.14846252 0.014457661
0.018004466 -0.02286892 -0.12082008 0.0076180226 0.061747182 0.085016705 -0.11857701 -0.13254608
-0.060219213 -0.0885657 -0.13764158 0.07288629 -0.36823145 -0.4071919 -0.5482576 0.3561525
-0.63548857 0.25976902 -0.05117298 -0.0351965 -0.10274591 -0.098402366 0.07652014 -0.037686255
-0.21749294 -0.14533986 -0.2499049 0.23258553 -0.031301796 0.12076495 0.16025351 0.11299004
-0.011213719 -0.08974753 -0.20294611 0.12654255 0.14126986 -0.050604213 -0.06582229 -0.007572043
0.100429595 -0.014723837 0.28134018 0.4764375 -0.54733115 -0.26820394 -0.0030138574 0.13424072
-0.075925775 -0.022611214 -0.065994404 0.04133825 -0.068689965 0.10946521 -0.0915049 0.019036066
0.097036794 -0.13723773 -0.09241112 -0.21519385 0.1454859 0.17408784 -0.10672693 0.010020127
0.03957426 -0.008047572 0.08680926 0.030458352 -0.052867245 -0.08029136 -0.01864042 0.06902237
0.07619925 -0.030015811 -0.4497937 -0.1847544 0.62559724 -0.3920211 0.310572 0.29497606
0.3326132 -0.12296797 -0.16720793 -0.13803928 0.028224343 0.15367147 -0.0137921935 -0.031366464
-0.12656434 -0.19439453 -0.019804768 -0.12944694 -0.117852494 0.0022296736 -0.04640912 -0.036624696
0.046582375 -0.06696465 -0.012503609 0.010136117 -0.20120946 0.026849007 -0.0058636838 0.0151150925
-0.072389975 -0.14282261 0.39291593 -0.12906358 0.56558526 -0.414738 -0.41830027 0.5390953
-0.50653195 0.024715202 0.03200519 -0.0054476256 0.17281312 0.04215568 -0.045606647 -0.20861587
-0.18497212 -0.3814795 0.068145365 0.006922438 0.10008035 -0.24832006 -0.18763095 0.069469236
-0.02863325 -0.020901421 -0.16880329 0.053887334 0.09135521 0.06740365 0.01280175 -0.08588439
0.034695942 0.05872954 0.27900952 0.046192147 -0.069023676 0.14677154 0.034209073 -0.0010049015
0.028880212 0.034989767 0.0063987058 0.034097 -0.102676466 -0.09148023 -0.12566319 0.092408486
-0.0018157933 -0.24157004 0.05831437 0.05929651 -0.0017277418 0.3191182 -0.26284996 -0.09158747
0.052970517 -0.14370969 0.13815257 -0.13059038 -0.13854668 0.106890194 0.06970278 0.16619025
-0.11126403 -0.04912961 -0.020524524 0.14752638 -0.6380152 -0.30331174 -0.5914706 0.3378629
-0.4019624 -0.09967607 0.0032480794 -0.011351485 0.020326715 0.0834366 -0.108541705 0.040409442
-0.3087173 -0.3508258 -0.5291586 0.016884457 0.18747553 0.15676367 0.33757034 0.015197874
-0.03975832 -0.1858766 -0.2779381 -0.1296896 -0.08070036 -0.03481183 0.03265569 -0.0054142247
-0.08209885 0.15694025 0.3132961 0.14018151 0.097389184 -0.049034275 -0.9242944 -0.1658219
-0.9128619 0.089069754 0.14654437 0.033477474 -0.08002139 0.11084764 -0.075232476 0.31825948

net_container.0.bias f4 [64]
00000000: d23b 143e 0715 5a3e bfb7 793e b854 813e
00000010: 9669 a9bb 747c db3d b68f 643e 3162 20be
00000020: fc2a 243e 14db a8be 97ac 69bd f922 5a3e
00000030: 52ae 81be 66e4 99be 0274 353e 39f9 6cbd
00000040: eaf2 17be 1e8e 94be fc69 723d afb1 4fbe
00000050: 5b11 b1be 9647 2abe b960 4d3d a2cc ae3d
00000060: 3b2a 053e daf2 febe b9c7 2e3e c45d c33e
00000070: 7256 2cbe d94a 1dbd cb1a 893c 1a8a 6cbe
00000080: 3e55 81be 6707 48be b9be 58be 4a52 69be
00000090: bc40 cdbd 3be1 b4be 38e9 e13c e0f8 a43e
000000a0: d8ff 853e 710b a43e 2cbb e1be ee43 96be
000000b0: a0c6 37be e1ce 9fbe b261 e73d d57a 1bbe
000000c0: 09e4 e1be b7e3 f0bc f327 03be f461 c73d
000000d0: 1496 69be 36f3 0abe 2109 92be fec5 97bd
000000e0: aec8 c3bc cc74 88be 404e ccbe 8d12 9cbe
000000f0: d01d 5c3b 8fa6 b4be 3fc2 d43c f11f 81be
0.14475945 0.21297084 0.243865 0.25259948 -0.0051700575 0.10717097 0.22320446 -0.15662457
0.16032022 -0.32979643 -0.05704936 0.21302404 -0.25328308 -0.30057067 0.17720035 -0.057854865
-0.14838758 -0.29014677 0.059183106 -0.20282625 -0.34583554 -0.1662887 0.05014107 0.08535124
0.13004391 -0.49794656 0.17068376 0.38157475 -0.16829851 -0.03840146 0.016736409 -0.23099557
-0.25260347 -0.19534074 -0.21166505 -0.22785297 -0.10022113 -0.35328087 0.027577028 0.32221127
0.26171756 0.3203998 -0.44088113 -0.293487 -0.17946863 -0.31212524 0.11297931 -0.15183575
-0.4411929 -0.029405458 -0.12808208 0.0973548 -0.22811157 -0.1356934 -0.2852259 -0.07410811
-0.023899402 -0.2665161 -0.3990345 -0.30482903 0.0033587106 -0.35283324 0.02597153 -0.25219682

net_container.2.weight f4 [64, 64]
00000000: ffae 0a3e fc35 3dbe d44e cebb b85a 7dbd
00000010: ba41 37be e6b7 39bd 6d7d 05bd 5df2 3b3e
00000020: adf1 1dbd 6516 893e 9b0c e23d ff4c 683e
00000030: faa1 bf3d 88e7 e7bc f71d 553e 89f9 7dbe
00000040: ac91 32bb 63da afbd ba8f 5abd fe58 afbc
00000050: b334 fcbc 6be8 403c f700 15be 9806 6cbe
00000060: 9d09 903e 7abf bc3d 831a a5be cfe3 10be
00000070: 222a f3bc 3985 5abe 7c6c dfbd 37bc 02bf
00000080: dd7f 44be df9a c73e c291 2e3d 4163 033e
00000090: e600 db3d bfee 94be 6f1e 623d 9477 68bc
000000a0: 5f7a 82bd e8ab 5f3d c01e 723e d7c9 403e
000000b0: 3e7c e2bc 2cf3 083e 2d47 73be 58a0 8f3e
000000c0: de86 ecbd db3d 53bd 4cd5 a43d 280b 27bd
000000d0: 25c7 d63c c99e 2abe 62b8 80bc 3e47 1d3d
000000e0: fc2e 0cbe 4565 893d 93dc d53c 50b4 023e
000000f0: 4b90 9cbe cee9 33bc d3e0 44be 15e9 863d
00000100: 2b89 6dbd ac91 d53d 2a1f 3c3d 4666 e93d
00000110: eb84 133e f38e 87bd 40d8 863d 47eb a4be
00000120: 9cf1 ff3d 5249 1a3d d77f efbe 74f7 b23d
00000130: 84c4 713d 6d9c 03be 13e3 363d 76ef 92bb
00000140: d811 30be 8b13 463d 0058 0abc 6e97 edbd
00000150: 96b7 1fbe f6f4 793e 09c2 f1bc 5ec0 89bd
00000160: 6312 c93d 80f9 8c3e 226c 153d db0d c8bb
00000170: ef38 6a3d ee5f 173e d7b9 b8be 0ee3 45be
00000180: ffdb 933e 6f75 e5bd 340c 80be f145 743a
00000190: b86c 92be 5f60 933c dd6c e5bc c9ae 0c3e
000001a0: 1ab2 1c3e d233 f33d 9952 86bc 3aff e9bc
000001b0: 7e03 993d 5b72 2bbe 4b75 1fbe b45d 15bd
000001c0: eac2 5dbd 230a bbbd e83e 70bc 60d6 45be
000001d0: 3779 1dbe 2de8 89be f164 2b3d 48ff cbbc
000001e0: c5b6 ba3d 1fd4 cd3d 0c8e 66be fd24 2bbe
000001f0: 904d dabc 397e 8bbe ce0f 36bd ede3 c4bd
00000200: 3e48 1dbd 461b 07be e1ee 4ebe d300 6a3e
00000210: b6a8 28be 02d7 1b3d 6db5 97be 9979 03be
00000220: 61b2 84be c239 b63d 1200 e3bb bb82 fabd
00000230: 9b9b e0bd d82f 413e aaf1 a1bd e535 f7bd
00000240: 40d9 b0be 4463 eabd 22b4 7b3d 2de4 0bbe
00000250: 7ba5 c33d 65b6 4b3d 09bb 02be 555c ed3d
00000260: 5f88 e3bc c360 003d edde 813b f9e8 0f3b
00000270: b936 37bd fe9d bfbd f93f 093e 101b afbd
00000280: 23a6 a3bd 9df0 5ebe 5786 1cbe a30c 1f3c
00000290: 8d0e d93d fe4c 2abe 6300 c0bd 5247 d23d
000002a0: b1ec 55be 3f01 8c3d 5948 a0be afe3 c73c
000002b0: c801 21bd e456 443e ed5b b53d 9921 af3c
000002c0: e110 26bd 3c73 723d 069d 99bd ab7f 91be
000002d0: addc 0bbe b12e 4dbd 770f bfbd bdde f7bd
000002e0: 0439 09be 3695 ae3d ca64 193d 6cd7 033e
000002f0: 9e34 9ebd 74b0 c13d 3ab4 343e a6fe 893c
00000300: 1cce 98be 7dea 1e3e e837 7bbe 59aa 503d
00000310: c1ae 67bc c688 3c3d ccb2 c93d 57ba 9abe
00000320: 0368 15be bebd 96be 1027 56bd b441 1a3e
00000330: 9238 ef3c 90a4 e73b 977d e9bd 49fc b2bc
00000340: a789 cebe 98ad a6be 15a8 af3d e4a0 23bb
00000350: 67a3 843d 2950 c3be 4d40 41be 7ca5 ffbb
00000360: 611a d7bc 9392 46be abe5 25bd 1407 363c
00000370: e2bc 83bc 2acb 953d d088 88bd c86f 05be
00000380: a226 c73c 78fd 62be d2db 813d 0bd7 86be
00000390: df4b 153e 3532 193d 0120 44bc 25ea 913c
000003a0: 3c75 30be 0760 a4bd a070 4dbe 75ea 0bbd
000003b0: e2be e5bd 08ed f7bb 06b6 5c3d d8e6 bbbd
000003c0: 855d 9ebd 83d2 5abd 4cc8 873e de26 a9be
000003d0: 400e 443d 81fd 8ebe 7098 10be bcb3 abbe
000003e0: 4de4 a7bc ff9e a4bd b063 43bc f6c0 70be
000003f0: 64f6 443c e71c bc3c 6a70 ec3c 6086 3fbd
0.13543318 -0.18477625 -0.006296018 -0.061854094 -0.17896166 -0.045341395 -0.03259032 0.18354173
-0.038560558 0.26774898 0.110375606 0.22685622 0.093570665 -0.028308645 0.20812212 -0.24802221
-0.0027247472 -0.08586576 -0.053359725 -0.02140474 -0.030786848 0.011774163 -0.1455115 -0.2304939
0.28132334 0.09216209 -0.3224679 -0.14149402 -0.029683176 -0.21339883 -0.109093636 -0.51068443
-0.19189401 0.38985345 0.042619474 0.12830831 0.10693531 -0.290884 0.055204805 -0.014188666
-0.06370997 0.054607302 0.23644543 0.18826996 -0.027647134 0.13374013 -0.2375762 0.2805202
-0.115491614 -0.05157266 0.08048496 -0.040782124 0.026218006 -0.16662134 -0.01571292 0.03839802
-0.13689798 0.06708769 0.026106155 0.12764096 -0.30578837 -0.010981036 -0.19226389 0.065874256
-0.05799214 0.10428175 0.045928158 0.1139646 0.14406173 -0.06619062 0.06584215 -0.32210752
0.12497255 0.03766758 -0.46777222 0.08738604 0.059025303 -0.1285264 0.04465015 -0.0044841124
-0.17194307 0.04835848 -0.008443832 -0.116011485 -0.15597376 0.24409851 -0.029511468 -0.06726144
0.0981796 0.27534103 0.036480077 -0.0061051673 0.057183202 0.14782688 -0.36079285 -0.19324896
0.2887878 -0.11204039 -0.2500931 0.00093182834 -0.2859857 0.01799029 -0.028006012 0.1373855
0.15302315 0.11875118 -0.016396808 -0.028564084 0.07471369 -0.16742842 -0.15572087 -0.036466315
-0.054140963 -0.09132793 -0.0146634355 -0.19320059 -0.15378271 -0.2693495 0.041844312 -0.024902001
0.09116892 0.100502245 -0.22515124 -0.16713329 -0.026648313 -0.27244738 -0.044448666 -0.09613786
-0.038398974 -0.13193998 -0.20208313 0.22851877 -0.16470608 0.038046844 -0.29630604 -0.12839355
-0.25917342 0.08897735 -0.0069274986 -0.12231966 -0.109671794 0.18865907 -0.07907422 -0.120708264
-0.3454075 -0.11444715 0.061451085 -0.13661261 0.09553047 0.04973449 -0.12766661 0.115898766
-0.027774988 0.03134228 0.0039633424 0.002195893 -0.044729922 -0.093563065 0.1340331 -0.08550084
-0.079906724 -0.21771474 -0.15285622 0.009707603 0.105984785 -0.16630933 -0.09375074 0.102675095
-0.20891072 0.06836175 -0.31305197 0.02440056 -0.03930834 0.19173771 0.08855424 0.021378325
-0.04054344 0.059191927 -0.07500653 -0.28417715 -0.136584 -0.050093357 -0.093291216 -0.12103031
-0.13400656 0.085245535 0.037449636 0.12875146 -0.0772488 0.09457484 0.17646876 0.016845059
-0.2984475 0.15519138 -0.24533045 0.050943706 -0.014140786 0.046028875 0.09848556 -0.3022029
-0.14590459 -0.29441637 -0.052283347 0.15064126 0.02920178 0.007069178 -0.114009075 -0.021848815
-0.40339395 -0.32554317 0.08576981 -0.0024967724 0.06476479 -0.38147095 -0.18872185 -0.0078017097
-0.026257696 -0.19391851 -0.04050223 0.011110086 -0.016081277 0.07314141 -0.0666672 -0.13030922
0.024310414 -0.22167003 0.063407555 -0.2633594 0.14579724 0.037401397 -0.011970521 0.017811844
-0.17232221 -0.08026128 -0.20062494 -0.034159143 -0.11218049 -0.007566098 0.05388453 -0.09174889
-0.07732681 -0.053423416 0.26520002 -0.33037466 0.047865152 -0.27927783 -0.1412065 -0.33535564
-0.020494604 -0.080381386 -0.011925623 -0.23511109 0.012021635 0.022963 0.028862197 -0.04675901

net_container.2.bias f4 [64]
00000000: 1c70 bbbe c119 47be 9465 58be de48 26be
00000010: 469e 5fbe e320 0dbe 5678 6ebe 99b7 df3c
00000020: cffa b4be 370d 043e b486 afbd c523 823d
00000030: f250 bbbe 3646 aebd ea2b b6be 3cd6 803e
00000040: 5758 bf3d b6a9 8cbe 0702 c43c 5acd 5bbe
00000050: 17af 86be 6022 73be ad6e 2abd e65c 303e
00000060: 5a82 9e3d 1226 8e3d 97b4 1abe 8508 45bd
00000070: d27d c33c b51f 033d 8596 a8bd 23a2 5abe
00000080: 4a99 103e 9542 2e3e 2326 b53d 7771 ff3d
00000090: 22eb f0be f7e6 9fbe b340 ccbd f953 00be
000000a0: d120 773d 0090 dabd 3901 8abe 4a8d 433e
000000b0: 6fb2 c5be 354e 85bc 3617 44be 690c 883e
000000c0: 8251 5bbe b249 543e d8e9 073d 9d6c f3bc
000000d0: 6069 863e 7dc8 9bbe 7db9 5cbe 13e8 0c3e
000000e0: 097a d4be d9fb 8cbd 38e8 b0bd a6bc a2bc
000000f0: 522f 15be c718 eabe 2bc0 c7be 0e94 43bc
-0.3660897 -0.19443418 -0.21132499 -0.16238734 -0.2183772 -0.13782077 -0.23288092 0.027309226
-0.35347602 0.12895666 -0.085706145 0.06354479 -0.36585194 -0.085094854 -0.3558038 0.25163448
0.09343021 -0.2747323 0.023926748 -0.21465054 -0.26305458 -0.23743582 -0.041609455 0.17222938
0.07739706 0.06940855 -0.15107952 -0.048103828 0.023863707 0.03201266 -0.08231834 -0.21350913
0.14120975 0.17017587 0.088451646 0.124728136 -0.47054392 -0.312309 -0.09973278 -0.12532033
0.06033403 -0.10671997 -0.26954058 0.19096866 -0.38612697 -0.016272644 -0.1914948 0.26571968
-0.21417812 0.20731238 0.033181995 -0.029714877 0.2625227 -0.30426398 -0.21555133 0.13760404
-0.41499355 -0.06883974 -0.08638042 -0.019865345 -0.14568833 -0.4572203 -0.390138 -0.011937154

policy_layer.weight f4 [7, 64]
00000000: 0ea1 8b3e ff0d 83bc 9c7b cebd a574 06be
00000010: f01c 39bd b452 b9bc 883d 8abd 08d1 403d
00000020: ea1d 51bd 66a1 163e a2f1 4a3e e013 c13d
00000030: e335 47bd b8e6 75be b39f 9d3c 4c45 42bd
00000040: d84d 93bd cf7e 99bd a7d4 223d 6ff6 113e
00000050: 1642 d4bd dbf4 b7bd f3bb df3d 83a3 823c
00000060: ef96 853d 1256 8ebe 2f29 2dbe b0b7 1dbb
00000070: b9fa 42be c6a7 ad3d 6a22 bdbc 2a61 b5bc
00000080: 4087 d4bc 268e 0c3e 4d35 1e3e 6545 12be
00000090: 6f42 223d f0a6 293d d918 b7bd d0b7 9abe
000000a0: 758c f63d e477 06be db59 3dbd 8b40 c3bc
000000b0: 997e 0fbe 6c1a 0bbe a701 83bd 4c9f c93d
000000c0: 6b11 ac3d 6d42 95bc bf0a 72bd 353b 313b
000000d0: 7328 2fbd e4f7 523d 880f 11bb c3ac 10be
000000e0: e304 903e a26f 053e d62e 6c3c f9c0 c7bd
000000f0: c5bf d2bc 913d 16bd 596c 8b3e 0b2c 2bbe
00000100: 4c90 50bd ec91 f8bc 4888 64be 501c 00be
00000110: ed53 edbd ae20 cc3c 8215 8b3d 552c 1cbc
00000120: a9c7 14bd 1cd9 e23d 81f2 edbc 7b49 9c3d
00000130: 2731 78bc 3518 d63d b7ff b23d ac2f 51bd
00000140: 0d2b e8bc c20e 173d 27b4 1dbd d581 ecbc
00000150: 570c 68bd 2819 40be 33b8 9d3d 2a29 ae3d
00000160: 5c92 593d 88ed 93bd 1676 4a3d 470d 06be
00000170: 9a0a 8a3c f115 873d 12b2 6fbe c450 4bbe
00000180: 53bc 673d 629b e23d c9a3 ff3d a21c 023d
00000190: af86 0fbd 7e4a 80bd 3d60 613e 1eda a2bc
000001a0: 8412 3f3e 8bf2 1fbc 3b51 f03d bcd9 103e
000001b0: fbe9 8a3d c1c3 123e a5f5 113e 4150 4a3b
000001c0: 099c eebb f944 8c3d 5fb0 b83d 46bf 913b
000001d0: 149c 4bbd b93a b1bd 2267 bbbc 8c37 093e
000001e0: cc03 f8bd cc2f 5ebd a86c cbbc 3107 033c
000001f0: e7c9 01bd 6ea3 8e3c 7c52 33be 4463 48bd
00000200: c262 8b3e 9936 c83d 64e0 4dbc 46c7 dcbd
00000210: cb04 073d d65b 28bd b058 5a3c 386c d83d
00000220: 33f0 353d 3274 263c 4f8f 2f3e 2645 78bc
00000230: 031c acbc 299f 8abe a20e 76bd 25a6 17be
00000240: 9bed 4a3d e583 d0bd f2fc 29be 799d 103e
00000250: b75f 1dbd e4e2 993b 03a7 c2bd 607c c83c
00000260: bc53 8ebb 8d3b dabd 5fbd 13be 702e ab3d
00000270: 79ba c93d f97a 05be 1601 a3bb adeb 8cbd
00000280: a49d f8bc 5d2e 8d3d 9d8d 433e efd8 513d
00000290: 7d55 773d 007e 2f3e e4ff 1fbd d357 88be
000002a0: 464b 573e a538 4dbd 9e8e 06bb 1ef7 233e
000002b0: 0191 1cbe 75e7 0d3d 6512 723c 22a6 4dbd
000002c0: 5b43 0ebe 3edd 4cbd 0d86 f73c 8b6c 91bd
000002d0: d11e 563d b7ce b8bd 73dd a7bd 79cb c7bd
000002e0: 3273 283e 43fd 123e 3ec0 cc3c 3727 e1bc
000002f0: ae1d 98bd 68a4 0dbb c87f 95bd 063b 0bbe
00000300: 5621 8dbd 827f 813d 7062 ba3d b719 c9bc
00000310: 6985 bdbd e5a4 49be 0092 9abe a8cd a4ba
00000320: e17b 2cbe 18b9 1dbc a240 743d deaa d73c
00000330: d2da dfbd b806 14be c5b4 2ebe 9cb8 ab3c
00000340: 3d81 f63c 46a0 afbc e821 153e 6e1a 39be
00000350: 4d87 7cbd f898 40bd c09b 22bb 7203 df3d
00000360: 31a1 94bd bb64 25be 0aa9 a9be 7a52 f9bd
00000370: 3562 083d 1288 523e 56d5 4fbc 321b 413e
00000380: 8c25 9e3d 004c d53d 31bc f5bd 45b8 053d
00000390: c629 64bc 0bba d5bd ef4e 6c3d 578e a8bc
000003a0: 8e59 6f3d 927b b7bd eace 3dbe 3718 ebba
000003b0: 50b1 e63c c345 fa3d 3513 27bd e2f0 303d
000003c0: 62db 273d f426 03bd 1562 2e3e ff68 843d
000003d0: b2de 8c3d b558 a7bd 84c9 8d3d 1185 9a3d
000003e0: 400a 0cbe a900 9fbd e658 813d c213 dabc
000003f0: 8c1b 82bd dbbc 01be a5ec 5ebe 55d0 f3bb
0.27271312 -0.015997885 -0.1008217 -0.13130434 -0.045193613 -0.022622444 -0.067500174 0.047074348
-0.05105392 0.14710006 0.19818738 0.09427619 -0.048635375 -0.24013793 0.01924119 -0.047429368
-0.07192582 -0.0749489 0.039753582 0.14254163 -0.103641674 -0.08982249 0.1092452 0.01594711
0.06522929 -0.2780004 -0.16910242 -0.0024065785 -0.19040956 0.08479266 -0.023087699 -0.022141058
-0.025943398 0.137261 0.1545002 -0.14284284 0.039614137 0.04141897 -0.08940286 -0.30218363
0.12038509 -0.13131672 -0.04622827 -0.023834487 -0.14013137 -0.13584298 -0.063967995 0.098448366
0.0840176 -0.01822015 -0.05909228 0.0027043347 -0.042763185 0.05150594 -0.0022134501 -0.14128403
0.28128728 0.13030866 0.014415463 -0.097536035 -0.025726208 -0.036679808 0.272311 -0.1671602
-0.050918862 -0.030343018 -0.22317612 -0.125108 -0.11588273 0.024917927 0.06791212 -0.009532054
-0.036323223 0.110765666 -0.029046299 0.07631203 -0.015148438 0.10453836 0.0874018 -0.051070854
-0.02834084 0.03687931 -0.038501885 -0.028870502 -0.056652393 -0.18759596 0.07701149 0.08503945
0.053118095 -0.0722304 0.04942902 -0.13091002 0.016850758 0.06595982 -0.23407772 -0.19855028
0.056576084 0.11064793 0.124824114 0.031765588 -0.035040554 -0.06264208 0.22009368 -0.019879397
0.18659407 -0.009762417 0.117342435 0.14145559 0.067829095 0.14332487 0.14253862 0.003087059
-0.0072817844 0.06849093 0.09018015 0.0044478504 -0.049709395 -0.086537786 -0.022876326 0.13400096
-0.12110099 -0.0542448 -0.024832085 0.00799732 -0.03168669 0.017411914 -0.17511934 -0.048922792
0.27223784 0.09776039 -0.012565706 -0.10780196 0.032963555 -0.041103207 0.013326809 0.10567516
0.044418525 0.010159539 0.17144512 -0.015153205 -0.02100945 -0.27074555 -0.06007255 -0.14809473
0.049543004 -0.10181407 -0.16600397 0.14122571 -0.03842136 0.004696237 -0.09504511 0.02447337
-0.004343478 -0.1065589 -0.14427708 0.083584666 0.0985002 -0.13035192 -0.0049744947 -0.06880889
-0.030348606 0.06893609 0.1909699 0.051232275 0.060384262 0.17137909 -0.039062396 -0.26629505
0.21024808 -0.05010285 -0.0020531784 0.16012236 -0.1528969 0.034644563 0.014774893 -0.050207265
-0.13892882 -0.05001568 0.030215288 -0.07100781 0.052275483 -0.09023803 -0.08196535 -0.09755606
0.16450194 0.14354424 0.024994012 -0.02748452 -0.07427536 -0.0021612886 -0.07299763 -0.13596734
-0.06891124 0.06323148 0.09100807 -0.024548395 -0.092539616 -0.19691809 -0.30189514 -0.0012573497
-0.16844131 -0.009626649 0.05963195 0.026326593 -0.109304085 -0.14455688 -0.17061146 0.020962052
0.030090922 -0.021438729 0.14563715 -0.18076488 -0.06165247 -0.047020882 -0.0024812073 0.10889329
-0.07257307 -0.16151707 -0.3313678 -0.12173934 0.033296783 0.20559719 -0.012685141 0.1885803
0.07722005 0.104148865 -0.11998785 0.032646436 -0.013925975 -0.104358755 0.057692464 -0.020575685
0.058435015 -0.08959116 -0.18535963 -0.0017936294 0.028160721 0.12220337 -0.0407898 0.043198474
0.040980704 -0.03201957 0.17029603 0.06465339 0.06878413 -0.081712164 0.06923202 0.07544912
-0.13675785 -0.07763798 0.06315784 -0.02662075 -0.063529104 -0.12669699 -0.2176996 -0.0074406066

policy_layer.bias f4 [7]
00000000: 90f2 633d 23e7 7c3d 3e9f 26bd 4bdc 913e
00000010: f948 3cbd 0014 e2bd 77a7 4e3d
0.055651248 0.061743867 -0.04067921 0.28488383 -0.04596803 -0.11038971 0.050452676

value_layer.weight f4 [1, 64]
00000000: 6eda a6bc 4c28 703b bf0e fdbc 04b2 46bd
00000010: 6e33 eb3c 2dda c4bd 2f65 1a3d 2c66 b1bc
00000020: d43c 0cbe 586d 8fbc 32b4 9f3d 425c f2bc
00000030: 07a3 ddbd 3728 453d edc2 15bc 7b11 c9ba
00000040: a8e3 f5bd c20a 05bd 9099 f3bb 5b40 debc
00000050: d313 a03c 479d 573d eb07 cb3c 1a7a 25bc
00000060: 0336 823b c847 35bd eacb c9bc 9fcb 4e3c
00000070: 21cc 573b 0de6 47bc eba6 17bd ba54 633c
00000080: c780 eabc e3e8 8b3c d323 ea3c 976a 15bb
00000090: 30de 26bb 1fcc 28be cb11 9cbc acb6 82bd
000000a0: 74e6 cf3c 679a cb3c 4cd4 04be f6f2 0b3e
000000b0: 8701 513c cddc 083c fbe0 e2bc d90e ef3b
000000c0: 50ab ee3d c8bf 303d 91e7 a9bc 6b96 00bc
000000d0: a8bc 9c3d acf2 54bd 2a81 d8bc 5143 5d3c
000000e0: bcdb 37bd f042 70bd afca e0bc 6a9f dabc
000000f0: 241d 0f3b a770 b8bd 9418 13bd 4b83 89ba
-0.020367827 0.0036645113 -0.03089082 -0.048509613 0.028711047 -0.09611926 0.037694152 -0.021655165
-0.13695079 -0.017508194 0.077980414 -0.029585008 -0.108221106 0.048134055 -0.009140712 -0.0015340293
-0.120063126 -0.032480963 -0.0074340776 -0.027130296 0.019540703 0.052640226 0.024784049 -0.010099912
0.003973724 -0.04425791 -0.024633367 0.012621789 0.0032928067 -0.0122008445 -0.03702442 0.013875181
-0.028625859 0.017078822 0.028581535 -0.0022799128 -0.0025462024 -0.16484116 -0.019051453 -0.06382498
0.025378443 0.024853898 -0.1297161 0.13666901 0.012756712 0.008353424 -0.02769517 0.007295471
0.11653769 0.043151647 -0.020740302 -0.007848362 0.07653171 -0.051989242 -0.026428778 0.013504819
-0.04488729 -0.058657587 -0.027440397 -0.026687343 0.0021837438 -0.09005862 -0.03591211 -0.0010491399

log_std_parameter f4 [7]
00000000: ef9f 05c0 4bc2 05c0 146f 0ec0 4d7d 10c0
00000010: 8234 0bc0 4fdb 0ec0 8374 00c0
-2.0878866 -2.0899837 -2.2255297 -2.2576478 -2.1750798 -2.2321355 -2.0071113

net_container.0.weight f4 [64, 32]
00000000: 1e87 cebe 69be 1c3e 0c85 bdbe 3014 0bbe
00000010: 5af4 663d f95f 71bd 192c 8a3e e7d5 a2bc
00000020: 436e 093d 51c1 31be 53d9 193e fdea 7dbe
00000030: c504 823c ec36 3d3d c2a6 17bb dba6 2dbe
00000040: 83fe 083e dc7d 0dbd d1cb aa3e a31e 2d3e
00000050: 524e b63d e6f7 b83e 791f 77be 537d 87be
00000060: 5789 33be 02af 38bd 46cf ab3d 0a28 e43c
00000070: 959d 873d bac1 d8bd 59b4 85bd dd50 2bbe
00000080: 0754 bbbd 7a80 78be 6a1a 72be 1f67 80be
00000090: 935f 48bd 0fd0 adbc 8f06 18be d3df 6c3c
000000a0: 1a7e 933c 9a57 bbbc 8570 f7bd 9ba0 f93b
000000b0: 9dea 7c3d 3d1d ae3d 81d8 f2bd 29ba 07be
000000c0: 6ca8 76bd ef61 b5bd eaf1 0cbe 6845 953d
000000d0: d588 bcbe 757b d0be 9c5a 0cbf 9f59 b63e
000000e0: 61af 22bf 7200 853e c29a 51bd 352a 10bd
000000f0: 736c d2bd 2e87 c9bd 97b6 9c3d e75c 1abd
00000100: 78b6 5ebe f9d3 14be 12e7 7fbe e72a 6e3e
00000110: 5036 00bd 9d53 f73d 7f19 243e 5267 e73d
00000120: bfb9 37bc 8ecd b7bd 1bd1 4fbe 5f94 013e
00000130: 0ca9 103e 5d46 4fbd d6cd 86bd e71e f8bb
00000140: 08ae cd3d 403c 71bc d20b 903e 9eef f33e
00000150: e51d 0cbf 0752 89be 2384 45bb 6676 093e
00000160: f97e 9bbd 273b b9bc 1328 87bd 4c52 293d
00000170: 53ad 8cbd 4c2f e03d ec66 bbbd 86f1 9b3c
00000180: 3abb c63d 0c88 0cbe 0b42 bdbd c75b 5cbe
00000190: 41fa 143e 1544 323e a693 dabd 752b 243c
000001a0: 9f18 223d f7d9 03bc 0ec9 b13d cb83 f93c
000001b0: 538b 58bd cc6f a4bd cbb3 98bc 9a5b 8d3d
000001c0: 5a0e 9c3d b8e3 f5bc 5c4b e6be 4230 3dbe
000001d0: 2427 203f fdb6 c8be 4b03 9f3e 1a07 973e
000001e0: 474c aa3e a2d6 fbbd 8e38 2bbe 2b5a 0dbe
000001f0: bd36 e73c 0e5c 1d3e a7f8 61bc 1f7a 00bd
00000200: 159a 01be 5c0f 47be 9c3d a2bc bd8d 04be
00000210: a65c f1bd b71f 123b 7d17 3ebd c703 16bd
00000220: 29cd 3e3d c324 89bd f0db 4cbc f511 263c
00000230: da09 4ebe 73f2 db3c 2524 c0bb 4ba5 773c
00000240: 3241 94bd 1740 12be 472c c93e 3e29 04be
00000250: 32ca 103f 8a58 d4be 742b d6be 2602 0a3f
00000260: 14ac 01bf 8977 ca3c e017 033d ff81 b2bb
00000270: ecf5 303e 6fab 2c3d 09ce 3abd 669f 55be
00000280: 5569 3dbe 4851 c3be cc8f 8b3d 9ed5 e23b
00000290: edf6 cc3d 9d47 7ebe 5422 40be e345 8e3d
000002a0: 4790 eabc 7539 abbc c5da 2cbe f7b8 5c3d
000002b0: 7118 bb3d ed0a 8a3d 6ebe 513c 28e4 afbd
000002c0: 551d 0e3d 638e 703d 56da 8e3e fa33 3d3d
000002d0: 495c 8dbd 474b 163e d01e 0c3d e6b6 83ba
000002e0: 3296 ec3c 6e51 0f3d 3cac d13b 4ca9 0b3d
000002f0: 0a48 d2bd fd59 bbbd daad 00be a940 bd3d
00000300: eaff edba 235e 77be 0ddb 6e3d e6e0 723d
00000310: 6575 e2ba 7663 a33e 4594 86be 3692 bbbd
00000320: 9df7 583d a228 13be de77 0d3e 7cb9 05be
00000330: 2edf 0dbe 3fe9 da3d 55c0 8e3d c72d 2a3e
00000340: 65de e3bd 213c 49bd 0c23 a8bc 2811 173e
00000350: f754 23bf ad4b 9bbe 9e6a 17bf 5efc ac3e
00000360: 04ce cdbe f822 ccbd bbdd 543b 94fb 39bc
00000370: 3684 a63c cfe0 aa3d 1d4b debd 5f84 253d
00000380: 3210 9ebe 709f b3be f076 07bf 4651 8a3c
00000390: 96f9 3f3e a886 203e 05d6 ac3e 8100 793c
000003a0: 9fd9 22bd 6f56 3ebe e74d 8ebe 5acd 04be
000003b0: 3b46 a5bd d996 0ebd f9c1 053d cf69 b1bb
000003c0: 7123 a8bd f2b4 203e 5968 a03e be8b 0f3e
000003d0: fb73 c73d 2ad8 48bd 8f9e 6cbf 37cd 29be
000003e0: 51b1 69bf 346a b63d ba0f 163e ad1f 093d
000003f0: 41e2 a3bd 1604 e33d 7c13 9abd e8f2 a23e
-0.4033746 0.1530701 -0.3701557 -0.1358192 0.056385376 -0.058929417 0.2698677 -0.019877387
0.03355242 -0.173589 0.15024309 -0.24796672 0.015871415 0.046194956 -0.0023140167 -0.16958182
0.13378339 -0.034543857 0.33358625 0.16906218 0.08901657 0.36126631 -0.241331 -0.26462802
-0.1753286 -0.045088775 0.08389144 0.027851123 0.06621853 -0.105838254 -0.06528539 -0.16730066
-0.09146886 -0.2426776 -0.23642889 -0.25078675 -0.04891927 -0.021217374 -0.14846252 0.014457661
0.018004466 -0.02286892 -0.12082008 0.0076180226 0.061747182 0.085016705 -0.11857701 -0.13254608
-0.060219213 -0.0885657 -0.13764158 0.07288629 -0.36823145 -0.4071919 -0.5482576 0.3561525
-0.63548857 0.25976902 -0.05117298 -0.0351965 -0.10274591 -0.098402366 0.07652014 -0.037686255
-0.21749294 -0.14533986 -0.2499049 0.23258553 -0.031301796 0.12076495 0.16025351 0.11299004
-0.011213719 -0.08974753 -0.20294611 0.12654255 0.14126986 -0.050604213 -0.06582229 -0.007572043
0.100429595 -0.014723837 0.28134018 0.4764375 -0.54733115 -0.26820394 -0.0030138574 0.13424072
-0.075925775 -0.022611214 -0.065994404 0.04133825 -0.068689965 0.10946521 -0.0915049 0.019036066
0.097036794 -0.13723773 -0.09241112 -0.21519385 0.1454859 0.17408784 -0.10672693 0.010020127
0.03957426 -0.008047572 0.08680926 0.030458352 -0.052867245 -0.08029136 -0.01864042 0.06902237
0.07619925 -0.030015811 -0.4497937 -0.1847544 0.62559724 -0.3920211 0.310572 0.29497606
0.3326132 -0.12296797 -0.16720793 -0.13803928 0.028224343 0.15367147 -0.0137921935 -0.031366464
-0.12656434 -0.19439453 -0.019804768 -0.12944694 -0.117852494 0.0022296736 -0.04640912 -0.036624696
0.046582375 -0.06696465 -0.012503609 0.010136117 -0.20120946 0.026849007 -0.0058636838 0.0151150925
-0.072389975 -0.14282261 0.39291593 -0.12906358 0.56558526 -0.414738 -0.41830027 0.5390953
-0.50653195 0.024715202 0.03200519 -0.0054476256 0.17281312 0.04215568 -0.045606647 -0.20861587
-0.18497212 -0.3814795 0.068145365 0.006922438 0.10008035 -0.24832006 -0.18763095 0.069469236
-0.02863325 -0.020901421 -0.16880329 0.053887334 0.09135521 0.06740365 0.01280175 -0.08588439
0.034695942 0.05872954 0.27900952 0.046192147 -0.069023676 0.14677154 0.034209073 -0.0010049015
0.028880212 0.034989767 0.0063987058 0.034097 -0.102676466 -0.09148023 -0.12566319 0.092408486
-0.0018157933 -0.24157004 0.05831437 0.05929651 -0.0017277418 0.3191182 -0.26284996 -0.09158747
0.052970517 -0.14370969 0.13815257 -0.13059038 -0.13854668 0.106890194 0.06970278 0.16619025
-0.11126403 -0.04912961 -0.020524524 0.14752638 -0.6380152 -0.30331174 -0.5914706 0.3378629
-0.4019624 -0.09967607 0.0032480794 -0.011351485 0.020326715 0.0834366 -0.108541705 0.040409442
-0.3087173 -0.3508258 -0.5291586 0.016884457 0.18747553 0.15676367 0.33757034 0.015197874
-0.03975832 -0.1858766 -0.2779381 -0.1296896 -0.08070036 -0.03481183 0.03265569 -0.0054142247
-0.08209885 0.15694025 0.3132961 0.14018151 0.097389184 -0.049034275 -0.9242944 -0.1658219
-0.9128619 0.089069754 0.14654437 0.033477474 -0.08002139 0.11084764 -0.075232476 0.31825948

net_container.0.bias f4 [64]
00000000: d23b 143e 0715 5a3e bfb7 793e b854 813e
00000010: 9669 a9bb 747c db3d b68f 643e 3162 20be
00000020: fc2a 243e 14db a8be 97ac 69bd f922 5a3e
00000030: 52ae 81be 66e4 99be 0274 353e 39f9 6cbd
00000040: eaf2 17be 1e8e 94be fc69 723d afb1 4fbe
00000050: 5b11 b1be 9647 2abe b960 4d3d a2cc ae3d
00000060: 3b2a 053e daf2 febe b9c7 2e3e c45d c33e
00000070: 7256 2cbe d94a 1dbd cb1a 893c 1a8a 6cbe
00000080: 3e55 81be 6707 48be b9be 58be 4a52 69be
00000090: bc40 cdbd 3be1 b4be 38e9 e13c e0f8 a43e
000000a0: d8ff 853e 710b a43e 2cbb e1be ee43 96be
000000b0: a0c6 37be e1ce 9fbe b261 e73d d57a 1bbe
000000c0: 09e4 e1be b7e3 f0bc f327 03be f461 c73d
000000d0: 1496 69be 36f3 0abe 2109 92be fec5 97bd
000000e0: aec8 c3bc cc74 88be 404e ccbe 8d12 9cbe
000000f0: d01d 5c3b 8fa6 b4be 3fc2 d43c f11f 81be
0.14475945 0.21297084 0.243865 0.25259948 -0.0051700575 0.10717097 0.22320446 -0.15662457
0.16032022 -0.32979643 -0.05704936 0.21302404 -0.25328308 -0.30057067 0.17720035 -0.057854865
-0.14838758 -0.29014677 0.059183106 -0.20282625 -0.34583554 -0.1662887 0.05014107 0.08535124
0.13004391 -0.49794656 0.17068376 0.38157475 -0.16829851 -0.03840146 0.016736409 -0.23099557
-0.25260347 -0.19534074 -0.21166505 -0.22785297 -0.10022113 -0.35328087 0.027577028 0.32221127
0.26171756 0.3203998 -0.44088113 -0.293487 -0.17946863 -0.31212524 0.11297931 -0.15183575
-0.4411929 -0.029405458 -0.12808208 0.0973548 -0.22811157 -0.1356934 -0.2852259 -0.07410811
-0.023899402 -0.2665161 -0.3990345 -0.30482903 0.0033587106 -0.35283324 0.02597153 -0.25219682

net_container.2.weight f4 [64, 64]
00000000: ffae 0a3e fc35 3dbe d44e cebb b85a 7dbd
00000010: ba41 37be e6b7 39bd 6d7d 05bd 5df2 3b3e
00000020: adf1 1dbd 6516 893e 9b0c e23d ff4c 683e
00000030: faa1 bf3d 88e7 e7bc f71d 553e 89f9 7dbe
00000040: ac91 32bb 63da afbd ba8f 5abd fe58 afbc
00000050: b334 fcbc 6be8 403c f700 15be 9806 6cbe
00000060: 9d09 903e 7abf bc3d 831a a5be cfe3 10be
00000070: 222a f3bc 3985 5abe 7c6c dfbd 37bc 02bf
00000080: dd7f 44be df9a c73e c291 2e3d 4163 033e
00000090: e600 db3d bfee 94be 6f1e 623d 9477 68bc
000000a0: 5f7a 82bd e8ab 5f3d c01e 723e d7c9 403e
000000b0: 3e7c e2bc 2cf3 083e 2d47 73be 58a0 8f3e
000000c0: de86 ecbd db3d 53bd 4cd5 a43d 280b 27bd
000000d0: 25c7 d63c c99e 2abe 62b8 80bc 3e47 1d3d
000000e0: fc2e 0cbe 4565 893d 93dc d53c 50b4 023e
000000f0: 4b90 9cbe cee9 33bc d3e0 44be 15e9 863d
00000100: 2b89 6dbd ac91 d53d 2a1f 3c3d 4666 e93d
00000110: eb84 133e f38e 87bd 40d8 863d 47eb a4be
00000120: 9cf1 ff3d 5249 1a3d d77f efbe 74f7 b23d
00000130: 84c4 713d 6d9c 03be 13e3 363d 76ef 92bb
00000140: d811 30be 8b13 463d 0058 0abc 6e97 edbd
00000150: 96b7 1fbe f6f4 793e 09c2 f1bc 5ec0 89bd
00000160: 6312 c93d 80f9 8c3e 226c 153d db0d c8bb
00000170: ef38 6a3d ee5f 173e d7b9 b8be 0ee3 45be
00000180: ffdb 933e 6f75 e5bd 340c 80be f145 743a
00000190: b86c 92be 5f60 933c dd6c e5bc c9ae 0c3e
000001a0: 1ab2 1c3e d233 f33d 9952 86bc 3aff e9bc
000001b0: 7e03 993d 5b72 2bbe 4b75 1fbe b45d 15bd
000001c0: eac2 5dbd 230a bbbd e83e 70bc 60d6 45be
000001d0: 3779 1dbe 2de8 89be f164 2b3d 48ff cbbc
000001e0: c5b6 ba3d 1fd4 cd3d 0c8e 66be fd24 2bbe
000001f0: 904d dabc 397e 8bbe ce0f 36bd ede3 c4bd
00000200: 3e48 1dbd 461b 07be e1ee 4ebe d300 6a3e
00000210: b6a8 28be 02d7 1b3d 6db5 97be 9979 03be
00000220: 61b2 84be c239 b63d 1200 e3bb bb82 fabd
00000230: 9b9b e0bd d82f 413e aaf1 a1bd e535 f7bd
00000240: 40d9 b0be 4463 eabd 22b4 7b3d 2de4 0bbe
00000250: 7ba5 c33d 65b6 4b3d 09bb 02be 555c ed3d
00000260: 5f88 e3bc c360 003d edde 813b f9e8 0f3b
00000270: b936 37bd fe9d bfbd f93f 093e 101b afbd
00000280: 23a6 a3bd 9df0 5ebe 5786 1cbe a30c 1f3c
00000290: 8d0e d93d fe4c 2abe 6300 c0bd 5247 d23d
000002a0: b1ec 55be 3f01 8c3d 5948 a0be afe3 c73c
000002b0: c801 21bd e456 443e ed5b b53d 9921 af3c
000002c0: e110 26bd 3c73 723d 069d 99bd ab7f 91be
000002d0: addc 0bbe b12e 4dbd 770f bfbd bdde f7bd
000002e0: 0439 09be 3695 ae3d ca64 193d 6cd7 033e
000002f0: 9e34 9ebd 74b0 c13d 3ab4 343e a6fe 893c
00000300: 1cce 98be 7dea 1e3e e837 7bbe 59aa 503d
00000310: c1ae 67bc c688 3c3d ccb2 c93d 57ba 9abe
00000320: 0368 15be bebd 96be 1027 56bd b441 1a3e
00000330: 9238 ef3c 90a4 e73b 977d e9bd 49fc b2bc
00000340: a789 cebe 98ad a6be 15a8 af3d e4a0 23bb
00000350: 67a3 843d 2950 c3be 4d40 41be 7ca5 ffbb
00000360: 611a d7bc 9392 46be abe5 25bd 1407 363c
00000370: e2bc 83bc 2acb 953d d088 88bd c86f 05be
00000380: a226 c73c 78fd 62be d2db 813d 0bd7 86be
00000390: df4b 153e 3532 193d 0120 44bc 25ea 913c
000003a0: 3c75 30be 0760 a4bd a070 4dbe 75ea 0bbd
000003b0: e2be e5bd 08ed f7bb 06b6 5c3d d8e6 bbbd
000003c0: 855d 9ebd 83d2 5abd 4cc8 873e de26 a9be
000003d0: 400e 443d 81fd 8ebe 7098 10be bcb3 abbe
000003e0: 4de4 a7bc ff9e a4bd b063 43bc f6c0 70be
000003f0: 64f6 443c e71c bc3c 6a70 ec3c 6086 3fbd
0.13543318 -0.18477625 -0.006296018 -0.061854094 -0.17896166 -0.045341395 -0.03259032 0.18354173
-0.038560558 0.26774898 0.110375606 0.22685622 0.093570665 -0.028308645 0.20812212 -0.24802221
-0.0027247472 -0.08586576 -0.053359725 -0.02140474 -0.030786848 0.011774163 -0.1455115 -0.2304939
0.28132334 0.09216209 -0.3224679 -0.14149402 -0.029683176 -0.21339883 -0.109093636 -0.51068443
-0.19189401 0.38985345 0.042619474 0.12830831 0.10693531 -0.290884 0.055204805 -0.014188666
-0.06370997 0.054607302 0.23644543 0.18826996 -0.027647134 0.13374013 -0.2375762 0.2805202
-0.115491614 -0.05157266 0.08048496 -0.040782124 0.026218006 -0.16662134 -0.01571292 0.03839802
-0.13689798 0.06708769 0.026106155 0.12764096 -0.30578837 -0.010981036 -0.19226389 0.065874256
-0.05799214 0.10428175 0.045928158 0.1139646 0.14406173 -0.06619062 0.06584215 -0.32210752
0.12497255 0.03766758 -0.46777222 0.08738604 0.059025303 -0.1285264 0.04465015 -0.0044841124
-0.17194307 0.04835848 -0.008443832 -0.116011485 -0.15597376 0.24409851 -0.029511468 -0.06726144
0.0981796 0.27534103 0.036480077 -0.0061051673 0.057183202 0.14782688 -0.36079285 -0.19324896
0.2887878 -0.11204039 -0.2500931 0.00093182834 -0.2859857 0.01799029 -0.028006012 0.1373855
0.15302315 0.11875118 -0.016396808 -0.028564084 0.07471369 -0.16742842 -0.15572087 -0.036466315
-0.054140963 -0.09132793 -0.0146634355 -0.19320059 -0.15378271 -0.2693495 0.041844312 -0.024902001
0.09116892 0.100502245 -0.22515124 -0.16713329 -0.026648313 -0.27244738 -0.044448666 -0.09613786
-0.038398974 -0.13193998 -0.20208313 0.22851877 -0.16470608 0.038046844 -0.29630604 -0.12839355
-0.25917342 0.08897735 -0.0069274986 -0.12231966 -0.109671794 0.18865907 -0.07907422 -0.120708264
-0.3454075 -0.11444715 0.061451085 -0.13661261 0.09553047 0.04973449 -0.12766661 0.115898766
-0.027774988 0.03134228 0.0039633424 0.002195893 -0.044729922 -0.093563065 0.1340331 -0.08550084
-0.079906724 -0.21771474 -0.15285622 0.009707603 0.105984785 -0.16630933 -0.09375074 0.102675095
-0.20891072 0.06836175 -0.31305197 0.02440056 -0.03930834 0.19173771 0.08855424 0.021378325
-0.04054344 0.059191927 -0.07500653 -0.28417715 -0.136584 -0.050093357 -0.093291216 -0.12103031
-0.13400656 0.085245535 0.037449636 0.12875146 -0.0772488 0.09457484 0.17646876 0.016845059
-0.2984475 0.15519138 -0.24533045 0.050943706 -0.014140786 0.046028875 0.09848556 -0.3022029
-0.14590459 -0.29441637 -0.052283347 0.15064126 0.02920178 0.007069178 -0.114009075 -0.021848815
-0.40339395 -0.32554317 0.08576981 -0.0024967724 0.06476479 -0.38147095 -0.18872185 -0.0078017097
-0.026257696 -0.19391851 -0.04050223 0.011110086 -0.016081277 0.07314141 -0.0666672 -0.13030922
0.024310414 -0.22167003 0.063407555 -0.2633594 0.14579724 0.037401397 -0.011970521 0.017811844
-0.17232221 -0.08026128 -0.20062494 -0.034159143 -0.11218049 -0.007566098 0.05388453 -0.09174889
-0.07732681 -0.053423416 0.26520002 -0.33037466 0.047865152 -0.27927783 -0.1412065 -0.33535564
-0.020494604 -0.080381386 -0.011925623 -0.23511109 0.012021635 0.022963 0.028862197 -0.04675901

net_container.2.bias f4 [64]
00000000: 1c70 bbbe c119 47be 9465 58be de48 26be
00000010: 469e 5fbe e320 0dbe 5678 6ebe 99b7 df3c
00000020: cffa b4be 370d 043e b486 afbd c523 823d
00000030: f250 bbbe 3646 aebd ea2b b6be 3cd6 803e
00000040: 5758 bf3d b6a9 8cbe 0702 c43c 5acd 5bbe
00000050: 17af 86be 6022 73be ad6e 2abd e65c 303e
00000060: 5a82 9e3d 1226 8e3d 97b4 1abe 8508 45bd
00000070: d27d c33c b51f 033d 8596 a8bd 23a2 5abe
00000080: 4a99 103e 9542 2e3e 2326 b53d 7771 ff3d
00000090: 22eb f0be f7e6 9fbe b340 ccbd f953 00be
000000a0: d120 773d 0090 dabd 3901 8abe 4a8d 433e
000000b0: 6fb2 c5be 354e 85bc 3617 44be 690c 883e
000000c0: 8251 5bbe b249 543e d8e9 073d 9d6c f3bc
000000d0: 6069 863e 7dc8 9bbe 7db9 5cbe 13e8 0c3e
000000e0: 097a d4be d9fb 8cbd 38e8 b0bd a6bc a2bc
000000f0: 522f 15be c718 eabe 2bc0 c7be 0e94 43bc
-0.3660897 -0.19443418 -0.21132499 -0.16238734 -0.2183772 -0.13782077 -0.23288092 0.027309226
-0.35347602 0.12895666 -0.085706145 0.06354479 -0.36585194 -0.085094854 -0.3558038 0.25163448
0.09343021 -0.2747323 0.023926748 -0.21465054 -0.26305458 -0.23743582 -0.041609455 0.17222938
0.07739706 0.06940855 -0.15107952 -0.048103828 0.023863707 0.03201266 -0.08231834 -0.21350913
0.14120975 0.17017587 0.088451646 0.124728136 -0.47054392 -0.312309 -0.09973278 -0.12532033
0.06033403 -0.10671997 -0.26954058 0.19096866 -0.38612697 -0.016272644 -0.1914948 0.26571968
-0.21417812 0.20731238 0.033181995 -0.029714877 0.2625227 -0.30426398 -0.21555133 0.13760404
-0.41499355 -0.06883974 -0.08638042 -0.019865345 -0.14568833 -0.4572203 -0.390138 -0.011937154

policy_layer.weight f4 [7, 64]
00000000: 0ea1 8b3e ff0d 83bc 9c7b cebd a574 06be
00000010: f01c 39bd b452 b9bc 883d 8abd 08d1 403d
00000020: ea1d 51bd 66a1 163e a2f1 4a3e e013 c13d
00000030: e335 47bd b8e6 75be b39f 9d3c 4c45 42bd
00000040: d84d 93bd cf7e 99bd a7d4 223d 6ff6 113e
00000050: 1642 d4bd dbf4 b7bd f3bb df3d 83a3 823c
00000060: ef96 853d 1256 8ebe 2f29 2dbe b0b7 1dbb
00000070: b9fa 42be c6a7 ad3d 6a22 bdbc 2a61 b5bc
00000080: 4087 d4bc 268e 0c3e 4d35 1e3e 6545 12be
00000090: 6f42 223d f0a6 293d d918 b7bd d0b7 9abe
000000a0: 758c f63d e477 06be db59 3dbd 8b40 c3bc
000000b0: 997e 0fbe 6c1a 0bbe a701 83bd 4c9f c93d
000000c0: 6b11 ac3d 6d42 95bc bf0a 72bd 353b 313b
000000d0: 7328 2fbd e4f7 523d 880f 11bb c3ac 10be
000000e0: e304 903e a26f 053e d62e 6c3c f9c0 c7bd
000000f0: c5bf d2bc 913d 16bd 596c 8b3e 0b2c 2bbe
00000100: 4c90 50bd ec91 f8bc 4888 64be 501c 00be
00000110: ed53 edbd ae20 cc3c 8215 8b3d 552c 1cbc
00000120: a9c7 14bd 1cd9 e23d 81f2 edbc 7b49 9c3d
00000130: 2731 78bc 3518 d63d b7ff b23d ac2f 51bd
00000140: 0d2b e8bc c20e 173d 27b4 1dbd d581 ecbc
00000150: 570c 68bd 2819 40be 33b8 9d3d 2a29 ae3d
00000160: 5c92 593d 88ed 93bd 1676 4a3d 470d 06be
00000170: 9a0a 8a3c f115 873d 12b2 6fbe c450 4bbe
00000180: 53bc 673d 629b e23d c9a3 ff3d a21c 023d
00000190: af86 0fbd 7e4a 80bd 3d60 613e 1eda a2bc
000001a0: 8412 3f3e 8bf2 1fbc 3b51 f03d bcd9 103e
000001b0: fbe9 8a3d c1c3 123e a5f5 113e 4150 4a3b
000001c0: 099c eebb f944 8c3d 5fb0 b83d 46bf 913b
000001d0: 149c 4bbd b93a b1bd 2267 bbbc 8c37 093e
000001e0: cc03 f8bd cc2f 5ebd a86c cbbc 3107 033c
000001f0: e7c9 01bd 6ea3 8e3c 7c52 33be 4463 48bd
00000200: c262 8b3e 9936 c83d 64e0 4dbc 46c7 dcbd
00000210: cb04 073d d65b 28bd b058 5a3c 386c d83d
00000220: 33f0 353d 3274 263c 4f8f 2f3e 2645 78bc
00000230: 031c acbc 299f 8abe a20e 76bd 25a6 17be
00000240: 9bed 4a3d e583 d0bd f2fc 29be 799d 103e
00000250: b75f 1dbd e4e2 993b 03a7 c2bd 607c c83c
00000260: bc53 8ebb 8d3b dabd 5fbd 13be 702e ab3d
00000270: 79ba c93d f97a 05be 1601 a3bb adeb 8cbd
00000280: a49d f8bc 5d2e 8d3d 9d8d 433e efd8 513d
00000290: 7d55 773d 007e 2f3e e4ff 1fbd d357 88be
000002a0: 464b 573e a538 4dbd 9e8e 06bb 1ef7 233e
000002b0: 0191 1cbe 75e7 0d3d 6512 723c 22a6 4dbd
000002c0: 5b43 0ebe 3edd 4cbd 0d86 f73c 8b6c 91bd
000002d0: d11e 563d b7ce b8bd 73dd a7bd 79cb c7bd
000002e0: 3273 283e 43fd 123e 3ec0 cc3c 3727 e1bc
000002f0: ae1d 98bd 68a4 0dbb c87f 95bd 063b 0bbe
00000300: 5621 8dbd 827f 813d 7062 ba3d b719 c9bc
00000310: 6985 bdbd e5a4 49be 0092 9abe a8cd a4ba
00000320: e17b 2cbe 18b9 1dbc a240 743d deaa d73c
00000330: d2da dfbd b806 14be c5b4 2ebe 9cb8 ab3c
00000340: 3d81 f63c 46a0 afbc e821 153e 6e1a 39be
00000350: 4d87 7cbd f898 40bd c09b 22bb 7203 df3d
00000360: 31a1 94bd bb64 25be 0aa9 a9be 7a52 f9bd
00000370: 3562 083d 1288 523e 56d5 4fbc 321b 413e
00000380: 8c25 9e3d 004c d53d 31bc f5bd 45b8 053d
00000390: c629 64bc 0bba d5bd ef4e 6c3d 578e a8bc
000003a0: 8e59 6f3d 927b b7bd eace 3dbe 3718 ebba
000003b0: 50b1 e63c c345 fa3d 3513 27bd e2f0 303d
000003c0: 62db 273d f426 03bd 1562 2e3e ff68 843d
000003d0: b2de 8c3d b558 a7bd 84c9 8d3d 1185 9a3d
000003e0: 400a 0cbe a900 9fbd e658 813d c213 dabc
000003f0: 8c1b 82bd dbbc 01be a5ec 5ebe 55d0 f3bb
0.27271312 -0.015997885 -0.1008217 -0.13130434 -0.045193613 -0.022622444 -0.067500174 0.047074348
-0.05105392 0.14710006 0.19818738 0.09427619 -0.048635375 -0.24013793 0.01924119 -0.047429368
-0.07192582 -0.0749489 0.039753582 0.14254163 -0.103641674 -0.08982249 0.1092452 0.01594711
0.06522929 -0.2780004 -0.16910242 -0.0024065785 -0.19040956 0.08479266 -0.023087699 -0.022141058
-0.025943398 0.137261 0.1545002 -0.14284284 0.039614137 0.04141897 -0.08940286 -0.30218363
0.12038509 -0.13131672 -0.04622827 -0.023834487 -0.14013137 -0.13584298 -0.063967995 0.098448366
0.0840176 -0.01822015 -0.05909228 0.0027043347 -0.042763185 0.05150594 -0.0022134501 -0.14128403
0.28128728 0.13030866 0.014415463 -0.097536035 -0.025726208 -0.036679808 0.272311 -0.1671602
-0.050918862 -0.030343018 -0.22317612 -0.125108 -0.11588273 0.024917927 0.06791212 -0.009532054
-0.036323223 0.110765666 -0.029046299 0.07631203 -0.015148438 0.10453836 0.0874018 -0.051070854
-0.02834084 0.03687931 -0.038501885 -0.028870502 -0.056652393 -0.18759596 0.07701149 0.08503945
0.053118095 -0.0722304 0.04942902 -0.13091002 0.016850758 0.06595982 -0.23407772 -0.19855028
0.056576084 0.11064793 0.124824114 0.031765588 -0.035040554 -0.06264208 0.22009368 -0.019879397
0.18659407 -0.009762417 0.117342435 0.14145559 0.067829095 0.14332487 0.14253862 0.003087059
-0.0072817844 0.06849093 0.09018015 0.0044478504 -0.049709395 -0.086537786 -0.022876326 0.13400096
-0.12110099 -0.0542448 -0.024832085 0.00799732 -0.03168669 0.017411914 -0.17511934 -0.048922792
0.27223784 0.09776039 -0.012565706 -0.10780196 0.032963555 -0.041103207 0.013326809 0.10567516
0.044418525 0.010159539 0.17144512 -0.015153205 -0.02100945 -0.27074555 -0.06007255 -0.14809473
0.049543004 -0.10181407 -0.16600397 0.14122571 -0.03842136 0.004696237 -0.09504511 0.02447337
-0.004343478 -0.1065589 -0.14427708 0.083584666 0.0985002 -0.13035192 -0.0049744947 -0.06880889
-0.030348606 0.06893609 0.1909699 0.051232275 0.060384262 0.17137909 -0.039062396 -0.26629505
0.21024808 -0.05010285 -0.0020531784 0.16012236 -0.1528969 0.034644563 0.014774893 -0.050207265
-0.13892882 -0.05001568 0.030215288 -0.07100781 0.052275483 -0.09023803 -0.08196535 -0.09755606
0.16450194 0.14354424 0.024994012 -0.02748452 -0.07427536 -0.0021612886 -0.07299763 -0.13596734
-0.06891124 0.06323148 0.09100807 -0.024548395 -0.092539616 -0.19691809 -0.30189514 -0.0012573497
-0.16844131 -0.009626649 0.05963195 0.026326593 -0.109304085 -0.14455688 -0.17061146 0.020962052
0.030090922 -0.021438729 0.14563715 -0.18076488 -0.06165247 -0.047020882 -0.0024812073 0.10889329
-0.07257307 -0.16151707 -0.3313678 -0.12173934 0.033296783 0.20559719 -0.012685141 0.1885803
0.07722005 0.104148865 -0.11998785 0.032646436 -0.013925975 -0.104358755 0.057692464 -0.020575685
0.058435015 -0.08959116 -0.18535963 -0.0017936294 0.028160721 0.12220337 -0.0407898 0.043198474
0.040980704 -0.03201957 0.17029603 0.06465339 0.06878413 -0.081712164 0.06923202 0.07544912
-0.13675785 -0.07763798 0.06315784 -0.02662075 -0.063529104 -0.12669699 -0.2176996 -0.0074406066

policy_layer.bias f4 [7]
00000000: 90f2 633d 23e7 7c3d 3e9f 26bd 4bdc 913e
00000010: f948 3cbd 0014 e2bd 77a7 4e3d
0.055651248 0.061743867 -0.04067921 0.28488383 -0.04596803 -0.11038971 0.050452676

value_layer.weight f4 [1, 64]
00000000: 6eda a6bc 4c28 703b bf0e fdbc 04b2 46bd
00000010: 6e33 eb3c 2dda c4bd 2f65 1a3d 2c66 b1bc
00000020: d43c 0cbe 586d 8fbc 32b4 9f3d 425c f2bc
00000030: 07a3 ddbd 3728 453d edc2 15bc 7b11 c9ba
00000040: a8e3 f5bd c20a 05bd 9099 f3bb 5b40 debc
00000050: d313 a03c 479d 573d eb07 cb3c 1a7a 25bc
00000060: 0336 823b c847 35bd eacb c9bc 9fcb 4e3c
00000070: 21cc 573b 0de6 47bc eba6 17bd ba54 633c
00000080: c780 eabc e3e8 8b3c d323 ea3c 976a 15bb
00000090: 30de 26bb 1fcc 28be cb11 9cbc acb6 82bd
000000a0: 74e6 cf3c 679a cb3c 4cd4 04be f6f2 0b3e
000000b0: 8701 513c cddc 083c fbe0 e2bc d90e ef3b
000000c0: 50ab ee3d c8bf 303d 91e7 a9bc 6b96 00bc
000000d0: a8bc 9c3d acf2 54bd 2a81 d8bc 5143 5d3c
000000e0: bcdb 37bd f042 70bd afca e0bc 6a9f dabc
000000f0: 241d 0f3b a770 b8bd 9418 13bd 4b83 89ba
-0.020367827 0.0036645113 -0.03089082 -0.048509613 0.028711047 -0.09611926 0.037694152 -0.021655165
-0.13695079 -0.017508194 0.077980414 -0.029585008 -0.108221106 0.048134055 -0.009140712 -0.0015340293
-0.120063126 -0.032480963 -0.0074340776 -0.027130296 0.019540703 0.052640226 0.024784049 -0.010099912
0.003973724 -0.04425791 -0.024633367 0.012621789 0.0032928067 -0.0122008445 -0.03702442 0.013875181
-0.028625859 0.017078822 0.028581535 -0.0022799128 -0.0025462024 -0.16484116 -0.019051453 -0.06382498
0.025378443 0.024853898 -0.1297161 0.13666901 0.012756712 0.008353424 -0.02769517 0.007295471
0.11653769 0.043151647 -0.020740302 -0.007848362 0.07653171 -0.051989242 -0.026428778 0.013504819
-0.04488729 -0.058657587 -0.027440397 -0.026687343 0.0021837438 -0.09005862 -0.03591211 -0.0010491399

exp_avg f4 [7]
00000000: c125 3739 83ee 993a 02f9 113a 0a56 df3a
00000010: 551f 443a 9508 d53a cb9d a33a
0.00017466304 0.0011744056 0.0005568416 0.0017039191 0.00074814755 0.0016253168 0.0012482939

exp_avg_sq f4 [7]
00000000: b579 bd37 1e89 8737 8c9b c937 43ee b537
00000010: c640 c137 85b1 be37 bd87 a137
2.258723e-05 1.6157104e-05 2.40335e-05 2.168783e-05 2.3037555e-05 2.2732429e-05 1.9255904e-05
