logs/skrl/reach_franka/2024-12-18_21-11-53_ppo_torch/checkpoints/agent_7200.pt (torch, 96162 bytes, 38 tensors)

log_std_parameter f4 [7]
000000 d1 76 df bf 9f a0 ee bf c4 11 f3 bf ac 99 00 c0
       -1.7458135 -1.8642768 -1.8989797 -2.0093794
000010 a0 a2 ea bf 55 98 ea bf bf 21 d7 bf
       -1.8330879 -1.8327738 -1.6807173

net_container.0.weight f4 [64, 32]
000000 ea de cb be 47 44 15 3e 8e 3d bd be 3f 00 10 be
       -0.39818507 0.14576827 -0.36961025 -0.14062594
000010 c8 e4 7e 3d 7b c5 82 bd 64 b8 87 3e 4f 31 dc bc
       0.0622299 -0.06385323 0.26507866 -0.02687898
000020 4a a4 0a 3d 37 09 3b be da e1 20 3e 58 ca 7f be
       0.033848085 -0.18265234 0.15711156 -0.24979532
000030 ae 36 33 3c fc f0 56 3d fc be 1f 3b 9a 9a 2e be
       0.01093833 0.052475914 0.002437531 -0.17051163
000040 a0 38 05 3e 06 cf 05 bd 0f 79 aa 3e 12 1a 3c 3e
       0.13009882 -0.032668136 0.33295485 0.1836932
000050 cf 13 c8 3d 4f 07 ba 3e fe ce 7d be cf 7c 88 be
       0.09769403 0.363337 -0.24785993 -0.2665772
000060 99 ba 3a be e9 82 43 bd e4 79 a1 3d e9 49 9a 3c
       -0.18235244 -0.047732268 0.07884577 0.018834071
000070 4d e1 83 3d 6b 8c cc bd c9 54 89 bd d9 c6 2c be
       0.06439457 -0.0998772 -0.067056246 -0.1687273
000080 2e 77 bb bd 80 0e 6b be da a8 6e be cf 62 70 be
       -0.09153591 -0.2295475 -0.233066 -0.23475192
000090 3b f9 64 bd c5 50 d2 bc ab ea 1a be 2d 6c ce 3c
       -0.055901747 -0.02567328 -0.15128581 0.025198067
0000a0 dc e2 bc 3c 34 14 1b bd ab 75 f8 bd 80 f9 3d 3c
       0.023057394 -0.037861064 -0.121318184 0.01159513
0000b0 03 3d 8b 3d 3c 5c ba 3d fc 0a e5 bd 83 c8 1b be
       0.067987464 0.090996236 -0.11183736 -0.15213208
0000c0 a6 ae 70 bd 6f cd b7 bd 8d 43 fc bd 27 e5 97 3d
       -0.058760308 -0.0897473 -0.12317572 0.07416754
0000d0 fa 1a bf be 02 a4 d5 be ee 8d 09 bf 1e 37 bb 3e
       -0.3732527 -0.4172669 -0.5373219 0.3656549
0000e0 5c b2 1f bf 5d ba 83 3e 89 3c 29 bd c7 98 03 bd
       -0.6238153 0.2572812 -0.041317496 -0.03212812
0000f0 2f 23 a8 bd c7 a7 de bd 5b c4 98 3d 80 b8 33 bd
       -0.08209836 -0.10871845 0.07459327 -0.043877125
000100 a3 4f 5e be a4 b8 29 be c6 59 7b be 92 ff 5d 3e
       -0.21710066 -0.16574341 -0.24545965 0.21679524
000110 80 ba e8 bc e9 9b 05 3e d5 5c 22 3e 1c 39 ed 3d
       -0.028409243 0.13047756 0.15855725 0.115831584
000120 2c a5 64 bc 6c 32 ab bd 8b 3e 57 be 3f 22 e5 3d
       -0.013955396 -0.083592266 -0.21019952 0.111881725
000130 8d ba 15 3e c4 e5 74 bd 0f 8c 3f bd cb e5 c8 bb
       0.14621945 -0.059789434 -0.04676443 -0.006130909
000140 e3 06 c6 3d da ce a7 bc 79 a8 8a 3e 49 aa f5 3e
       0.09669282 -0.020484377 0.2708166 0.4798148
000150 e0 57 0c bf df 93 8b be 27 15 84 ba 5a b4 0d 3e
       -0.54821587 -0.27261254 -0.0010077105 0.1383833
000160 0f 1a 97 bd 9a 2c d8 bc 9a ca 99 bd ff 74 26 3d
       -0.07378017 -0.026388455 -0.07509346 0.04063892
000170 9a b8 99 bd 38 0b e5 3d f2 b3 a4 bd 0a ef 83 3c
       -0.07505913 0.111837804 -0.08042134 0.016105194
000180 2a 37 c8 3d 6d e2 d4 bd fc c9 c2 bd d9 09 40 be
       0.09776147 -0.1039475 -0.09511182 -0.18753757
000190 cf bf 18 3e b9 d5 33 3e b5 53 e3 bd 51 d5 0d bb
       0.14916919 0.17561997 -0.1109995 -0.002164204
0001a0 0c ed de 3c 9e 20 77 bc f8 75 be 3d 6d cc d0 3c
       0.027212642 -0.01508346 0.092998445 0.025488103
0001b0 6f 9e 6c bd e5 37 bb bd 51 b1 65 bc f2 24 7a 3d
       -0.05776828 -0.091415204 -0.014019326 0.06107039
0001c0 0e d9 91 3d 1b 3d 8d bc 20 10 da be 2e 60 43 be
       0.07121478 -0.017241051 -0.42590427 -0.19079658
0001d0 5b c7 1e 3f 83 62 ca be 62 4b a2 3e a5 9a 98 3e
       0.6202294 -0.39528283 0.31698138 0.29805484
0001e0 31 d2 ad 3e 81 ab 06 be d7 ed 27 be 81 aa 12 be
       0.33949426 -0.13151361 -0.16399322 -0.14322855
0001f0 af c4 7b 3d 6b 6a 1d 3e c2 26 fc bb 6f cb 0d bd
       0.06146687 0.15372626 -0.00769505 -0.034617838
000200 d6 12 02 be 85 48 43 be d0 a3 a0 bc 84 9b 02 be
       -0.12702498 -0.19070633 -0.019609362 -0.12754637
000210 89 7e ee bd 85 7d 13 bb 86 42 4b bd e2 d2 2c bd
       -0.116452284 -0.0022505235 -0.04962399 -0.0421933
000220 be 1d 34 3d 5d 6a 73 bd a9 69 9b bc 63 46 17 bc
       0.043973677 -0.059427608 -0.018971281 -0.00923309
000230 14 70 4f be f4 5b 63 3d 09 ce 47 bc d6 7f 52 3c
       -0.20257598 0.055507615 -0.012195119 0.012847861
000240 b3 ab 9b bd 02 60 18 be 05 a8 cc 3e 47 2e 10 be
       -0.076011084 -0.14880374 0.3997194 -0.14080153
000250 1b 2d 0f 3f 70 a1 d4 be e6 3c d5 be 9b 22 0a 3f
       0.559282 -0.41529417 -0.41648024 0.53959054
000260 b2 2d 01 bf 43 26 a3 3c 4a 12 f7 3c 2e 6e 33 bc
       -0.5046035 0.019915706 0.030160088 -0.010951562
000270 71 00 37 3e 12 e5 25 3d 9c a9 43 bd a2 f2 59 be
       0.17871262 0.04050166 -0.047769174 -0.21283963
000280 90 12 34 be a6 b4 bf be 44 84 7e 3d 9e 33 18 3c
       -0.17585206 -0.3744251 0.062137857 0.00928965
000290 a0 24 bb 3d ea c3 7a be d0 95 37 be b4 60 b7 3d
       0.09137845 -0.24488798 -0.17928243 0.089539915
0002a0 72 a1 1b bd 78 2d 01 bd 69 be 29 be d2 e4 69 3d
       -0.037995763 -0.031537503 -0.16576542 0.057102986
0002b0 6f 1d c1 3d f7 64 a0 3d ef 4d df 3c d5 dd b2 bd
       0.09429442 0.078317575 0.027258841 -0.08733717
0002c0 2c e7 fa 3c d0 91 9a 3d db b8 93 3e d8 05 52 3d
       0.03062781 0.07547343 0.2885197 0.051275104
0002d0 b5 1a 94 bd 11 de 1f 3e 41 c4 14 3d 93 60 21 bc
       -0.072316565 0.15612055 0.036319975 -0.009849685
0002e0 10 0c ff 3c 8c 88 31 3d 56 cc b5 3c ee 0f d7 3c
       0.031133682 0.043343112 0.022192162 0.026252713
0002f0 d2 de c7 bd 74 b7 ce bd 43 67 f3 bd 2a 58 c5 3d
       -0.097592965 -0.10093585 -0.1188493 0.096359566
000300 fd c2 72 bb 79 77 83 be ed 55 83 3d 39 ac 50 3d
       -0.0037042492 -0.25677088 0.064128734 0.050945494
000310 9f a6 42 bb e4 d1 9d 3e 8e 3d 86 be 7f 87 b7 bd
       -0.0029701365 0.30824196 -0.26218837 -0.08961391
000320 b1 c1 35 3d 4c f4 13 be 40 c7 0d 3e ad d6 07 be
       0.04437417 -0.1444866 0.13845539 -0.13265486
000330 3f cd 03 be 59 58 c7 3d b7 0e b1 3d 8b 1d 2a 3e
       -0.12871264 0.09733648 0.08645385 0.16612832
000340 67 7e e1 bd 07 a6 42 bd 06 6c d1 bc 33 da 1a 3e
       -0.110104375 -0.047521617 -0.025564205 0.15122299
000350 77 4a 24 bf 81 ae 9d be b8 14 13 bf a3 3d af 3e
       -0.64176124 -0.30797198 -0.5745349 0.34226713
000360 36 83 c4 be 4d e6 ce bd 52 7b 73 bb cb 25 a0 bb
       -0.38381356 -0.1010252 -0.0037152362 -0.004887318
000370 9c f6 a9 3c a1 2f a8 3d f1 f9 e5 bd 1e e8 1a 3d
       0.020747475 0.082122095 -0.11229313 0.03781902
000380 df 66 9e be 49 37 b5 be 2d 27 06 bf ad e0 d0 3c
       -0.3093786 -0.35393742 -0.5240353 0.025497759
000390 62 2d 45 3e 7d d8 24 3e b9 92 aa 3e 4d 16 90 3c
       0.19255593 0.16098209 0.33315066 0.017588759
0003a0 05 65 06 bd 9d b1 49 be 0d 6e 8e be 0f 70 f7 bd
       -0.032811183 -0.1969666 -0.27818337 -0.1208192
0003b0 ee 2a 8d bd 6c de 00 bd 5a c0 5a 3c 4c 9a 96 bc
       -0.06892954 -0.031462118 0.013351524 -0.018384121
0003c0 f4 f7 c3 bd 39 4b 11 3e 1f 5a a4 3e 6f 65 1f 3e
       -0.09568778 0.14188851 0.32100007 0.15566038
0003d0 ea 41 df 3d 9f 24 63 bd e4 bb 6b bf 51 92 23 be
       0.10901244 -0.055454846 -0.92083573 -0.15973784
0003e0 62 c0 68 bf 79 70 aa 3d cb 37 0b 3e 47 af 04 3d
       -0.9091855 0.08322234 0.13595502 0.03239372
0003f0 25 2d 94 bd 17 00 f1 3d 92 fb 96 bd 98 40 a1 3e
       -0.07235173 0.11767595 -0.07372202 0.31494594

net_container.0.bias f4 [64]
000000 1d 3f 12 3e ca 60 5d 3e c5 05 7b 3e 91 cb 82 3e
       0.14281888 0.21618953 0.2451392 0.25545934
000010 83 6e 22 bc af 23 dd 3d 53 97 65 3e 24 9f 1d be
       -0.009914043 0.10797822 0.22421007 -0.15392739
000020 bf 48 23 3e f1 a3 ad be 63 e9 59 bd a5 a3 58 3e
       0.15945719 -0.3391414 -0.05320109 0.21156175
000030 e6 97 82 be 03 c1 96 be bf f6 34 3e 95 91 4c bd
       -0.25506514 -0.2944413 0.17672251 -0.049943525
000040 f4 24 16 be cf 6d 94 be c8 11 5b 3d 8b 86 4e be
       -0.14662534 -0.28990027 0.053483754 -0.20168512
000050 2f 78 b0 be af 31 2c be f4 f4 5d 3d fe a8 b3 3d
       -0.34466693 -0.16815828 0.054188684 0.08772467
000060 73 a1 f4 3d dd 6e 00 bf 50 d0 2e 3e c9 fd c1 3e
       0.119448565 -0.50169164 0.17071652 0.37888935
000070 ee d5 2b be 76 12 27 bd 43 24 97 3c 2c 47 6a be
       -0.16780826 -0.04078909 0.018449908 -0.22878712
000080 b1 fa 85 be d8 00 48 be 39 96 57 be 4b 88 65 be
       -0.26167825 -0.19531572 -0.21053399 -0.22415273
000090 57 89 c9 bd 50 60 b3 be 37 7c cb 3c f5 d4 a2 3e
       -0.098406486 -0.35034418 0.024839504 0.31803098
0000a0 44 84 86 3e 11 4b a0 3e 23 4c e4 be ed 7e 97 be
       0.26272786 0.3130727 -0.44589338 -0.29589024
0000b0 a0 45 35 be ea b5 9f be 8f e9 f0 3d 73 25 14 be
       -0.17702341 -0.31193477 0.11763298 -0.1446741
0000c0 61 7c e2 be 8f 30 fd bc 20 4c 02 be f5 24 cd 3d
       -0.4423552 -0.030906944 -0.12724352 0.100168146
0000d0 67 21 5d be d7 f0 0b be d0 94 8f be d1 5d 95 bd
       -0.21594773 -0.13666092 -0.28043222 -0.07293285
0000e0 ef ca 90 bc e0 64 86 be 71 f8 c9 be af 55 96 be
       -0.017674891 -0.26248837 -0.39447358 -0.29362246
0000f0 52 ea c8 3b 31 21 b2 be f3 62 10 3d 0a 7f 82 be
       0.006131449 -0.34790948 0.035250615 -0.25487548

net_container.2.weight f4 [64, 64]
000000 a3 09 0c 3e 61 24 3a be 6f 15 95 3a c6 38 83 bd
       0.13675551 -0.1817794 0.0011374186 -0.06407313
000010 f6 12 44 be 66 5c 4d bd b7 c7 1d bd a6 43 41 3e
       -0.19147858 -0.050136946 -0.03852054 0.18873462
000020 82 5c 16 bd 62 2c 8b 3e 22 d9 ec 3d 67 95 6c 3e
       -0.036709316 0.271823 0.11564852 0.23103867
000030 69 4e d0 3d 76 98 e0 bc ad 49 5e 3e b8 ad 80 be
       0.101712056 -0.027416449 0.21707793 -0.25132537
000040 fe de 61 3c 6e ef 9c bd c8 31 57 bd 72 38 75 bc
       0.013786076 -0.07662855 -0.05253771 -0.014967071
000050 c2 21 f7 bc 14 d9 8c 3c fd 5e 19 be c1 cd 74 be
       -0.030167464 0.017193355 -0.14977641 -0.23906614
000060 23 4e 8c 3e 72 5a be 3d 3b f6 a5 be 77 c7 0a be
       0.27403364 0.09294595 -0.3241442 -0.13552652
000070 ad ec e4 bc 21 10 5a be 70 b2 d6 bd 51 80 02 bf
       -0.027944887 -0.21295215 -0.10483253 -0.50977045
000080 a2 0d 40 be 07 f9 c7 3e 44 e5 37 3d 8d 26 10 3e
       -0.187552 0.3905718 0.04489638 0.14077206
000090 d2 fd e1 3d 03 d5 93 be 0f 02 76 3d 1a e3 95 bc
       0.110347405 -0.28873453 0.060060557 -0.018296767
0000a0 7b de 58 bd ea 10 52 3d 7c 35 6d 3e a5 3a 39 3e
       -0.05294655 0.05128566 0.23164934 0.18088777
0000b0 7b f2 89 bc 78 6b 0a 3e ba 3a 71 be 11 6c 91 3e
       -0.016839257 0.13517559 -0.23557559 0.2840276
0000c0 5d 2c e8 bd 79 07 39 bd 87 db a1 3d 55 62 08 bd
       -0.113365866 -0.045173142 0.079032 -0.0332969
0000d0 51 2b 05 3d d6 1c 2b be 73 a3 67 bc 4a b5 21 3d
       0.032512013 -0.16710219 -0.01413809 0.03947953
0000e0 f2 70 0f be 48 bd 83 3d 3e 54 cc 3c b0 52 fd 3d
       -0.14007929 0.06432587 0.024942514 0.12369287
0000f0 16 69 9c be da 37 dc bb 3b 8a 2f be 06 6c 8d 3d
       -0.30548924 -0.006720525 -0.17142574 0.069053695
000100 b2 5e 5c bd d3 eb e2 3d 21 3b 46 3d 69 02 d7 3d
       -0.053801246 0.11080136 0.048396233 0.104985066
000110 ee 29 1c 3e e3 d7 8d bd d0 76 76 3d 72 52 a3 be
       0.1525037 -0.06925943 0.060171902 -0.31898838
000120 21 3d 00 3e 1f bc 68 3d 58 c9 ed be ea fe ae 3d
       0.12523319 0.05682003 -0.46442676 0.08544715
000130 46 84 5f 3d c8 65 03 be 99 5d 1a 3d d8 f8 66 bc
       0.054569505 -0.12831795 0.037686918 -0.014097415
000140 bb a6 34 be 8a b2 4c 3d d0 fc 9b 3b 70 48 d4 bd
       -0.17641728 0.049974956 0.004760362 -0.10365379
000150 fc 85 1e be 4a 84 77 3e 5a 6b 08 bd 7c c6 95 bd
       -0.15480798 0.24171558 -0.033305503 -0.073132485
000160 8e 3f cc 3d ec 45 8b 3e 47 3d 47 3d 15 f9 32 bc
       0.099730596 0.27201784 0.048642423 -0.010923644
000170 23 6a 88 3d e0 d3 18 3e e3 73 b7 be 1d 0c 53 be
       0.06660869 0.14924574 -0.35830602 -0.2061009
000180 03 75 9d 3e 8c 29 cf bd 14 81 7f be ef 9c 03 3b
       0.30753335 -0.10115346 -0.24951583 0.0020082553
000190 e5 6d 90 be b6 c2 03 3c b7 35 a4 bc 81 0a 0f 3e
       -0.28208843 0.008042028 -0.020045144 0.1396885
0001a0 31 04 1e 3e 2c 50 fe 3d 3f 17 bb bc 96 73 db bc
       0.15431286 0.12417635 -0.022838233 -0.026788514
0001b0 bf ae c9 3d cc 7c 26 be ee 18 28 be d4 5e 01 bd
       0.09847783 -0.16258544 -0.1641576 -0.031584576
0001c0 8d 1f 3a bd bc 93 a3 bd 1b c7 72 bc cb b2 4b be
       -0.045440245 -0.079871625 -0.014817978 -0.19892423
0001d0 af 0f 17 be 22 ad 90 be 4f a2 38 3d 7b f4 e8 bc
       -0.14752077 -0.2825709 0.045076665 -0.02843689
0001e0 17 6f bb 3d 11 81 db 3d 6c c0 73 be a2 f5 29 be
       0.09152048 0.10717977 -0.23803872 -0.16597608
0001f0 47 ad 0d bd 37 d8 8a be f9 1a 48 bd 35 1b d9 bd
       -0.03458908 -0.27118084 -0.048853848 -0.106008925
000200 30 ec 01 bd 50 ea 0e be 8f 2f 50 be 2c 66 69 3e
       -0.031719387 -0.1395657 -0.20330642 0.22792882
000210 0e d7 34 be 68 c7 0d 3d ab d2 97 be 6d dc 04 be
       -0.17660162 0.034613997 -0.29652914 -0.12974711
000220 e8 fa 85 be 81 59 cd 3d 67 1a c2 bb bb d5 f6 bd
       -0.2616799 0.10026837 -0.0059235576 -0.120524846
000230 fb 70 d0 bd 82 60 44 3e e8 cf c2 bd 4c f5 0a be
       -0.10177799 0.1917744 -0.09512311 -0.13570136
000240 1e 44 b6 be 57 bb e3 bd 20 bc 97 3d eb 0c 16 be
       -0.35598844 -0.111197166 0.07408929 -0.14653365
000250 c2 9f b7 3d 70 57 32 3d 09 e9 d4 bd 5f 8b e7 3d
       0.08966018 0.04354042 -0.103960104 0.1130588
000260 8c 32 df bc 2c 15 01 3d 73 33 3d 3c 82 98 7f bb
       -0.027245782 0.03151433 0.011547911 -0.0039000814
000270 6b 96 57 bd 07 96 db bd 69 81 08 3e 66 2b b6 bd
       -0.052633684 -0.10721975 0.13330616 -0.08894996
000280 a4 ad a6 bd 43 3c 61 be 73 cc 22 be 6b bb 64 3b
       -0.08138588 -0.21995644 -0.15898304 0.003490175
000290 5d 40 da 3d 1f eb 2f be f1 05 c4 bd 21 1b ca 3d
       0.106568076 -0.17179535 -0.09571446 0.09868456
0002a0 fc 59 5f be a9 1c 7b 3d 96 ac 9b be 97 c3 a5 3c
       -0.2181167 0.06130663 -0.3040511 0.020234866
0002b0 1e 65 d2 bc dc 1c 3c 3e 4b c7 bb 3d 48 43 1d 3d
       -0.025682982 0.18370384 0.091688715 0.038394243
0002c0 3c cb 43 bd 12 ea 74 3d b2 a0 9f bd 27 2d 98 be
       -0.04780124 0.05979354 -0.07794322 -0.29721949
0002d0 8a 01 12 be 64 ff 48 bd 9f df c9 bd 0d 6a 0f be
       -0.142584 -0.049071684 -0.098571055 -0.14005299
0002e0 c7 8c 0a be 85 e1 bd 3d fe 7b 08 3d d9 b6 0e 3e
       -0.13530265 0.0927153 0.033321373 0.13936938
0002f0 4c 8a 9d bd 02 29 c3 3d 98 ee 2b 3e b8 8f dd 3c
       -0.07692394 0.09529306 0.16790235 0.02704607
000300 f3 c4 98 be d7 c5 23 3e 60 e0 79 be 52 f0 34 3d
       -0.2983776 0.15993439 -0.24401999 0.0441745
000310 b4 89 8b bc 9c 85 2d 3d 3c 80 c4 3d fc 80 9d be
       -0.017033435 0.042363748 0.09594771 -0.3076247
000320 7a 7f 10 be 28 94 91 be f6 5d 62 bd ab d3 19 3e
       -0.14111128 -0.28433347 -0.05526539 0.15022151
000330 80 ec 19 3d b7 51 b3 bb 7f 9f 02 be 20 28 2b bd
       0.03757906 -0.0054723877 -0.12756155 -0.041786313
000340 1b fd df be f4 60 a7 be 19 cf b3 3d dd 97 9b bc
       -0.43747792 -0.32691157 0.08779735 -0.018993312
000350 de 55 8b 3d 46 18 cc be b7 f1 45 be c1 21 bf bb
       0.06803487 -0.3986227 -0.19330488 -0.005832881
000360 aa 82 87 bc 59 7a 4d be 01 40 e7 bc f8 ae a2 3b
       -0.016541798 -0.20066203 -0.028228762 0.0049647056
000370 17 6c 02 bc de fc ac 3d 28 08 91 bd 6b fe cc bd
       -0.007960341 0.08446668 -0.07081634 -0.10009464
000380 ea 17 db 3c a1 64 6a be 97 71 8e 3d 66 80 89 be
       0.026744802 -0.2288995 0.06955259 -0.26855773
000390 ec 30 13 3e ab 02 4d 3d 4b 93 0e bd 0e bb 85 3c
       0.14374131 0.050051372 -0.03480844 0.016324546
0003a0 08 89 2e be 70 c0 a4 bd 67 4d 45 be e9 96 ec bc
       -0.17044461 -0.08044517 -0.19267808 -0.028880553
0003b0 e1 b3 de bd c1 51 2c bb b5 f7 2a 3d d7 71 a4 bd
       -0.10874153 -0.0026293846 0.041740138 -0.08029526
0003c0 73 25 9d bd 84 5d 40 bd a9 e4 89 3e 2b b4 a8 be
       -0.076731585 -0.046964183 0.26932266 -0.32949957
0003d0 f9 bd 28 3d 8c b7 8a be cc 83 0c be 13 b3 a9 be
       0.041196797 -0.2709316 -0.13722152 -0.33144435
0003e0 d9 3d ea bb d2 06 9c bd e8 43 d8 bc 5c 85 69 be
       -0.007148486 -0.07618488 -0.026399568 -0.22804779
0003f0 f3 cf 1f 3b d8 d7 9a 3c 9a f3 ca 3c 5d 21 46 bd
       0.0024385422 0.01890175 0.024774361 -0.04837166

net_container.2.bias f4 [64]
000000 1d 8c bc be 0b 03 4c be b4 53 5a be 82 ca 20 be
       -0.36825648 -0.19923036 -0.21320993 -0.1570225
000010 e1 34 61 be c7 a5 06 be 83 19 6a be 81 0c e0 3c
       -0.21992828 -0.13149177 -0.22861294 0.027349712
000020 9a fd b9 be 8d b9 00 3e 75 a1 99 bd 4d e6 7c 3d
       -0.36326295 0.12570782 -0.075014986 0.06174307
000030 47 ad b9 be 54 40 9a bd 61 51 b7 be 4d c8 83 3e
       -0.36265013 -0.07531801 -0.35804275 0.25738755
000040 aa c7 ba 3d 8e af 8b be 91 03 cb 3c 1f 90 5b be
       0.09120114 -0.27282375 0.024781974 -0.21441697
000050 65 1c 83 be 9e b2 72 be 4f 1a fd bc 02 ac 2f 3e
       -0.256076 -0.2370095 -0.030896334 0.1715546
000060 a2 59 97 3d 68 16 77 3d ba b2 15 be ef 27 3c bd
       0.07390143 0.060324103 -0.1461896 -0.04593652
000070 a0 88 b9 3c 03 00 04 3d ef 60 9e bd 84 3f 4d be
       0.022648156 0.032226574 -0.07733332 -0.2004376
000080 b2 07 0f 3e b0 93 2e 3e bb 87 b3 3d bd c6 03 3e
       0.1396778 0.17048526 0.08766123 0.12868781
000090 78 3c f0 be e7 93 9f be f3 0f c9 bd d1 0e 05 be
       -0.46921134 -0.31167528 -0.09817495 -0.12993933
0000a0 09 43 82 3d e5 74 e7 bd f6 45 88 be 37 20 3f 3e
       0.06360442 -0.11301593 -0.26615876 0.18664633
0000b0 5b a1 c3 be c3 61 ce bc 85 3d 45 be b5 91 86 3e
       -0.38209042 -0.0251931 -0.19261749 0.2628304
0000c0 60 13 5e be bb b6 52 3e ef b7 12 3d 5f dc de bc
       -0.21687078 0.20577519 0.035819944 -0.02720469
0000d0 d2 31 87 3e 51 56 9e be fd 3e 5c be 53 d9 11 3e
       0.26405197 -0.3092523 -0.21508403 0.14243059
0000e0 7f 20 d5 be 6b 28 90 bd 9e da aa bd 4c cc b4 bc
       -0.41626355 -0.07038959 -0.08342479 -0.022070073
0000f0 0e 66 15 be fb 8b ee be dd d3 c8 be d7 ba 81 bc
       -0.14589712 -0.46591172 -0.3922414 -0.015836162

policy_layer.weight f4 [7, 64]
000000 1a 64 8e 3e 7f 31 50 bc f2 c4 dc bd db d4 0c be
       0.27810746 -0.012707113 -0.10779752 -0.13753073
000010 85 b0 4e bd 1a 88 c2 bc 21 e8 77 bd 5c a3 37 3d
       -0.05046131 -0.023746539 -0.06052411 0.044833526
000020 85 e6 4d bd 40 16 14 3e fe 40 4b 3e 3a ed e4 3d
       -0.05026867 0.14461613 0.19849011 0.1117806
000030 08 f6 7c bd 86 b9 77 be 49 9c fa 3c 7d 7a 40 bd
       -0.06175807 -0.24191865 0.0305921 -0.046991814
000040 38 02 97 bd 74 de a1 bd 1c f8 35 3d bd 26 19 3e
       -0.0737347 -0.07903758 0.04442607 0.14956184
000050 42 fc cf bd ff 6f bd bd 6f 8f d8 3d 70 0d b0 3c
       -0.10155536 -0.09249877 0.10574233 0.021490782
000060 18 ea 9d 3d f1 6f 90 be c9 02 38 be 3f 3d 42 ba
       0.077106655 -0.28210405 -0.17969812 -0.0007409639
000070 b9 2e 48 be 48 8b b9 3d 99 9e 10 bd 9e b7 bf bc
       -0.19549073 0.09059769 -0.0353075 -0.023402985
000080 94 08 e1 bc 3f fc 13 3e a8 ce 2b 3e f4 21 11 be
       -0.02746991 0.14451693 0.16778052 -0.14173108
000090 2f a0 15 3d 10 b7 3d 3d c4 39 cf bd ac 5a 9c be
       0.036529716 0.04631716 -0.1011844 -0.30537927
0000a0 b5 f9 03 3e 91 d2 10 be bb e2 3f bd 33 39 a0 bc
       0.12888224 -0.14142825 -0.046847086 -0.019558525
0000b0 2a 62 09 be 82 c6 16 be c0 f1 99 bd 52 db c6 3d
       -0.13416353 -0.14724162 -0.07516813 0.09709801
0000c0 3f 7e aa 3d d1 43 6a bc 81 2f 36 bd 3a 06 a0 3a
       0.08324861 -0.014298395 -0.044478897 0.0012208887
0000d0 bd 67 12 bd 73 c0 3e 3d db 01 20 3b fa a3 0c be
       -0.035743464 0.046570253 0.0024415168 -0.13734427
0000e0 61 38 92 3e 5c d7 0e 3e b7 6a 4e 3c 52 71 c3 bd
       0.2855864 0.1394934 0.012598685 -0.095430985
0000f0 c9 66 c3 bc 6a 24 02 bd ae 48 8b 3e 9e c5 2c be
       -0.023852723 -0.03177301 0.27203888 -0.1687226
000100 75 fd 5d bd 8c 0d 18 bd c8 c2 6d be f3 22 f5 bd
       -0.054196794 -0.037122294 -0.23218834 -0.11969557
000110 85 4e 00 be 32 7c f2 3c ec a0 99 3d 81 07 b7 bc
       -0.12529953 0.029600237 0.075013965 -0.022342445
000120 b7 e0 0d bd 9a 97 e6 3d 10 0d fd bc 76 f4 8c 3d
       -0.034638133 0.112593845 -0.030890018 0.06882565
000130 48 a9 24 bc 52 32 d1 3d 42 46 c4 3d 15 c8 4c bd
       -0.010050125 0.10214676 0.09583713 -0.0499955
000140 61 d1 de bc af 95 0e 3d 7d de 41 bd 34 23 87 bc
       -0.027199449 0.03481072 -0.047331322 -0.016496278
000150 16 1c 7b bd 16 20 3d be d0 cb 94 3d 3f 2c a8 3d
       -0.06130608 -0.18469271 0.07265437 0.08211564
000160 75 d6 6a 3d 8b 1f 96 bd 7b c2 8e 3d 6e 54 03 be
       0.05733343 -0.07330235 0.06970688 -0.12825176
000170 0f 00 b6 3c 27 54 71 3d fe 85 76 be 41 49 46 be
       0.022216825 0.058918145 -0.24074551 -0.19363882
000180 db a5 62 3d e2 81 dd 3d a8 d4 05 3e 94 ef 9a 3c
       0.055333953 0.10815789 0.13069403 0.018913068
000190 12 d9 21 bd 07 fd 6c bd f8 ef 63 3e 0c 92 a3 bc
       -0.039513655 -0.057858493 0.2225951 -0.019967102
0001a0 78 b7 3b 3e 2c 47 92 bc e9 24 fd 3d b2 1e 0e 3e
       0.18331707 -0.017856203 0.12360556 0.13878897
0001b0 3d 65 82 3d 2d 8c 12 3e 99 d2 13 3e 05 c9 76 3b
       0.06366966 0.14311285 0.14435805 0.0037656438
0001c0 23 a7 10 bc 91 df 86 3d 24 67 a9 3d 06 68 df 3b
       -0.008828911 0.06585611 0.08271626 0.0068178205
0001d0 85 ac 52 bd ef b5 ae bd fa 27 c1 bc d2 4d 0b 3e
       -0.05143406 -0.08530795 -0.023578633 0.13603905
0001e0 89 64 0a be 2a 0b 4b bd dc 1c c8 bc 3a 2a da 3c
       -0.13514914 -0.049571194 -0.024427824 0.026631463
0001f0 c1 af c1 bc c6 c3 aa 3c c5 94 3d be 8c 40 5d bd
       -0.023643376 0.020845305 -0.18513782 -0.054016635
000200 f7 35 8c 3e 6a 3a be 3d f0 24 84 bc bf a6 e8 bd
       0.27384922 0.09288485 -0.016130894 -0.11359929
000210 f2 28 09 3d 08 8f 1f bd 09 5e 73 3c 36 a7 d6 3d
       0.033486314 -0.038954765 0.014853963 0.10481112
000220 e8 dd 35 3d 55 a8 88 3c c1 29 3b 3e 6e c7 a6 bc
       0.04440108 0.01668183 0.18277647 -0.020358767
000230 40 b0 1d bc 0c d1 90 be 88 5f 8a bd 2a 24 19 be
       -0.009624541 -0.2828449 -0.067565024 -0.14955202
000240 2e 68 50 3d 1e e0 be bd a8 7d 30 be 47 0a 0f 3e
       0.050880603 -0.09320091 -0.17235434 0.13968764
000250 f1 4c 2f bd 36 4d 19 3c 33 0e af bd 18 d3 ab 3c
       -0.042797986 0.009356787 -0.0854763 0.02097468
000260 e4 7f 3d ba f2 c1 e1 bd d9 1c 23 be ff e6 a6 3d
       -0.0007228835 -0.1102332 -0.15928973 0.08149528
000270 22 ad c1 3d a7 89 f5 bd c7 2a f9 ba 38 93 9a bd
       0.094568506 -0.11989146 -0.0019009941 -0.07547611
000280 1a c5 d8 bc 03 b1 8a 3d 3c 9b 3a 3e 9e 71 0f 3d
       -0.026461173 0.067720436 0.1822328 0.035020463
000290 6a ee 65 3d 93 b3 2b 3e b7 1b 25 bd d1 fa 8b be
       0.056135572 0.16767721 -0.040309634 -0.27339795
0002a0 df 4b 5b 3e d6 9d 36 bd c9 68 9b bb fd 42 1e 3e
       0.21415661 -0.044584118 -0.004742716 0.15455242
0002b0 c9 8d 2d be 13 18 ac 3c 58 14 66 3c 90 36 3f bd
       -0.16948618 0.021007573 0.014042936 -0.046682894
0002c0 81 22 09 be cf d9 23 bd 5d b1 65 3c ca ee 6e bd
       -0.13392068 -0.04000264 0.0140193375 -0.058333196
0002d0 69 ab 3f 3d fb 51 ab bd bc 3a 9d bd f1 0b df bd
       0.04679433 -0.08365246 -0.07677218 -0.108909495
0002e0 f4 16 31 3e a1 db 01 3e fb 2a ee 3c 2f be d3 bc
       0.17293912 0.12681438 0.029073229 -0.025847523
0002f0 c4 4e 9d bd 11 f7 3c ba 74 49 99 bd fd 63 fe bd
       -0.07681039 -0.00072084466 -0.07484713 -0.12421415
000300 87 07 84 bd b6 b0 87 3d 9a ef c2 3d 57 95 c4 bc
       -0.06446748 0.06625502 0.095183566 -0.023996992
000310 60 0d bf bd b8 4d 49 be 22 d4 9f be bc 06 a2 3b
       -0.09328723 -0.19658554 -0.31216532 0.0049446505
000320 f0 99 28 be e4 fa 2d bc da f5 70 3d aa 8d c1 3c
       -0.16464972 -0.010618899 0.058828212 0.023627121
000330 6e 96 e2 bd 22 23 10 be d4 7d 30 be 42 d0 ba 3c
       -0.110638484 -0.14075902 -0.172355 0.022804383
000340 77 91 06 3d ed d3 bd bc 61 08 16 3e 56 78 48 be
       0.03285357 -0.023172343 0.14651634 -0.19577155
000350 28 8c 7c bd 71 e9 4c bd 3d e7 b6 bb 48 41 e2 3d
       -0.0616571 -0.050027315 -0.005581765 0.11047608
000360 0f b2 a4 bd c4 25 22 be 00 a4 b4 be fd ff f4 bd
       -0.080417745 -0.15834719 -0.35281372 -0.119628884
000370 bc c6 d7 3c e5 7a 5b 3e ba f1 36 bc 22 cd 33 3e
       0.026339881 0.214336 -0.011166031 0.1755872
000380 e7 69 9e 3d fd f9 c5 3d 3a 69 ec bd b3 b5 0b 3d
       0.07735043 0.09666822 -0.11543508 0.03410883
000390 bb d6 81 bc bb 0e d4 bd 02 ae 4e 3d c0 c6 8d bc
       -0.015849462 -0.10354372 0.050458916 -0.017306685
0003a0 91 15 55 3d aa 5b ad bd c7 eb 41 be 8e 87 df ba
       0.05202252 -0.08464749 -0.18937598 -0.0017053948
0003b0 e1 95 da 3c ed 5e ec 3d cc 9e 37 bd e3 62 2e 3d
       0.026682796 0.11541543 -0.044829175 0.042574774
0003c0 2a 9e 29 3d 4c 04 f8 bc 99 34 30 3e 2a 55 7e 3d
       0.041410603 -0.030275486 0.17207564 0.062092938
0003d0 90 a9 90 3d 07 49 a3 bd 33 2e 76 3d c0 66 83 3d
       0.070635915 -0.07972913 0.060102653 0.064160824
0003e0 db 68 06 be bf ed a6 bd 70 a6 80 3d 59 93 2b bd
       -0.13125937 -0.08150815 0.062817454 -0.04188857
0003f0 21 f4 81 bd 76 c1 fc bd 50 6d 5b be e2 0e 9a ba
       -0.06345392 -0.12341587 -0.21428418 -0.0011753703

policy_layer.bias f4 [7]
000000 27 3f 68 3d 3e 2b 70 3d 27 b8 2d bd 69 51 90 3e
       0.05670085 0.05863499 -0.04241195 0.2818711
000010 fc 56 2b bd 33 c7 d2 bd 35 a6 3e 3d
       -0.041831 -0.102919005 0.046545226

value_layer.weight f4 [1, 64]
000000 99 94 14 bc 42 e6 d4 bb f1 98 67 bc 1d 73 1d bd
       -0.009068632 -0.0064971754 -0.014135585 -0.03843986
000010 37 09 28 3d c7 37 c7 bd b2 61 3f 3d de b3 3b bb
       0.041024413 -0.097274356 0.04672403 -0.0028641145
000020 26 dd 0b be 87 1d 11 bc 6e 7a a1 3d a3 ff e3 bc
       -0.1365858 -0.0088571375 0.0788468 -0.027831858
000030 78 fc ba bd 6f e9 37 3d b7 46 61 bc 8c be 98 39
       -0.09130186 0.044900354 -0.01374977 0.00029133668
000040 e6 94 f3 bd c4 46 bf bc 93 13 96 3b d8 9f a2 bc
       -0.118936345 -0.023349173 0.00457997 -0.01985161
000050 fb d2 14 39 49 f8 55 3d bc 2f 04 3c f0 79 f1 bb
       0.00014192976 0.052238736 0.008068021 -0.0073692724
000060 77 55 fb 3c 99 03 28 bd e8 c2 be bc 07 3b e1 3b
       0.030680401 -0.041019056 -0.023286298 0.0068734917
000070 e7 0e 39 3b 6d 07 11 ba 6f b8 13 bc f2 c3 b2 3c
       0.0028237642 -0.00055324176 -0.00901614 0.02182195
000080 40 d3 e6 bc 44 a8 9e 3b 57 c8 13 3d 74 3b 51 3c
       -0.028176904 0.004841836 0.03607973 0.012770522
000090 f2 90 e3 bb 25 bf 27 be 56 e6 c3 bc 1a d3 8a bd
       -0.006944769 -0.1638151 -0.023913544 -0.06778546
0000a0 05 08 76 3c 19 c9 8c 3c f9 c0 07 be 9e 4e 04 3e
       0.01501656 0.017185735 -0.13257207 0.12920615
0000b0 86 24 8a 3b 85 4a eb 3b 0f dd 83 bc 37 b8 cc 3b
       0.0042157797 0.0071805143 -0.01609662 0.006247546
0000c0 2c 32 e1 3d 55 1e 14 3d 2c bb 94 bc 1b ae 91 bc
       0.10995898 0.03616174 -0.018155657 -0.017783215
0000d0 11 37 91 3d 0f ab 2e bd cd f8 a3 bc 12 51 6e bb
       0.07090581 -0.042643603 -0.020016098 -0.003636424
0000e0 27 78 d1 bc e1 c7 7a bd 56 71 b2 b9 5b 41 52 bc
       -0.025569988 -0.061225776 -0.00034035248 -0.012832965
0000f0 a9 e7 39 3c 82 9d bd bd e4 ee cc bc 1a cf a2 3c
       0.011346736 -0.09258558 -0.025016256 0.019874144

log_std_parameter f4 [7]
000000 d1 76 df bf 9f a0 ee bf c4 11 f3 bf ac 99 00 c0
       -1.7458135 -1.8642768 -1.8989797 -2.0093794
000010 a0 a2 ea bf 55 98 ea bf bf 21 d7 bf
       -1.8330879 -1.8327738 -1.6807173

net_container.0.weight f4 [64, 32]
000000 ea de cb be 47 44 15 3e 8e 3d bd be 3f 00 10 be
       -0.39818507 0.14576827 -0.36961025 -0.14062594
000010 c8 e4 7e 3d 7b c5 82 bd 64 b8 87 3e 4f 31 dc bc
       0.0622299 -0.06385323 0.26507866 -0.02687898
000020 4a a4 0a 3d 37 09 3b be da e1 20 3e 58 ca 7f be
       0.033848085 -0.18265234 0.15711156 -0.24979532
000030 ae 36 33 3c fc f0 56 3d fc be 1f 3b 9a 9a 2e be
       0.01093833 0.052475914 0.002437531 -0.17051163
000040 a0 38 05 3e 06 cf 05 bd 0f 79 aa 3e 12 1a 3c 3e
       0.13009882 -0.032668136 0.33295485 0.1836932
000050 cf 13 c8 3d 4f 07 ba 3e fe ce 7d be cf 7c 88 be
       0.09769403 0.363337 -0.24785993 -0.2665772
000060 99 ba 3a be e9 82 43 bd e4 79 a1 3d e9 49 9a 3c
       -0.18235244 -0.047732268 0.07884577 0.018834071
000070 4d e1 83 3d 6b 8c cc bd c9 54 89 bd d9 c6 2c be
       0.06439457 -0.0998772 -0.067056246 -0.1687273
000080 2e 77 bb bd 80 0e 6b be da a8 6e be cf 62 70 be
       -0.09153591 -0.2295475 -0.233066 -0.23475192
000090 3b f9 64 bd c5 50 d2 bc ab ea 1a be 2d 6c ce 3c
       -0.055901747 -0.02567328 -0.15128581 0.025198067
0000a0 dc e2 bc 3c 34 14 1b bd ab 75 f8 bd 80 f9 3d 3c
       0.023057394 -0.037861064 -0.121318184 0.01159513
0000b0 03 3d 8b 3d 3c 5c ba 3d fc 0a e5 bd 83 c8 1b be
       0.067987464 0.090996236 -0.11183736 -0.15213208
0000c0 a6 ae 70 bd 6f cd b7 bd 8d 43 fc bd 27 e5 97 3d
       -0.058760308 -0.0897473 -0.12317572 0.07416754
0000d0 fa 1a bf be 02 a4 d5 be ee 8d 09 bf 1e 37 bb 3e
       -0.3732527 -0.4172669 -0.5373219 0.3656549
0000e0 5c b2 1f bf 5d ba 83 3e 89 3c 29 bd c7 98 03 bd
       -0.6238153 0.2572812 -0.041317496 -0.03212812
0000f0 2f 23 a8 bd c7 a7 de bd 5b c4 98 3d 80 b8 33 bd
       -0.08209836 -0.10871845 0.07459327 -0.043877125
000100 a3 4f 5e be a4 b8 29 be c6 59 7b be 92 ff 5d 3e
       -0.21710066 -0.16574341 -0.24545965 0.21679524
000110 80 ba e8 bc e9 9b 05 3e d5 5c 22 3e 1c 39 ed 3d
       -0.028409243 0.13047756 0.15855725 0.115831584
000120 2c a5 64 bc 6c 32 ab bd 8b 3e 57 be 3f 22 e5 3d
       -0.013955396 -0.083592266 -0.21019952 0.111881725
000130 8d ba 15 3e c4 e5 74 bd 0f 8c 3f bd cb e5 c8 bb
       0.14621945 -0.059789434 -0.04676443 -0.006130909
000140 e3 06 c6 3d da ce a7 bc 79 a8 8a 3e 49 aa f5 3e
       0.09669282 -0.020484377 0.2708166 0.4798148
000150 e0 57 0c bf df 93 8b be 27 15 84 ba 5a b4 0d 3e
       -0.54821587 -0.27261254 -0.0010077105 0.1383833
000160 0f 1a 97 bd 9a 2c d8 bc 9a ca 99 bd ff 74 26 3d
       -0.07378017 -0.026388455 -0.07509346 0.04063892
000170 9a b8 99 bd 38 0b e5 3d f2 b3 a4 bd 0a ef 83 3c
       -0.07505913 0.111837804 -0.08042134 0.016105194
000180 2a 37 c8 3d 6d e2 d4 bd fc c9 c2 bd d9 09 40 be
       0.09776147 -0.1039475 -0.09511182 -0.18753757
000190 cf bf 18 3e b9 d5 33 3e b5 53 e3 bd 51 d5 0d bb
       0.14916919 0.17561997 -0.1109995 -0.002164204
0001a0 0c ed de 3c 9e 20 77 bc f8 75 be 3d 6d cc d0 3c
       0.027212642 -0.01508346 0.092998445 0.025488103
0001b0 6f 9e 6c bd e5 37 bb bd 51 b1 65 bc f2 24 7a 3d
       -0.05776828 -0.091415204 -0.014019326 0.06107039
0001c0 0e d9 91 3d 1b 3d 8d bc 20 10 da be 2e 60 43 be
       0.07121478 -0.017241051 -0.42590427 -0.19079658
0001d0 5b c7 1e 3f 83 62 ca be 62 4b a2 3e a5 9a 98 3e
       0.6202294 -0.39528283 0.31698138 0.29805484
0001e0 31 d2 ad 3e 81 ab 06 be d7 ed 27 be 81 aa 12 be
       0.33949426 -0.13151361 -0.16399322 -0.14322855
0001f0 af c4 7b 3d 6b 6a 1d 3e c2 26 fc bb 6f cb 0d bd
       0.06146687 0.15372626 -0.00769505 -0.034617838
000200 d6 12 02 be 85 48 43 be d0 a3 a0 bc 84 9b 02 be
       -0.12702498 -0.19070633 -0.019609362 -0.12754637
000210 89 7e ee bd 85 7d 13 bb 86 42 4b bd e2 d2 2c bd
       -0.116452284 -0.0022505235 -0.04962399 -0.0421933
000220 be 1d 34 3d 5d 6a 73 bd a9 69 9b bc 63 46 17 bc
       0.043973677 -0.059427608 -0.018971281 -0.00923309
000230 14 70 4f be f4 5b 63 3d 09 ce 47 bc d6 7f 52 3c
       -0.20257598 0.055507615 -0.012195119 0.012847861
000240 b3 ab 9b bd 02 60 18 be 05 a8 cc 3e 47 2e 10 be
       -0.076011084 -0.14880374 0.3997194 -0.14080153
000250 1b 2d 0f 3f 70 a1 d4 be e6 3c d5 be 9b 22 0a 3f
       0.559282 -0.41529417 -0.41648024 0.53959054
000260 b2 2d 01 bf 43 26 a3 3c 4a 12 f7 3c 2e 6e 33 bc
       -0.5046035 0.019915706 0.030160088 -0.010951562
000270 71 00 37 3e 12 e5 25 3d 9c a9 43 bd a2 f2 59 be
       0.17871262 0.04050166 -0.047769174 -0.21283963
000280 90 12 34 be a6 b4 bf be 44 84 7e 3d 9e 33 18 3c
       -0.17585206 -0.3744251 0.062137857 0.00928965
000290 a0 24 bb 3d ea c3 7a be d0 95 37 be b4 60 b7 3d
       0.09137845 -0.24488798 -0.17928243 0.089539915
0002a0 72 a1 1b bd 78 2d 01 bd 69 be 29 be d2 e4 69 3d
       -0.037995763 -0.031537503 -0.16576542 0.057102986
0002b0 6f 1d c1 3d f7 64 a0 3d ef 4d df 3c d5 dd b2 bd
       0.09429442 0.078317575 0.027258841 -0.08733717
0002c0 2c e7 fa 3c d0 91 9a 3d db b8 93 3e d8 05 52 3d
       0.03062781 0.07547343 0.2885197 0.051275104
0002d0 b5 1a 94 bd 11 de 1f 3e 41 c4 14 3d 93 60 21 bc
       -0.072316565 0.15612055 0.036319975 -0.009849685
0002e0 10 0c ff 3c 8c 88 31 3d 56 cc b5 3c ee 0f d7 3c
       0.031133682 0.043343112 0.022192162 0.026252713
0002f0 d2 de c7 bd 74 b7 ce bd 43 67 f3 bd 2a 58 c5 3d
       -0.097592965 -0.10093585 -0.1188493 0.096359566
000300 fd c2 72 bb 79 77 83 be ed 55 83 3d 39 ac 50 3d
       -0.0037042492 -0.25677088 0.064128734 0.050945494
000310 9f a6 42 bb e4 d1 9d 3e 8e 3d 86 be 7f 87 b7 bd
       -0.0029701365 0.30824196 -0.26218837 -0.08961391
000320 b1 c1 35 3d 4c f4 13 be 40 c7 0d 3e ad d6 07 be
       0.04437417 -0.1444866 0.13845539 -0.13265486
000330 3f cd 03 be 59 58 c7 3d b7 0e b1 3d 8b 1d 2a 3e
       -0.12871264 0.09733648 0.08645385 0.16612832
000340 67 7e e1 bd 07 a6 42 bd 06 6c d1 bc 33 da 1a 3e
       -0.110104375 -0.047521617 -0.025564205 0.15122299
000350 77 4a 24 bf 81 ae 9d be b8 14 13 bf a3 3d af 3e
       -0.64176124 -0.30797198 -0.5745349 0.34226713
000360 36 83 c4 be 4d e6 ce bd 52 7b 73 bb cb 25 a0 bb
       -0.38381356 -0.1010252 -0.0037152362 -0.004887318
000370 9c f6 a9 3c a1 2f a8 3d f1 f9 e5 bd 1e e8 1a 3d
       0.020747475 0.082122095 -0.11229313 0.03781902
000380 df 66 9e be 49 37 b5 be 2d 27 06 bf ad e0 d0 3c
       -0.3093786 -0.35393742 -0.5240353 0.025497759
000390 62 2d 45 3e 7d d8 24 3e b9 92 aa 3e 4d 16 90 3c
       0.19255593 0.16098209 0.33315066 0.017588759
0003a0 05 65 06 bd 9d b1 49 be 0d 6e 8e be 0f 70 f7 bd
       -0.032811183 -0.1969666 -0.27818337 -0.1208192
0003b0 ee 2a 8d bd 6c de 00 bd 5a c0 5a 3c 4c 9a 96 bc
       -0.06892954 -0.031462118 0.013351524 -0.018384121
0003c0 f4 f7 c3 bd 39 4b 11 3e 1f 5a a4 3e 6f 65 1f 3e
       -0.09568778 0.14188851 0.32100007 0.15566038
0003d0 ea 41 df 3d 9f 24 63 bd e4 bb 6b bf 51 92 23 be
       0.10901244 -0.055454846 -0.92083573 -0.15973784
0003e0 62 c0 68 bf 79 70 aa 3d cb 37 0b 3e 47 af 04 3d
       -0.9091855 0.08322234 0.13595502 0.03239372
0003f0 25 2d 94 bd 17 00 f1 3d 92 fb 96 bd 98 40 a1 3e
       -0.07235173 0.11767595 -0.07372202 0.31494594

net_container.0.bias f4 [64]
000000 1d 3f 12 3e ca 60 5d 3e c5 05 7b 3e 91 cb 82 3e
       0.14281888 0.21618953 0.2451392 0.25545934
000010 83 6e 22 bc af 23 dd 3d 53 97 65 3e 24 9f 1d be
       -0.009914043 0.10797822 0.22421007 -0.15392739
000020 bf 48 23 3e f1 a3 ad be 63 e9 59 bd a5 a3 58 3e
       0.15945719 -0.3391414 -0.05320109 0.21156175
000030 e6 97 82 be 03 c1 96 be bf f6 34 3e 95 91 4c bd
       -0.25506514 -0.2944413 0.17672251 -0.049943525
000040 f4 24 16 be cf 6d 94 be c8 11 5b 3d 8b 86 4e be
       -0.14662534 -0.28990027 0.053483754 -0.20168512
000050 2f 78 b0 be af 31 2c be f4 f4 5d 3d fe a8 b3 3d
       -0.34466693 -0.16815828 0.054188684 0.08772467
000060 73 a1 f4 3d dd 6e 00 bf 50 d0 2e 3e c9 fd c1 3e
       0.119448565 -0.50169164 0.17071652 0.37888935
000070 ee d5 2b be 76 12 27 bd 43 24 97 3c 2c 47 6a be
       -0.16780826 -0.04078909 0.018449908 -0.22878712
000080 b1 fa 85 be d8 00 48 be 39 96 57 be 4b 88 65 be
       -0.26167825 -0.19531572 -0.21053399 -0.22415273
000090 57 89 c9 bd 50 60 b3 be 37 7c cb 3c f5 d4 a2 3e
       -0.098406486 -0.35034418 0.024839504 0.31803098
0000a0 44 84 86 3e 11 4b a0 3e 23 4c e4 be ed 7e 97 be
       0.26272786 0.3130727 -0.44589338 -0.29589024
0000b0 a0 45 35 be ea b5 9f be 8f e9 f0 3d 73 25 14 be
       -0.17702341 -0.31193477 0.11763298 -0.1446741
0000c0 61 7c e2 be 8f 30 fd bc 20 4c 02 be f5 24 cd 3d
       -0.4423552 -0.030906944 -0.12724352 0.100168146
0000d0 67 21 5d be d7 f0 0b be d0 94 8f be d1 5d 95 bd
       -0.21594773 -0.13666092 -0.28043222 -0.07293285
0000e0 ef ca 90 bc e0 64 86 be 71 f8 c9 be af 55 96 be
       -0.017674891 -0.26248837 -0.39447358 -0.29362246
0000f0 52 ea c8 3b 31 21 b2 be f3 62 10 3d 0a 7f 82 be
       0.006131449 -0.34790948 0.035250615 -0.25487548

net_container.2.weight f4 [64, 64]
000000 a3 09 0c 3e 61 24 3a be 6f 15 95 3a c6 38 83 bd
       0.13675551 -0.1817794 0.0011374186 -0.06407313
000010 f6 12 44 be 66 5c 4d bd b7 c7 1d bd a6 43 41 3e
       -0.19147858 -0.050136946 -0.03852054 0.18873462
000020 82 5c 16 bd 62 2c 8b 3e 22 d9 ec 3d 67 95 6c 3e
       -0.036709316 0.271823 0.11564852 0.23103867
000030 69 4e d0 3d 76 98 e0 bc ad 49 5e 3e b8 ad 80 be
       0.101712056 -0.027416449 0.21707793 -0.25132537
000040 fe de 61 3c 6e ef 9c bd c8 31 57 bd 72 38 75 bc
       0.013786076 -0.07662855 -0.05253771 -0.014967071
000050 c2 21 f7 bc 14 d9 8c 3c fd 5e 19 be c1 cd 74 be
       -0.030167464 0.017193355 -0.14977641 -0.23906614
000060 23 4e 8c 3e 72 5a be 3d 3b f6 a5 be 77 c7 0a be
       0.27403364 0.09294595 -0.3241442 -0.13552652
000070 ad ec e4 bc 21 10 5a be 70 b2 d6 bd 51 80 02 bf
       -0.027944887 -0.21295215 -0.10483253 -0.50977045
000080 a2 0d 40 be 07 f9 c7 3e 44 e5 37 3d 8d 26 10 3e
       -0.187552 0.3905718 0.04489638 0.14077206
000090 d2 fd e1 3d 03 d5 93 be 0f 02 76 3d 1a e3 95 bc
       0.110347405 -0.28873453 0.060060557 -0.018296767
0000a0 7b de 58 bd ea 10 52 3d 7c 35 6d 3e a5 3a 39 3e
       -0.05294655 0.05128566 0.23164934 0.18088777
0000b0 7b f2 89 bc 78 6b 0a 3e ba 3a 71 be 11 6c 91 3e
       -0.016839257 0.13517559 -0.23557559 0.2840276
0000c0 5d 2c e8 bd 79 07 39 bd 87 db a1 3d 55 62 08 bd
       -0.113365866 -0.045173142 0.079032 -0.0332969
0000d0 51 2b 05 3d d6 1c 2b be 73 a3 67 bc 4a b5 21 3d
       0.032512013 -0.16710219 -0.01413809 0.03947953
0000e0 f2 70 0f be 48 bd 83 3d 3e 54 cc 3c b0 52 fd 3d
       -0.14007929 0.06432587 0.024942514 0.12369287
0000f0 16 69 9c be da 37 dc bb 3b 8a 2f be 06 6c 8d 3d
       -0.30548924 -0.006720525 -0.17142574 0.069053695
000100 b2 5e 5c bd d3 eb e2 3d 21 3b 46 3d 69 02 d7 3d
       -0.053801246 0.11080136 0.048396233 0.104985066
000110 ee 29 1c 3e e3 d7 8d bd d0 76 76 3d 72 52 a3 be
       0.1525037 -0.06925943 0.060171902 -0.31898838
000120 21 3d 00 3e 1f bc 68 3d 58 c9 ed be ea fe ae 3d
       0.12523319 0.05682003 -0.46442676 0.08544715
000130 46 84 5f 3d c8 65 03 be 99 5d 1a 3d d8 f8 66 bc
       0.054569505 -0.12831795 0.037686918 -0.014097415
000140 bb a6 34 be 8a b2 4c 3d d0 fc 9b 3b 70 48 d4 bd
       -0.17641728 0.049974956 0.004760362 -0.10365379
000150 fc 85 1e be 4a 84 77 3e 5a 6b 08 bd 7c c6 95 bd
       -0.15480798 0.24171558 -0.033305503 -0.073132485
000160 8e 3f cc 3d ec 45 8b 3e 47 3d 47 3d 15 f9 32 bc
       0.099730596 0.27201784 0.048642423 -0.010923644
000170 23 6a 88 3d e0 d3 18 3e e3 73 b7 be 1d 0c 53 be
       0.06660869 0.14924574 -0.35830602 -0.2061009
000180 03 75 9d 3e 8c 29 cf bd 14 81 7f be ef 9c 03 3b
       0.30753335 -0.10115346 -0.24951583 0.0020082553
000190 e5 6d 90 be b6 c2 03 3c b7 35 a4 bc 81 0a 0f 3e
       -0.28208843 0.008042028 -0.020045144 0.1396885
0001a0 31 04 1e 3e 2c 50 fe 3d 3f 17 bb bc 96 73 db bc
       0.15431286 0.12417635 -0.022838233 -0.026788514
0001b0 bf ae c9 3d cc 7c 26 be ee 18 28 be d4 5e 01 bd
       0.09847783 -0.16258544 -0.1641576 -0.031584576
0001c0 8d 1f 3a bd bc 93 a3 bd 1b c7 72 bc cb b2 4b be
       -0.045440245 -0.079871625 -0.014817978 -0.19892423
0001d0 af 0f 17 be 22 ad 90 be 4f a2 38 3d 7b f4 e8 bc
       -0.14752077 -0.2825709 0.045076665 -0.02843689
0001e0 17 6f bb 3d 11 81 db 3d 6c c0 73 be a2 f5 29 be
       0.09152048 0.10717977 -0.23803872 -0.16597608
0001f0 47 ad 0d bd 37 d8 8a be f9 1a 48 bd 35 1b d9 bd
       -0.03458908 -0.27118084 -0.048853848 -0.106008925
000200 30 ec 01 bd 50 ea 0e be 8f 2f 50 be 2c 66 69 3e
       -0.031719387 -0.1395657 -0.20330642 0.22792882
000210 0e d7 34 be 68 c7 0d 3d ab d2 97 be 6d dc 04 be
       -0.17660162 0.034613997 -0.29652914 -0.12974711
000220 e8 fa 85 be 81 59 cd 3d 67 1a c2 bb bb d5 f6 bd
       -0.2616799 0.10026837 -0.0059235576 -0.120524846
000230 fb 70 d0 bd 82 60 44 3e e8 cf c2 bd 4c f5 0a be
       -0.10177799 0.1917744 -0.09512311 -0.13570136
000240 1e 44 b6 be 57 bb e3 bd 20 bc 97 3d eb 0c 16 be
       -0.35598844 -0.111197166 0.07408929 -0.14653365
000250 c2 9f b7 3d 70 57 32 3d 09 e9 d4 bd 5f 8b e7 3d
       0.08966018 0.04354042 -0.103960104 0.1130588
000260 8c 32 df bc 2c 15 01 3d 73 33 3d 3c 82 98 7f bb
       -0.027245782 0.03151433 0.011547911 -0.0039000814
000270 6b 96 57 bd 07 96 db bd 69 81 08 3e 66 2b b6 bd
       -0.052633684 -0.10721975 0.13330616 -0.08894996
000280 a4 ad a6 bd 43 3c 61 be 73 cc 22 be 6b bb 64 3b
       -0.08138588 -0.21995644 -0.15898304 0.003490175
000290 5d 40 da 3d 1f eb 2f be f1 05 c4 bd 21 1b ca 3d
       0.106568076 -0.17179535 -0.09571446 0.09868456
0002a0 fc 59 5f be a9 1c 7b 3d 96 ac 9b be 97 c3 a5 3c
       -0.2181167 0.06130663 -0.3040511 0.020234866
0002b0 1e 65 d2 bc dc 1c 3c 3e 4b c7 bb 3d 48 43 1d 3d
       -0.025682982 0.18370384 0.091688715 0.038394243
0002c0 3c cb 43 bd 12 ea 74 3d b2 a0 9f bd 27 2d 98 be
       -0.04780124 0.05979354 -0.07794322 -0.29721949
0002d0 8a 01 12 be 64 ff 48 bd 9f df c9 bd 0d 6a 0f be
       -0.142584 -0.049071684 -0.098571055 -0.14005299
0002e0 c7 8c 0a be 85 e1 bd 3d fe 7b 08 3d d9 b6 0e 3e
       -0.13530265 0.0927153 0.033321373 0.13936938
0002f0 4c 8a 9d bd 02 29 c3 3d 98 ee 2b 3e b8 8f dd 3c
       -0.07692394 0.09529306 0.16790235 0.02704607
000300 f3 c4 98 be d7 c5 23 3e 60 e0 79 be 52 f0 34 3d
       -0.2983776 0.15993439 -0.24401999 0.0441745
000310 b4 89 8b bc 9c 85 2d 3d 3c 80 c4 3d fc 80 9d be
       -0.017033435 0.042363748 0.09594771 -0.3076247
000320 7a 7f 10 be 28 94 91 be f6 5d 62 bd ab d3 19 3e
       -0.14111128 -0.28433347 -0.05526539 0.15022151
000330 80 ec 19 3d b7 51 b3 bb 7f 9f 02 be 20 28 2b bd
       0.03757906 -0.0054723877 -0.12756155 -0.041786313
000340 1b fd df be f4 60 a7 be 19 cf b3 3d dd 97 9b bc
       -0.43747792 -0.32691157 0.08779735 -0.018993312
000350 de 55 8b 3d 46 18 cc be b7 f1 45 be c1 21 bf bb
       0.06803487 -0.3986227 -0.19330488 -0.005832881
000360 aa 82 87 bc 59 7a 4d be 01 40 e7 bc f8 ae a2 3b
       -0.016541798 -0.20066203 -0.028228762 0.0049647056
000370 17 6c 02 bc de fc ac 3d 28 08 91 bd 6b fe cc bd
       -0.007960341 0.08446668 -0.07081634 -0.10009464
000380 ea 17 db 3c a1 64 6a be 97 71 8e 3d 66 80 89 be
       0.026744802 -0.2288995 0.06955259 -0.26855773
000390 ec 30 13 3e ab 02 4d 3d 4b 93 0e bd 0e bb 85 3c
       0.14374131 0.050051372 -0.03480844 0.016324546
0003a0 08 89 2e be 70 c0 a4 bd 67 4d 45 be e9 96 ec bc
       -0.17044461 -0.08044517 -0.19267808 -0.028880553
0003b0 e1 b3 de bd c1 51 2c bb b5 f7 2a 3d d7 71 a4 bd
       -0.10874153 -0.0026293846 0.041740138 -0.08029526
0003c0 73 25 9d bd 84 5d 40 bd a9 e4 89 3e 2b b4 a8 be
       -0.076731585 -0.046964183 0.26932266 -0.32949957
0003d0 f9 bd 28 3d 8c b7 8a be cc 83 0c be 13 b3 a9 be
       0.041196797 -0.2709316 -0.13722152 -0.33144435
0003e0 d9 3d ea bb d2 06 9c bd e8 43 d8 bc 5c 85 69 be
       -0.007148486 -0.07618488 -0.026399568 -0.22804779
0003f0 f3 cf 1f 3b d8 d7 9a 3c 9a f3 ca 3c 5d 21 46 bd
       0.0024385422 0.01890175 0.024774361 -0.04837166

net_container.2.bias f4 [64]
000000 1d 8c bc be 0b 03 4c be b4 53 5a be 82 ca 20 be
       -0.36825648 -0.19923036 -0.21320993 -0.1570225
000010 e1 34 61 be c7 a5 06 be 83 19 6a be 81 0c e0 3c
       -0.21992828 -0.13149177 -0.22861294 0.027349712
000020 9a fd b9 be 8d b9 00 3e 75 a1 99 bd 4d e6 7c 3d
       -0.36326295 0.12570782 -0.075014986 0.06174307
000030 47 ad b9 be 54 40 9a bd 61 51 b7 be 4d c8 83 3e
       -0.36265013 -0.07531801 -0.35804275 0.25738755
000040 aa c7 ba 3d 8e af 8b be 91 03 cb 3c 1f 90 5b be
       0.09120114 -0.27282375 0.024781974 -0.21441697
000050 65 1c 83 be 9e b2 72 be 4f 1a fd bc 02 ac 2f 3e
       -0.256076 -0.2370095 -0.030896334 0.1715546
000060 a2 59 97 3d 68 16 77 3d ba b2 15 be ef 27 3c bd
       0.07390143 0.060324103 -0.1461896 -0.04593652
000070 a0 88 b9 3c 03 00 04 3d ef 60 9e bd 84 3f 4d be
       0.022648156 0.032226574 -0.07733332 -0.2004376
000080 b2 07 0f 3e b0 93 2e 3e bb 87 b3 3d bd c6 03 3e
       0.1396778 0.17048526 0.08766123 0.12868781
000090 78 3c f0 be e7 93 9f be f3 0f c9 bd d1 0e 05 be
       -0.46921134 -0.31167528 -0.09817495 -0.12993933
0000a0 09 43 82 3d e5 74 e7 bd f6 45 88 be 37 20 3f 3e
       0.06360442 -0.11301593 -0.26615876 0.18664633
0000b0 5b a1 c3 be c3 61 ce bc 85 3d 45 be b5 91 86 3e
       -0.38209042 -0.0251931 -0.19261749 0.2628304
0000c0 60 13 5e be bb b6 52 3e ef b7 12 3d 5f dc de bc
       -0.21687078 0.20577519 0.035819944 -0.02720469
0000d0 d2 31 87 3e 51 56 9e be fd 3e 5c be 53 d9 11 3e
       0.26405197 -0.3092523 -0.21508403 0.14243059
0000e0 7f 20 d5 be 6b 28 90 bd 9e da aa bd 4c cc b4 bc
       -0.41626355 -0.07038959 -0.08342479 -0.022070073
0000f0 0e 66 15 be fb 8b ee be dd d3 c8 be d7 ba 81 bc
       -0.14589712 -0.46591172 -0.3922414 -0.015836162
