logs/skrl/reach_franka/2024-12-18_21-11-53_ppo_torch/checkpoints/agent_12000.pt (torch, 96272 bytes, 38 tensors)

log_std_parameter f4 [7]
00000000: 3160 13c0 2e07 14c0 2cd2 1cc0 2c2a 1cc0
00000010: bfb4 18c0 2ce1 1ec0 0958 0dc0
-2.302746 -2.3129382 -2.4503279 -2.440074 -2.3860319 -2.4824934 -2.2084982

net_container.0.weight f4 [64, 32]
00000000: 3276 cdbe 8bfc 1a3e a590 bfbe c5a0 0cbe
00000010: e44b 713d 35b8 72bd bc75 8d3e e737 b0bc
00000020: 3ff0 153d d0bb 24be 3769 1f3e 2c8d 83be
00000030: 9c2e 9e3c a275 353d dfda 1dbc 65da 2fbe
00000040: 050f 0a3e de2c 01bd cf9b aa3e 6aa0 273e
00000050: b451 b13d 3b80 b53e 8d41 72be ee33 84be
00000060: 9365 2ebe 9d73 32bd 62da a43d 5390 e83c
00000070: a2d7 873d fc5c d4bd 7b1d 84bd 2a21 24be
00000080: 339f b6bd a496 7cbe 2529 78be 3ad4 7fbe
00000090: b65a 3ebd aa49 fbbc 6e85 15be 7eeb 8d3c
000000a0: 1caa 833b 8d23 90bc 2d01 f7bd 2e3e 423b
000000b0: b835 6e3d 5461 bd3d 46ff c7bd 8111 0abe
000000c0: 6a2f 73bd bfc8 b3bd 2cb5 0bbe 6656 8b3d
000000d0: 9dd4 babe a494 ccbe f146 0dbf ec9a b23e
000000e0: 21a8 23bf 19bd 863e af7f 5cbd f87d 1dbd
000000f0: 0af2 cabd bbd3 c1bd 1150 943d 26bc 0abd
00000100: d1dc 5abe acf4 07be 34f7 82be ef30 753e
00000110: 1ba7 07bd 0ab6 f23d 42b5 2a3e 63d2 fe3d
00000120: 9096 b5bb fe24 bfbd 54f5 50be 26ab ff3d
00000130: 9003 0a3e 7988 45bd 2123 54bd 4ffe a8bc
00000140: 1a32 c23d fd95 7ebc 0333 943e 9d47 ee3e
00000150: 5b0a 0ebf 0336 8abe 3577 41bb 292d 0b3e
00000160: 545b 9bbd d95f abbc b20a 62bd 6bd0 173d
00000170: ec9e 84bd ed56 d73d 5cc5 b2bd 02ef b53c
00000180: ee82 cb3d 0796 1ebe 709a c1bd ac6b 66be
00000190: 5c92 133e b1e5 303e 6e3b e2bd 6833 473c
000001a0: aa73 d73c 77ea 54bc 0538 993d 770a eb3c
000001b0: d11b 65bd 8bfa acbd 4199 f6bc 380a 913d
000001c0: 2377 953d e308 efbc 54f7 e9be e9f3 3bbe
000001d0: 7da8 223f d544 cabe 50f3 993e f681 983e
000001e0: 9ff2 a43e ecf6 f2bd f903 38be f40d 10be
000001f0: fc0b 8b3c cc65 1c3e 39aa 91bc f584 ebbc
00000200: 6f61 05be 1e07 4abe 5975 85bc 9523 0dbe
00000210: 8afc fabd 0618 383c 1ef6 35bd 5b23 46bd
00000220: e87e 653d b037 89bd eb45 81bc e282 c53b
00000230: 0550 47be ef4f e53c ec09 9dbb 8f87 783c
00000240: 54b6 92bd 2ac9 12be 70a0 c63e eaf1 f8bd
00000250: 5a3b 113f c37e d3be cf56 d5be c59a 093f
00000260: 073c 01bf a771 ab3c 3ed1 043d 6b08 c437
00000270: 87c7 313e 0e52 0d3d 3369 06bd fb66 56be
00000280: 9a0e 41be 610c c9be 53cc 8f3d 992b 213b
00000290: 6be3 d83d 2fea 7ebe e05e 40be 516a 693d
000002a0: 35f8 b7bc 8bb4 6dbc 2feb 28be 4e32 853d
000002b0: ed27 b23d e56d 9f3d b446 9bbb 4564 a7bd
000002c0: bf47 2f3d 509c 4d3d 1cfb 883e 8af6 613d
000002d0: 14f3 84bd 76ba 0e3e 336d 0c3d 7d00 c73b
000002e0: f53c ed3c 8b03 133d 5dd6 d73b e932 303d
000002f0: 1d59 debd 34d1 afbd 01ba 03be 20f7 bc3d
00000300: 62ad 96ba 7bd1 75be c4da 633d 68b3 773d
00000310: fcc5 98bb c90c 9d3e 3fb4 85be e16b b2bd
00000320: 0a76 393d 0a1a 16be 5021 0e3e 8f6c 0abe
00000330: e352 0fbe aeea cd3d 0aac bc3d aab7 253e
00000340: 5999 e3bd 59b0 51bd e29f b3bc 1319 1a3e
00000350: d54d 23bf c95b 97be 5441 19bf a939 a93e
00000360: 25ae d1be 29de c5bd a6f0 023c 2b80 59bc
00000370: d313 cb3c 33e6 a33d 084a e8bd d8de 223d
00000380: 6f2f 9ebe eac2 b1be 8d32 08bf 8082 2e3c
00000390: 4a19 3f3e 0714 1f3e 1dd9 ae3e 2dc3 133c
000003a0: 544e eebc 0885 2cbe 0cdd 8dbe c6cc 17be
000003b0: 8017 bcbd dc1f e2bc 6842 193d 8801 56bc
000003c0: 6126 a0bd 858b 233e 477d a03e 4099 073e
000003d0: e208 b33d f28c 38bd 91dc 6bbf e5b0 2dbe
000003e0: 75e2 68bf b881 b53d 796b 163e 7906 033d
000003f0: e8fb aabd df1c e33d ae0a 98bd 04d3 a33e
-0.40129238 0.151354 -0.37415043 -0.13733204 0.058910266 -0.059257705 0.27628887 -0.021511031
0.03660607 -0.1608727 0.1556748 -0.25693643 0.019309334 0.044301637 -0.0096347025 -0.17173155
0.13482292 -0.03153693 0.33321998 0.16369787 0.08658162 0.35449395 -0.23657818 -0.2582087
-0.17030935 -0.04356729 0.08049466 0.028389132 0.066329256 -0.10369298 -0.064509355 -0.16028276
-0.089170836 -0.2466684 -0.24234445 -0.24983302 -0.046473227 -0.030674774 -0.1460168 0.017324205
0.0040180814 -0.017595077 -0.12060771 0.0029639113 0.0581567 0.092470795 -0.097654864 -0.1348324
-0.05937139 -0.08778524 -0.1364333 0.068035886 -0.36490336 -0.39957154 -0.55186373 0.3488382
-0.6392842 0.26316145 -0.053832706 -0.03845021 -0.099094465 -0.094642125 0.07241834 -0.03387084
-0.21373297 -0.13276929 -0.25579226 0.23944448 -0.03311835 0.118511274 0.16670707 0.12442472
-0.00554163 -0.093332276 -0.20406085 0.12483816 0.13477921 -0.048225854 -0.051791314 -0.020629076
0.09482212 -0.01553869 0.2894517 0.46539012 -0.5548455 -0.26994333 -0.0029520516 0.13591446
-0.07585779 -0.020919727 -0.05518598 0.037063997 -0.064756244 0.10514627 -0.087290496 0.022208694
0.09937082 -0.15486918 -0.09453285 -0.22502011 0.144113 0.1727512 -0.110464916 0.012158252
0.02630027 -0.012995354 0.07481388 0.028691513 -0.05593473 -0.08446225 -0.030102374 0.07082027
0.07298114 -0.029179042 -0.4569651 -0.18354763 0.6353834 -0.3950564 0.30068445 0.29786652
0.32216355 -0.11863503 -0.17970265 -0.14067823 0.016973488 0.15273207 -0.017781364 -0.028749922
-0.13025449 -0.19729277 -0.016291307 -0.13783105 -0.12255199 0.011236196 -0.04442417 -0.04837356
0.05602923 -0.06700075 -0.01578041 0.0060275653 -0.19464119 0.027992217 -0.0047924425 0.015169038
-0.071636826 -0.1433455 0.3879428 -0.121555164 0.5673119 -0.4130765 -0.41667792 0.53751785
-0.5048222 0.020928217 0.03242611 2.336894e-05 0.1736127 0.03450208 -0.03281517 -0.20937721
-0.18853226 -0.39267257 0.070213936 0.0024592637 0.105902515 -0.24894021 -0.18786192 0.056986157
-0.022457222 -0.014508377 -0.16495965 0.065037355 0.086990215 0.077846326 -0.004738653 -0.08173422
0.04279303 0.0501979 0.2675408 0.05516676 -0.06491676 0.13938317 0.034283828 0.0060730563
0.02895973 0.03589205 0.0065868334 0.0430173 -0.10856841 -0.08584824 -0.12863924 0.09226823
-0.0011495764 -0.24005692 0.055628553 0.06047383 -0.0046622735 0.30673817 -0.2611408 -0.087119825
0.045278586 -0.1465837 0.13879895 -0.13517974 -0.13996463 0.10054527 0.09212501 0.16183344
-0.11113233 -0.05119357 -0.021926824 0.15048628 -0.6379064 -0.29562214 -0.5986531 0.33051804
-0.40953174 -0.09661514 0.007991945 -0.0132751865 0.024789726 0.080028914 -0.11342245 0.0397633
-0.30895564 -0.3471902 -0.53202134 0.010651231 0.18661991 0.15534984 0.3415002 0.0090187015
-0.029090084 -0.16847622 -0.27707708 -0.14824209 -0.0918417 -0.027603082 0.037416846 -0.0130618885
-0.0781982 0.15971191 0.3134558 0.13242054 0.08741929 -0.04505629 -0.9213343 -0.16962011
-0.90970546 0.088626325 0.14689435 0.031988595 -0.083488286 0.11089491 -0.07423912 0.3199693

net_container.0.bias f4 [64]
00000000: 6bbb 113e 58fc 563e 4d93 703e 76ed 813e
00000010: a814 9cbb 83fd e63d 0c42 633e cfb3 26be
00000020: c2ec 233e 5c61 a8be c966 8ebd 3ee0 593e
00000030: 07d2 7fbe fc1e 9bbe 7110 363e bef7 81bd
00000040: d8a2 16be 3c3c 93be 60c1 8d3d 16d7 53be
00000050: e9e0 b1be f262 2abe bb6a 233d d716 ad3d
00000060: 5f17 0a3e 7351 fdbe 5849 303e 385e c63e
00000070: b96b 2abe 566e 19bd 191e 583c 0b6f 6dbe
00000080: 4530 81be 3222 48be f74c 5abe 947d 6bbe
00000090: c6c2 debd af60 b6be 504f f73c 52db a63e
000000a0: bb63 843e c7f7 a43e 2093 debe fb8a 91be
000000b0: 34b3 3ebe 7db0 9fbe cb56 e33d 63bd 1fbe
000000c0: d3c7 dfbe b4fe dbbc fea2 febd 1d16 bd3d
000000d0: 4f5b 71be 0fcc 03be 0b83 90be 2049 99bd
000000e0: 6e2f d1bc 7481 8abe 764a cdbe 25c4 9cbe
000000f0: 4b54 f03a 88d2 b5be ae99 783c bd24 80be
0.1423165 0.20994699 0.23493691 0.2537648 -0.0047632046 0.11278822 0.22193164 -0.16279529
0.16008285 -0.3288678 -0.069531985 0.21276948 -0.24982463 -0.30297077 0.1777971 -0.06346081
-0.14710557 -0.28756893 0.06921649 -0.20687518 -0.34741905 -0.16639307 0.039896708 0.08451622
0.13485478 -0.49476203 0.17215478 0.38743758 -0.16642655 -0.03745874 0.01319077 -0.23186891
-0.2523214 -0.19544294 -0.21318422 -0.22997123 -0.10876994 -0.3562064 0.030189186 0.32589203
0.25857338 0.3222029 -0.43471622 -0.28426346 -0.18623048 -0.31189337 0.11100539 -0.15599589
-0.4370714 -0.02685485 -0.12433432 0.092327334 -0.23569988 -0.12870811 -0.28224978 -0.074846506
-0.025535312 -0.2705189 -0.40095872 -0.30618396 0.0018335668 -0.35512185 0.015173359 -0.2502803

net_container.2.weight f4 [64, 64]
00000000: 94c7 0b3e f107 43be 8b11 3dbc 3fe7 7bbd
00000010: 375a 37be c626 3abd 0878 febc a494 393e
00000020: 23ef 24bd 3868 893e 3afe d93d 679c 633e
00000030: 9687 ab3d 7529 dbbc 9336 523e fa9f 7fbe
00000040: 3b33 3abc 8886 bfbd 67db 5dbd 5d19 00bd
00000050: 9337 00bd 5a67 9b3b 34bc 0ebe dd80 6abe
00000060: 2eed 923e 8ae1 bc3d 5dc2 a1be 3bc5 18be
00000070: 1f6e ebbc b34f 5cbe 261c e5bd 8787 00bf
00000080: 4046 44be 0521 c63e 343f 2c3d 818e fa3d
00000090: cc0a d73d da90 91be 13c6 453d ec8e 44bc
000000a0: ea32 8bbd 9719 5b3d 38bd 713e 707d 433e
000000b0: c8a3 05bd 1bc7 083e 397b 75be cf4b 903e
000000c0: 1a26 fabd 5c9f 72bd bd40 a63d 6b1a 37bd
000000d0: ba3f b23c 0681 24be 09d9 97bc 0de3 0f3d
000000e0: c697 0dbe 0d67 8d3d d19f e13c 7d86 083e
000000f0: 6f6b 9bbe 9794 68bc ee52 4fbe a9f6 903d
00000100: 6e32 4cbd 5dbd c53d 7c4c 093d 3225 e93d
00000110: 62d8 0f3e 9392 7dbd 94bd 7f3d 5679 a5be
00000120: cc2b 003e d817 f93c ac2c f0be 2905 b53d
00000130: f7c6 643d e1db 03be 2338 4b3d 3448 873b
00000140: 8aa3 34be bd23 373d 92bf 9ebc f220 febd
00000150: da03 24be 6d12 743e 6a68 e0bc 280c 8fbd
00000160: cf47 c83d 7cd4 8e3e 78b5 cc3c 25bb 1d3c
00000170: fb2c 4f3d 685b 0e3e cdb0 b9be f5d1 3dbe
00000180: 51ed 8d3e e8ae e8bd 6150 7fbe 7498 b93b
00000190: 6d9e 93be 4bd7 e63c 8849 f2bc b664 0d3e
000001a0: 847c 1a3e d1d7 e83d bcea babc 2a51 eebc
000001b0: fb6e 893d c3fb 2bbe 460d 17be 9d49 1dbd
000001c0: 1f72 6dbd 1c17 d6bd d28a 83bc 1b35 3cbe
000001d0: ac1b 21be 5a89 84be 9883 1e3d 1493 dabc
000001e0: ad6f c03d 74b1 c53d 4c82 58be 9475 36be
000001f0: 384a c0bc 3490 8cbe faa0 3dbd 9346 bdbd
00000200: a109 21bd a4d0 03be 0aa5 52be 75a4 6a3e
00000210: d67e 20be e555 253d 66d1 98be c464 02be
00000220: c5ee 85be f94b be3d 02a1 fcbb a3ce f7bd
00000230: 1f4d ffbd 557b 3a3e a7bd 94bd 0765 efbd
00000240: e2ac acbe 14c1 f0bd 52f9 623d 81d4 09be
00000250: 05f6 cd3d 5229 3f3d bb15 0dbe 1844 f93d
00000260: 628a dbbc c203 073d fc3e 2fba 2b1e e33b
00000270: 5111 19bd 45bc b2bd 6422 0a3e f0e2 a2bd
00000280: fa8a 96bd 7809 60be 38e9 17be 0895 483c
00000290: d03b db3d 7998 23be fecb c8bd ebcf dc3d
000002a0: acf1 46be 90e2 8d3d 24b9 a3be a974 f73c
000002b0: eabf 70bd 69b5 4c3e 3aff c13d 3d5e a23c
000002c0: b9ae 22bd 5ebe 5e3d fe5b 99bd c13a 8cbe
000002d0: 95c5 0abe c56a 3cbd 36e5 bdbd d941 ecbd
000002e0: 228f febd d278 ac3d 0537 173d 8c8a fc3d
000002f0: 6c29 9ebd f52e c33d 9a4b 363e 0525 8d3c
00000300: d703 99be ac04 1e3e f557 7bbe 8d9d 603d
00000310: fd5f 96bc 6f10 533d 4100 cb3d b1ba 9abe
00000320: b322 1bbe f953 9bbe 88ec 5bbd 4c5c 1d3e
00000330: 37bd bb3c 6aab 543c 03a2 cdbd 37b2 5abb
00000340: 5cc6 c4be 0a15 a5be 64ac 993d 5124 a93b
00000350: aefe 743d b48d bbbe 84c6 3ebe e6b4 61bc
00000360: 4657 edbc 6763 3dbe ab88 5bbd acfb 943c
00000370: 2746 b9bc 8b69 7a3d cee9 87bd 96c4 0cbe
00000380: 5442 823c 32c5 5ebe 88ec 723d 8a09 84be
00000390: dca4 153e 774a f23c 4b16 de3b 1b41 e43c
000003a0: 856c 31be 4bf4 96bd e67e 5fbe 9303 17bd
000003b0: 970d fdbd 02e1 1fbc bdca 583d 7d7b d2bd
000003c0: a29a 95bd f127 87bd 3a2e 873e 1a6a abbe
000003d0: 4e31 413d 6874 92be 3cfd 17be a7c0 afbe
000003e0: 01bc b3bc cd69 9ebd a319 9fbb 2272 81be
000003f0: c71d c33b a5e6 ba3c 2b39 e43c 65cf 46bd
0.13650352 -0.19045998 -0.011539827 -0.06149983 -0.17905508 -0.045447133 -0.031063095 0.18123108
-0.04026712 0.26837325 0.10644193 0.22227632 0.0837547 -0.026753167 0.20528631 -0.2496337
-0.011364753 -0.09351832 -0.054164317 -0.03127419 -0.031303 0.004742545 -0.13938981 -0.2290072
0.2869658 0.09222706 -0.315936 -0.14918987 -0.028739033 -0.21514778 -0.111870095 -0.502068
-0.19167423 0.38697067 0.042052463 0.12234212 0.10500106 -0.28430825 0.0482846 -0.011996966
-0.067968205 0.0534912 0.23607337 0.1909082 -0.032626897 0.13357203 -0.23972787 0.28182837
-0.122142985 -0.05923401 0.081178166 -0.04470293 0.021758903 -0.16064844 -0.018536108 0.035128642
-0.13827428 0.06904421 0.027542027 0.13332553 -0.30355403 -0.014195583 -0.20246479 0.07078297
-0.04985278 0.09655259 0.033520207 0.113840476 0.14047387 -0.061907362 0.062436655 -0.32319134
0.12516707 0.030406877 -0.46909082 0.08838875 0.05585381 -0.12876846 0.049614083 0.0041284803
-0.1764051 0.044711817 -0.019378457 -0.124086276 -0.16017094 0.23835154 -0.027393539 -0.069847405
0.097793214 0.27896488 0.024988875 0.009627138 0.050580006 0.13902056 -0.362677 -0.18537124
0.2772012 -0.11361486 -0.24933006 0.005663926 -0.28831807 0.028178832 -0.029576078 0.1380795
0.15086561 0.11369289 -0.022817008 -0.029091436 0.06710621 -0.16795258 -0.14751157 -0.03840028
-0.057970162 -0.104536265 -0.016057406 -0.18379633 -0.15733212 -0.2588604 0.038699716 -0.02668146
0.093963005 0.09652987 -0.21143454 -0.1781829 -0.02347289 -0.27453768 -0.046296097 -0.092419766
-0.039315823 -0.12872559 -0.2057077 0.22914298 -0.15673384 0.04036512 -0.29847258 -0.12733752
-0.2615873 0.092918344 -0.0077096233 -0.1209996 -0.124658816 0.1821111 -0.07262736 -0.11689191
-0.3372565 -0.11755577 0.05541355 -0.1345997 0.1005669 0.046670265 -0.13777821 0.12171191
-0.026799385 0.032962568 -0.00066851056 0.0069310865 -0.03737003 -0.08727316 0.13489681 -0.07953441
-0.073507264 -0.21878612 -0.1483506 0.012242563 0.10704768 -0.15976132 -0.098045334 0.10781845
-0.19428128 0.06927979 -0.3197719 0.030206995 -0.058776774 0.19991077 0.09472509 0.019820327
-0.03971741 0.054380767 -0.07488249 -0.27388576 -0.13551934 -0.04600026 -0.09272234 -0.11535997
-0.12429644 0.08421482 0.036917705 0.12331113 -0.07722744 0.09530441 0.17802277 0.017229566
-0.29885742 0.1543147 -0.24545272 0.054837752 -0.018356318 0.051529344 0.09912158 -0.3022056
-0.15149955 -0.30337504 -0.05369237 0.1536724 0.022917373 0.012980321 -0.10040667 -0.0033370384
-0.38432586 -0.32242614 0.07503584 0.0051618 0.059813194 -0.36631548 -0.18630415 -0.01377604
-0.02897228 -0.1849495 -0.053597134 0.018186413 -0.022616459 0.06113581 -0.066363916 -0.13746867
0.015900768 -0.21754912 0.059307605 -0.25788528 0.1461367 0.029576523 0.00677756 0.027863076
-0.17326553 -0.07370814 -0.21825752 -0.036868643 -0.12356108 -0.009758236 0.05292772 -0.1027746
-0.073048845 -0.06599415 0.26402456 -0.33479387 0.04716616 -0.28604436 -0.14842695 -0.3432667
-0.021940233 -0.07735024 -0.004855351 -0.2528239 0.0059544775 0.022815058 0.027859291 -0.04853763

net_container.2.bias f4 [64]
00000000: ed91 babe 80c7 44be 61d3 57be c8a5 25be
00000010: 0f07 5fbe 7102 09be 4fb8 72be 1a21 d23c
00000020: e866 adbe 455b 063e 2624 c0bd ac4f 853d
00000030: b48c bbbe c0d8 c0bd 79e4 b6be 16a8 7f3e
00000040: 7388 ca3d a070 8dbe 1f5f cd3c 4d5f 57be
00000050: c7b3 8abe 32f0 76be 8689 5cbd 5af2 313e
00000060: 4539 a23d 7b0b ad3d 6815 1bbe 9b12 35bd
00000070: b0b3 143d d0cf f43c 8ba4 a0bd 8c9a 63be
00000080: d3c4 103e 4bff 2c3e 1cd8 b73d f693 ef3d
00000090: 8273 f0be b588 9fbe 3e09 cebd 410a f1bd
000000a0: edc3 643d 64bc d6bd 799c 87be 46f4 433e
000000b0: a2aa c6be e7f9 2abc 9ba4 43be 4581 873e
000000c0: 80ca 61be e928 4d3e 0fca fe3c 84d2 13bd
000000d0: b7e6 833e 0ad3 9abe c12b 5bbe c814 0d3e
000000e0: 8de7 d2be 3226 7bbd 057b adbd 0c5c 46bc
000000f0: 4f8b 13be 9513 e4be cac1 c8be 9c3a 83bc
-0.36439458 -0.19216728 -0.21076728 -0.16176522 -0.21780036 -0.13379838 -0.2370312 0.02565055
-0.33867574 0.13120754 -0.09381895 0.06509337 -0.36630785 -0.09416342 -0.35721186 0.24966463
0.09889307 -0.2762499 0.025069771 -0.21032448 -0.27090284 -0.24115065 -0.05384209 0.17377606
0.079210795 0.08449455 -0.15144885 -0.044207197 0.036304176 0.029884249 -0.07843884 -0.22226924
0.14137582 0.16894262 0.089767665 0.11698143 -0.46963125 -0.31158987 -0.100603566 -0.11769534
0.055850912 -0.104851514 -0.26486567 0.19136152 -0.38802058 -0.010435558 -0.19105761 0.26465812
-0.22049904 0.20035137 0.031102208 -0.036089435 0.2576196 -0.30239135 -0.2140341 0.13777459
-0.41192284 -0.061315723 -0.0847073 -0.012106907 -0.14408611 -0.4454619 -0.3921035 -0.016019158

policy_layer.weight f4 [7, 64]
00000000: 2080 873e 5fa0 8cbc 08cd babd bfdd 05be
00000010: 6d38 32bd edcc 9abc 82e4 83bd ee84 463d
00000020: 65d8 5dbd 02db 173e 5e25 493e 7bd4 c63d
00000030: 7ecd 3cbd ec0f 6cbe d5ee 573c 3adb 42bd
00000040: f36a 91bd ea94 92bd d92b f43c a40c 113e
00000050: cfb6 d3bd 4e06 c5bd 10f3 ea3d 15fd 483c
00000060: e16b 823d c10e 8fbe 6f1c 20be 7eb1 a1ba
00000070: f0a5 3dbe 96e1 b23d 17ec aabc 03dc d7bc
00000080: f628 cfbc 5060 0e3e cd50 133e e14a 14be
00000090: 4372 263d f2e9 1b3d e242 adbd e676 9cbe
000000a0: 7a85 f83d b5c4 ffbd 906d 2dbd ca4a cfbc
000000b0: 1d50 15be f657 04be 235f 6cbd 7552 cb3d
000000c0: be3e ac3d 636f 84bc c87c 7abd 9a00 c83b
000000d0: b439 39bd 2122 563d aad5 2838 ac03 0fbe
000000e0: 99b8 8e3e 98a7 ff3d 0cae 603c e295 b7bd
000000f0: 0c92 c9bc a8ff 2abd efb0 8d3e b0ae 2cbe
00000100: 8d2e 5abd 7ca0 d0bc 0321 64be cf16 00be
00000110: 91bf ddbd b900 a53c 52cf 7d3d ca07 f5bb
00000120: e5e2 0cbd 3f8f db3d 30ec e0bc 3740 923d
00000130: 2742 93bc af22 cd3d 5044 a53d 7362 56bd
00000140: d77b aebc a0f1 123d 47e6 fbbc fdf7 1bbd
00000150: 292c 64bd 948a 49be 2b08 9b3d ee3f b53d
00000160: baf6 5a3d ff7d 88bd 2fe3 0a3d 639c 0abe
00000170: cda7 973c 0585 8a3d 4fdd 6bbe 2145 54be
00000180: 9c87 613d 76a4 d93d 7bb3 003e 50d7 223d
00000190: 26be 09bd 5f8b 84bd 6f4f 5f3e 70c4 5cbc
000001a0: 9a42 423e 0376 09bc 0e3b f23d ea83 133e
000001b0: 65b8 8d3d 8149 113e 35de 0a3e 2a92 bd3a
000001c0: 4337 12bc 115a 8c3d 471f bb3d 6192 293c
000001d0: a2b3 46bd 0898 afbd 2543 c8bc fe47 083e
000001e0: 21e2 e8bd e4d9 5cbd c17f b3bc 71bf f2bb
000001f0: 6453 0fbd 7ebc 6b3c b764 2cbe 5ec7 55bd
00000200: 345f 8b3e ca78 cd3d 100a 10bc 2a3c d7bd
00000210: b238 f83c 492d 35bd ced6 003c adb1 e73d
00000220: ac6f 443d cebd 193c 16ed 253e 0b24 83bc
00000230: 1d7d a7bc b4d9 8bbe 19cf 73bd 43d4 13be
00000240: f2a9 523d 6a0f d8bd eac8 24be 208f 113e
00000250: c250 28bd f035 703c 3ad9 d0bd 75ba df3c
00000260: c1c1 e1bb 9275 dabd 9d82 0ebe e9ce a93d
00000270: d60c c83d 53f5 0bbe b06a 393a 8a4f 6cbd
00000280: ea3c 01bd b367 833d cec4 503e e283 7e3d
00000290: 6d0d 763d 03b0 323e d217 16bd 49a9 85be
000002a0: d2c3 543e 038a 4ebd 2b1e e33a 9b33 253e
000002b0: fe56 13be 7726 313d ca21 773c 1bcc 51bd
000002c0: 5d78 11be b2d9 6cbd b526 063d 5edc a1bd
000002d0: 1229 573d 032d bfbd 9af5 bdbd c565 bebd
000002e0: 3a2c 273e 87f4 1b3e b73f c63c 5637 07bd
000002f0: 2044 9ebd e1e0 8fbb 25ca a0bd e2ab 14be
00000300: 1551 8dbd 84eb 783d afb5 b53d 45ae e9bc
00000310: 17a9 bfbd 01f7 48be e033 98be 2077 8fbb
00000320: 6805 33be 9c58 23bc 4c85 6b3d 4144 023d
00000330: 924e e6bd bb0a 17be 2c02 2dbe 959b b83c
00000340: 9c81 013d 5553 98bc 44ca 153e 6065 2abe
00000350: 5e68 7bbd 5ba4 3bbd a0b9 83bb 1daa de3d
00000360: a2fa 8bbd 7543 28be 2db1 a1be 22c4 febd
00000370: d789 253d 2ee1 4c3e 6459 7ebc fcc2 473e
00000380: be08 9c3d c5b6 de3d be67 eabd e521 f33c
00000390: 9bb4 5fbc 1584 d9bd 8d78 6a3d a1bb bebc
000003a0: 302a 823d 4017 bebd e83e 3abe 2908 baba
000003b0: f805 e13c dc0e f93d 3008 2cbd e4f3 2f3d
000003c0: 8585 233d 63fd 03bd b302 363e 9693 7a3d
000003d0: bd2c 8d3d 44a6 abbd 9ff7 973d 4267 943d
000003e0: ec20 0fbe bdae 9dbd 8a15 7b3d d658 91bc
000003f0: 5589 83bd 5788 01be 5b36 62be 358e 12bc
0.2646494 -0.017166315 -0.09121138 -0.1307287 -0.043510843 -0.018896544 -0.06440069 0.048466615
-0.054161448 0.14829639 0.1964316 0.09708496 -0.04609441 -0.23052949 0.013179501 -0.047572352
-0.07100477 -0.07157309 0.029806064 0.14164978 -0.10337602 -0.09620343 0.11472142 0.012267371
0.063682325 -0.27940944 -0.15635847 -0.0012336222 -0.18520331 0.08734433 -0.02086453 -0.026350027
-0.025288086 0.13903928 0.14386292 -0.14481689 0.040636312 0.038064905 -0.084600225 -0.30559462
0.12134834 -0.12488691 -0.042340815 -0.025304217 -0.14581342 -0.1292418 -0.057707917 0.09927837
0.084104046 -0.016166395 -0.061154157 0.0061035873 -0.045221046 0.05227864 4.025331e-05 -0.13966244
0.27875212 0.12483138 0.013713371 -0.08964135 -0.024605773 -0.04174772 0.27674052 -0.16863513
-0.05326705 -0.02546715 -0.22278218 -0.12508701 -0.10827554 0.020141946 0.061965294 -0.007477735
-0.03439607 0.107206814 -0.027456373 0.07141154 -0.01797588 0.10016381 0.0806967 -0.052339982
-0.021299286 0.035874963 -0.030749453 -0.038078297 -0.055706177 -0.1968177 0.07569917 0.08850084
0.053457953 -0.06664657 0.033908065 -0.1353622 0.01851263 0.06763653 -0.23033641 -0.20729496
0.055060968 0.106270716 0.12568466 0.03975612 -0.033628605 -0.064718954 0.21807645 -0.013474569
0.18970719 -0.008389953 0.1182767 0.1440579 0.06919936 0.14188196 0.13561328 0.0014463116
-0.008924308 0.06853116 0.09136825 0.010349841 -0.048511155 -0.085739195 -0.02444608 0.13308713
-0.11371256 -0.053918734 -0.021911504 -0.0074080755 -0.034991637 0.014388202 -0.16835295 -0.052192084
0.27221072 0.10032804 -0.008791462 -0.10509522 0.030300472 -0.04423264 0.007863713 0.11313186
0.04795806 0.009383632 0.16203722 -0.016008398 -0.0204454 -0.27314532 -0.059523676 -0.1443644
0.051431604 -0.10549815 -0.16092268 0.14214754 -0.04109264 0.014661297 -0.10197683 0.02731059
-0.0068895523 -0.10666956 -0.13917013 0.08291418 0.09768073 -0.13667803 0.00070730876 -0.05769304
-0.031552233 0.064162634 0.20387575 0.062137492 0.060071398 0.17449956 -0.03664381 -0.26105717
0.20777825 -0.050424587 0.0017327716 0.16132967 -0.14388654 0.043249574 0.0150837395 -0.05122004
-0.14206071 -0.057824798 0.032751758 -0.0790336 0.052529402 -0.09334757 -0.092753604 -0.09296755
0.16325465 0.15229999 0.024200303 -0.033011757 -0.077278376 -0.0043908213 -0.07851056 -0.14518693
-0.06900231 0.06077148 0.08872544 -0.028525481 -0.09358423 -0.19625475 -0.29727077 -0.0043782145
-0.17482531 -0.009969857 0.05750017 0.031803373 -0.11245455 -0.14750187 -0.1689536 0.022535125
0.031617746 -0.018594423 0.1462794 -0.16640234 -0.06137883 -0.04581104 -0.004019931 0.1087229
-0.06834914 -0.16431983 -0.31580487 -0.12439753 0.040414657 0.20007774 -0.015524242 0.19507974
0.07618855 0.10874704 -0.114455685 0.029679248 -0.0136539 -0.10620896 0.057243872 -0.023282828
0.06355703 -0.09281778 -0.1818806 -0.0014193106 0.027468666 0.12161037 -0.041999996 0.0429572
0.039922256 -0.03222407 0.17774467 0.061175905 0.06893299 -0.08381322 0.07420277 0.07246257
-0.13977402 -0.07699344 0.061299838 -0.017742556 -0.064226784 -0.12649666 -0.22091047 -0.008945038

policy_layer.bias f4 [7]
00000000: b615 533d 0afc 843d 8a21 16bd 3de3 913e
00000010: b747 3cbd eae4 f1bd 205a 523d
0.051534377 0.06493385 -0.03665308 0.28493682 -0.04596683 -0.1181124 0.05135548

value_layer.weight f4 [1, 64]
00000000: 9b89 53bc 729e 84ba 8b35 3bbc efb8 53bd
00000010: 7db8 1f3d 38ae 9ebd 3882 4a3d 6088 0abd
00000020: 6970 f0bd 4347 adbc 9ec8 a83d 92f0 32bd
00000030: 2c45 cdbd f3c0 873d 4907 123c b8e1 8dbc
00000040: 682c d9bd 28d4 86bc c0c0 28bc 8a77 98bc
00000050: 1b42 463d 3cc1 813d 826c c23c fe9b b7bc
00000060: 078f 0bbb 9af5 08bd 0dd3 10bd 4e09 033d
00000070: 3e06 b03a 22e2 12bc f854 26bd 6af4 cb3c
00000080: dfe0 0dbd 6942 8b3c 0cdd f23c b240 543c
00000090: 1880 873c 9885 18be a6db 84bc 6118 9dbd
000000a0: c752 dc3c 8006 213d 0c45 dbbd 55e0 003e
000000b0: 5995 013b 1527 483b 8051 54bd bfc7 fd39
000000c0: 01c4 e03d 38df da3c b3f0 ffbc 111d 1dbc
000000d0: 20f8 8a3d 63c8 1ebd 5d11 b1bc 22a6 403b
000000e0: 1286 1bbd 15c3 6ebd d292 18bd bab1 d6bc
000000f0: a2a8 b03b 19c3 93bd 4f48 f6bc 48a7 05bc
-0.012911226 -0.0010118021 -0.01142634 -0.05169004 0.0389943 -0.07748073 0.049440593 -0.033821464
-0.117401905 -0.021152144 0.0824139 -0.043686457 -0.10022959 0.06628599 0.00891287 -0.017319545
-0.10604173 -0.016458586 -0.010299861 -0.018611688 0.048402887 0.06335685 0.023733381 -0.02241325
-0.0021294968 -0.03343735 -0.035357524 0.031991296 0.0013429595 -0.008965047 -0.040608376 0.02489682
-0.034638282 0.01699944 0.029646419 0.012954878 0.016540572 -0.14894712 -0.016218018 -0.076706655
0.02689494 0.03931284 -0.10706529 0.12585576 0.0019772856 0.0030540873 -0.051835537 0.00048404743
0.10974885 0.026717767 -0.031242704 -0.0095894495 0.06785607 -0.038765322 -0.021614725 0.0029395898
-0.037969656 -0.058291513 -0.037249394 -0.026207794 0.0053911963 -0.07214946 -0.030063776 -0.008157559

log_std_parameter f4 [7]
00000000: 3160 13c0 2e07 14c0 2cd2 1cc0 2c2a 1cc0
00000010: bfb4 18c0 2ce1 1ec0 0958 0dc0
-2.302746 -2.3129382 -2.4503279 -2.440074 -2.3860319 -2.4824934 -2.2084982

net_container.0.weight f4 [64, 32]
00000000: 3276 cdbe 8bfc 1a3e a590 bfbe c5a0 0cbe
00000010: e44b 713d 35b8 72bd bc75 8d3e e737 b0bc
00000020: 3ff0 153d d0bb 24be 3769 1f3e 2c8d 83be
00000030: 9c2e 9e3c a275 353d dfda 1dbc 65da 2fbe
00000040: 050f 0a3e de2c 01bd cf9b aa3e 6aa0 273e
00000050: b451 b13d 3b80 b53e 8d41 72be ee33 84be
00000060: 9365 2ebe 9d73 32bd 62da a43d 5390 e83c
00000070: a2d7 873d fc5c d4bd 7b1d 84bd 2a21 24be
00000080: 339f b6bd a496 7cbe 2529 78be 3ad4 7fbe
00000090: b65a 3ebd aa49 fbbc 6e85 15be 7eeb 8d3c
000000a0: 1caa 833b 8d23 90bc 2d01 f7bd 2e3e 423b
000000b0: b835 6e3d 5461 bd3d 46ff c7bd 8111 0abe
000000c0: 6a2f 73bd bfc8 b3bd 2cb5 0bbe 6656 8b3d
000000d0: 9dd4 babe a494 ccbe f146 0dbf ec9a b23e
000000e0: 21a8 23bf 19bd 863e af7f 5cbd f87d 1dbd
000000f0: 0af2 cabd bbd3 c1bd 1150 943d 26bc 0abd
00000100: d1dc 5abe acf4 07be 34f7 82be ef30 753e
00000110: 1ba7 07bd 0ab6 f23d 42b5 2a3e 63d2 fe3d
00000120: 9096 b5bb fe24 bfbd 54f5 50be 26ab ff3d
00000130: 9003 0a3e 7988 45bd 2123 54bd 4ffe a8bc
00000140: 1a32 c23d fd95 7ebc 0333 943e 9d47 ee3e
00000150: 5b0a 0ebf 0336 8abe 3577 41bb 292d 0b3e
00000160: 545b 9bbd d95f abbc b20a 62bd 6bd0 173d
00000170: ec9e 84bd ed56 d73d 5cc5 b2bd 02ef b53c
00000180: ee82 cb3d 0796 1ebe 709a c1bd ac6b 66be
00000190: 5c92 133e b1e5 303e 6e3b e2bd 6833 473c
000001a0: aa73 d73c 77ea 54bc 0538 993d 770a eb3c
000001b0: d11b 65bd 8bfa acbd 4199 f6bc 380a 913d
000001c0: 2377 953d e308 efbc 54f7 e9be e9f3 3bbe
000001d0: 7da8 223f d544 cabe 50f3 993e f681 983e
000001e0: 9ff2 a43e ecf6 f2bd f903 38be f40d 10be
000001f0: fc0b 8b3c cc65 1c3e 39aa 91bc f584 ebbc
00000200: 6f61 05be 1e07 4abe 5975 85bc 9523 0dbe
00000210: 8afc fabd 0618 383c 1ef6 35bd 5b23 46bd
00000220: e87e 653d b037 89bd eb45 81bc e282 c53b
00000230: 0550 47be ef4f e53c ec09 9dbb 8f87 783c
00000240: 54b6 92bd 2ac9 12be 70a0 c63e eaf1 f8bd
00000250: 5a3b 113f c37e d3be cf56 d5be c59a 093f
00000260: 073c 01bf a771 ab3c 3ed1 043d 6b08 c437
00000270: 87c7 313e 0e52 0d3d 3369 06bd fb66 56be
00000280: 9a0e 41be 610c c9be 53cc 8f3d 992b 213b
00000290: 6be3 d83d 2fea 7ebe e05e 40be 516a 693d
000002a0: 35f8 b7bc 8bb4 6dbc 2feb 28be 4e32 853d
000002b0: ed27 b23d e56d 9f3d b446 9bbb 4564 a7bd
000002c0: bf47 2f3d 509c 4d3d 1cfb 883e 8af6 613d
000002d0: 14f3 84bd 76ba 0e3e 336d 0c3d 7d00 c73b
000002e0: f53c ed3c 8b03 133d 5dd6 d73b e932 303d
000002f0: 1d59 debd 34d1 afbd 01ba 03be 20f7 bc3d
00000300: 62ad 96ba 7bd1 75be c4da 633d 68b3 773d
00000310: fcc5 98bb c90c 9d3e 3fb4 85be e16b b2bd
00000320: 0a76 393d 0a1a 16be 5021 0e3e 8f6c 0abe
00000330: e352 0fbe aeea cd3d 0aac bc3d aab7 253e
00000340: 5999 e3bd 59b0 51bd e29f b3bc 1319 1a3e
00000350: d54d 23bf c95b 97be 5441 19bf a939 a93e
00000360: 25ae d1be 29de c5bd a6f0 023c 2b80 59bc
00000370: d313 cb3c 33e6 a33d 084a e8bd d8de 223d
00000380: 6f2f 9ebe eac2 b1be 8d32 08bf 8082 2e3c
00000390: 4a19 3f3e 0714 1f3e 1dd9 ae3e 2dc3 133c
000003a0: 544e eebc 0885 2cbe 0cdd 8dbe c6cc 17be
000003b0: 8017 bcbd dc1f e2bc 6842 193d 8801 56bc
000003c0: 6126 a0bd 858b 233e 477d a03e 4099 073e
000003d0: e208 b33d f28c 38bd 91dc 6bbf e5b0 2dbe
000003e0: 75e2 68bf b881 b53d 796b 163e 7906 033d
000003f0: e8fb aabd df1c e33d ae0a 98bd 04d3 a33e
-0.40129238 0.151354 -0.37415043 -0.13733204 0.058910266 -0.059257705 0.27628887 -0.021511031
0.03660607 -0.1608727 0.1556748 -0.25693643 0.019309334 0.044301637 -0.0096347025 -0.17173155
0.13482292 -0.03153693 0.33321998 0.16369787 0.08658162 0.35449395 -0.23657818 -0.2582087
-0.17030935 -0.04356729 0.08049466 0.028389132 0.066329256 -0.10369298 -0.064509355 -0.16028276
-0.089170836 -0.2466684 -0.24234445 -0.24983302 -0.046473227 -0.030674774 -0.1460168 0.017324205
0.0040180814 -0.017595077 -0.12060771 0.0029639113 0.0581567 0.092470795 -0.097654864 -0.1348324
-0.05937139 -0.08778524 -0.1364333 0.068035886 -0.36490336 -0.39957154 -0.55186373 0.3488382
-0.6392842 0.26316145 -0.053832706 -0.03845021 -0.099094465 -0.094642125 0.07241834 -0.03387084
-0.21373297 -0.13276929 -0.25579226 0.23944448 -0.03311835 0.118511274 0.16670707 0.12442472
-0.00554163 -0.093332276 -0.20406085 0.12483816 0.13477921 -0.048225854 -0.051791314 -0.020629076
0.09482212 -0.01553869 0.2894517 0.46539012 -0.5548455 -0.26994333 -0.0029520516 0.13591446
-0.07585779 -0.020919727 -0.05518598 0.037063997 -0.064756244 0.10514627 -0.087290496 0.022208694
0.09937082 -0.15486918 -0.09453285 -0.22502011 0.144113 0.1727512 -0.110464916 0.012158252
0.02630027 -0.012995354 0.07481388 0.028691513 -0.05593473 -0.08446225 -0.030102374 0.07082027
0.07298114 -0.029179042 -0.4569651 -0.18354763 0.6353834 -0.3950564 0.30068445 0.29786652
0.32216355 -0.11863503 -0.17970265 -0.14067823 0.016973488 0.15273207 -0.017781364 -0.028749922
-0.13025449 -0.19729277 -0.016291307 -0.13783105 -0.12255199 0.011236196 -0.04442417 -0.04837356
0.05602923 -0.06700075 -0.01578041 0.0060275653 -0.19464119 0.027992217 -0.0047924425 0.015169038
-0.071636826 -0.1433455 0.3879428 -0.121555164 0.5673119 -0.4130765 -0.41667792 0.53751785
-0.5048222 0.020928217 0.03242611 2.336894e-05 0.1736127 0.03450208 -0.03281517 -0.20937721
-0.18853226 -0.39267257 0.070213936 0.0024592637 0.105902515 -0.24894021 -0.18786192 0.056986157
-0.022457222 -0.014508377 -0.16495965 0.065037355 0.086990215 0.077846326 -0.004738653 -0.08173422
0.04279303 0.0501979 0.2675408 0.05516676 -0.06491676 0.13938317 0.034283828 0.0060730563
0.02895973 0.03589205 0.0065868334 0.0430173 -0.10856841 -0.08584824 -0.12863924 0.09226823
-0.0011495764 -0.24005692 0.055628553 0.06047383 -0.0046622735 0.30673817 -0.2611408 -0.087119825
0.045278586 -0.1465837 0.13879895 -0.13517974 -0.13996463 0.10054527 0.09212501 0.16183344
-0.11113233 -0.05119357 -0.021926824 0.15048628 -0.6379064 -0.29562214 -0.5986531 0.33051804
-0.40953174 -0.09661514 0.007991945 -0.0132751865 0.024789726 0.080028914 -0.11342245 0.0397633
-0.30895564 -0.3471902 -0.53202134 0.010651231 0.18661991 0.15534984 0.3415002 0.0090187015
-0.029090084 -0.16847622 -0.27707708 -0.14824209 -0.0918417 -0.027603082 0.037416846 -0.0130618885
-0.0781982 0.15971191 0.3134558 0.13242054 0.08741929 -0.04505629 -0.9213343 -0.16962011
-0.90970546 0.088626325 0.14689435 0.031988595 -0.083488286 0.11089491 -0.07423912 0.3199693

net_container.0.bias f4 [64]
00000000: 6bbb 113e 58fc 563e 4d93 703e 76ed 813e
00000010: a814 9cbb 83fd e63d 0c42 633e cfb3 26be
00000020: c2ec 233e 5c61 a8be c966 8ebd 3ee0 593e
00000030: 07d2 7fbe fc1e 9bbe 7110 363e bef7 81bd
00000040: d8a2 16be 3c3c 93be 60c1 8d3d 16d7 53be
00000050: e9e0 b1be f262 2abe bb6a 233d d716 ad3d
00000060: 5f17 0a3e 7351 fdbe 5849 303e 385e c63e
00000070: b96b 2abe 566e 19bd 191e 583c 0b6f 6dbe
00000080: 4530 81be 3222 48be f74c 5abe 947d 6bbe
00000090: c6c2 debd af60 b6be 504f f73c 52db a63e
000000a0: bb63 843e c7f7 a43e 2093 debe fb8a 91be
000000b0: 34b3 3ebe 7db0 9fbe cb56 e33d 63bd 1fbe
000000c0: d3c7 dfbe b4fe dbbc fea2 febd 1d16 bd3d
000000d0: 4f5b 71be 0fcc 03be 0b83 90be 2049 99bd
000000e0: 6e2f d1bc 7481 8abe 764a cdbe 25c4 9cbe
000000f0: 4b54 f03a 88d2 b5be ae99 783c bd24 80be
0.1423165 0.20994699 0.23493691 0.2537648 -0.0047632046 0.11278822 0.22193164 -0.16279529
0.16008285 -0.3288678 -0.069531985 0.21276948 -0.24982463 -0.30297077 0.1777971 -0.06346081
-0.14710557 -0.28756893 0.06921649 -0.20687518 -0.34741905 -0.16639307 0.039896708 0.08451622
0.13485478 -0.49476203 0.17215478 0.38743758 -0.16642655 -0.03745874 0.01319077 -0.23186891
-0.2523214 -0.19544294 -0.21318422 -0.22997123 -0.10876994 -0.3562064 0.030189186 0.32589203
0.25857338 0.3222029 -0.43471622 -0.28426346 -0.18623048 -0.31189337 0.11100539 -0.15599589
-0.4370714 -0.02685485 -0.12433432 0.092327334 -0.23569988 -0.12870811 -0.28224978 -0.074846506
-0.025535312 -0.2705189 -0.40095872 -0.30618396 0.0018335668 -0.35512185 0.015173359 -0.2502803

net_container.2.weight f4 [64, 64]
00000000: 94c7 0b3e f107 43be 8b11 3dbc 3fe7 7bbd
00000010: 375a 37be c626 3abd 0878 febc a494 393e
00000020: 23ef 24bd 3868 893e 3afe d93d 679c 633e
00000030: 9687 ab3d 7529 dbbc 9336 523e fa9f 7fbe
00000040: 3b33 3abc 8886 bfbd 67db 5dbd 5d19 00bd
00000050: 9337 00bd 5a67 9b3b 34bc 0ebe dd80 6abe
00000060: 2eed 923e 8ae1 bc3d 5dc2 a1be 3bc5 18be
00000070: 1f6e ebbc b34f 5cbe 261c e5bd 8787 00bf
00000080: 4046 44be 0521 c63e 343f 2c3d 818e fa3d
00000090: cc0a d73d da90 91be 13c6 453d ec8e 44bc
000000a0: ea32 8bbd 9719 5b3d 38bd 713e 707d 433e
000000b0: c8a3 05bd 1bc7 083e 397b 75be cf4b 903e
000000c0: 1a26 fabd 5c9f 72bd bd40 a63d 6b1a 37bd
000000d0: ba3f b23c 0681 24be 09d9 97bc 0de3 0f3d
000000e0: c697 0dbe 0d67 8d3d d19f e13c 7d86 083e
000000f0: 6f6b 9bbe 9794 68bc ee52 4fbe a9f6 903d
00000100: 6e32 4cbd 5dbd c53d 7c4c 093d 3225 e93d
00000110: 62d8 0f3e 9392 7dbd 94bd 7f3d 5679 a5be
00000120: cc2b 003e d817 f93c ac2c f0be 2905 b53d
00000130: f7c6 643d e1db 03be 2338 4b3d 3448 873b
00000140: 8aa3 34be bd23 373d 92bf 9ebc f220 febd
00000150: da03 24be 6d12 743e 6a68 e0bc 280c 8fbd
00000160: cf47 c83d 7cd4 8e3e 78b5 cc3c 25bb 1d3c
00000170: fb2c 4f3d 685b 0e3e cdb0 b9be f5d1 3dbe
00000180: 51ed 8d3e e8ae e8bd 6150 7fbe 7498 b93b
00000190: 6d9e 93be 4bd7 e63c 8849 f2bc b664 0d3e
000001a0: 847c 1a3e d1d7 e83d bcea babc 2a51 eebc
000001b0: fb6e 893d c3fb 2bbe 460d 17be 9d49 1dbd
000001c0: 1f72 6dbd 1c17 d6bd d28a 83bc 1b35 3cbe
000001d0: ac1b 21be 5a89 84be 9883 1e3d 1493 dabc
000001e0: ad6f c03d 74b1 c53d 4c82 58be 9475 36be
000001f0: 384a c0bc 3490 8cbe faa0 3dbd 9346 bdbd
00000200: a109 21bd a4d0 03be 0aa5 52be 75a4 6a3e
00000210: d67e 20be e555 253d 66d1 98be c464 02be
00000220: c5ee 85be f94b be3d 02a1 fcbb a3ce f7bd
00000230: 1f4d ffbd 557b 3a3e a7bd 94bd 0765 efbd
00000240: e2ac acbe 14c1 f0bd 52f9 623d 81d4 09be
00000250: 05f6 cd3d 5229 3f3d bb15 0dbe 1844 f93d
00000260: 628a dbbc c203 073d fc3e 2fba 2b1e e33b
00000270: 5111 19bd 45bc b2bd 6422 0a3e f0e2 a2bd
00000280: fa8a 96bd 7809 60be 38e9 17be 0895 483c
00000290: d03b db3d 7998 23be fecb c8bd ebcf dc3d
000002a0: acf1 46be 90e2 8d3d 24b9 a3be a974 f73c
000002b0: eabf 70bd 69b5 4c3e 3aff c13d 3d5e a23c
000002c0: b9ae 22bd 5ebe 5e3d fe5b 99bd c13a 8cbe
000002d0: 95c5 0abe c56a 3cbd 36e5 bdbd d941 ecbd
000002e0: 228f febd d278 ac3d 0537 173d 8c8a fc3d
000002f0: 6c29 9ebd f52e c33d 9a4b 363e 0525 8d3c
00000300: d703 99be ac04 1e3e f557 7bbe 8d9d 603d
00000310: fd5f 96bc 6f10 533d 4100 cb3d b1ba 9abe
00000320: b322 1bbe f953 9bbe 88ec 5bbd 4c5c 1d3e
00000330: 37bd bb3c 6aab 543c 03a2 cdbd 37b2 5abb
00000340: 5cc6 c4be 0a15 a5be 64ac 993d 5124 a93b
00000350: aefe 743d b48d bbbe 84c6 3ebe e6b4 61bc
00000360: 4657 edbc 6763 3dbe ab88 5bbd acfb 943c
00000370: 2746 b9bc 8b69 7a3d cee9 87bd 96c4 0cbe
00000380: 5442 823c 32c5 5ebe 88ec 723d 8a09 84be
00000390: dca4 153e 774a f23c 4b16 de3b 1b41 e43c
000003a0: 856c 31be 4bf4 96bd e67e 5fbe 9303 17bd
000003b0: 970d fdbd 02e1 1fbc bdca 583d 7d7b d2bd
000003c0: a29a 95bd f127 87bd 3a2e 873e 1a6a abbe
000003d0: 4e31 413d 6874 92be 3cfd 17be a7c0 afbe
000003e0: 01bc b3bc cd69 9ebd a319 9fbb 2272 81be
000003f0: c71d c33b a5e6 ba3c 2b39 e43c 65cf 46bd
0.13650352 -0.19045998 -0.011539827 -0.06149983 -0.17905508 -0.045447133 -0.031063095 0.18123108
-0.04026712 0.26837325 0.10644193 0.22227632 0.0837547 -0.026753167 0.20528631 -0.2496337
-0.011364753 -0.09351832 -0.054164317 -0.03127419 -0.031303 0.004742545 -0.13938981 -0.2290072
0.2869658 0.09222706 -0.315936 -0.14918987 -0.028739033 -0.21514778 -0.111870095 -0.502068
-0.19167423 0.38697067 0.042052463 0.12234212 0.10500106 -0.28430825 0.0482846 -0.011996966
-0.067968205 0.0534912 0.23607337 0.1909082 -0.032626897 0.13357203 -0.23972787 0.28182837
-0.122142985 -0.05923401 0.081178166 -0.04470293 0.021758903 -0.16064844 -0.018536108 0.035128642
-0.13827428 0.06904421 0.027542027 0.13332553 -0.30355403 -0.014195583 -0.20246479 0.07078297
-0.04985278 0.09655259 0.033520207 0.113840476 0.14047387 -0.061907362 0.062436655 -0.32319134
0.12516707 0.030406877 -0.46909082 0.08838875 0.05585381 -0.12876846 0.049614083 0.0041284803
-0.1764051 0.044711817 -0.019378457 -0.124086276 -0.16017094 0.23835154 -0.027393539 -0.069847405
0.097793214 0.27896488 0.024988875 0.009627138 0.050580006 0.13902056 -0.362677 -0.18537124
0.2772012 -0.11361486 -0.24933006 0.005663926 -0.28831807 0.028178832 -0.029576078 0.1380795
0.15086561 0.11369289 -0.022817008 -0.029091436 0.06710621 -0.16795258 -0.14751157 -0.03840028
-0.057970162 -0.104536265 -0.016057406 -0.18379633 -0.15733212 -0.2588604 0.038699716 -0.02668146
0.093963005 0.09652987 -0.21143454 -0.1781829 -0.02347289 -0.27453768 -0.046296097 -0.092419766
-0.039315823 -0.12872559 -0.2057077 0.22914298 -0.15673384 0.04036512 -0.29847258 -0.12733752
-0.2615873 0.092918344 -0.0077096233 -0.1209996 -0.124658816 0.1821111 -0.07262736 -0.11689191
-0.3372565 -0.11755577 0.05541355 -0.1345997 0.1005669 0.046670265 -0.13777821 0.12171191
-0.026799385 0.032962568 -0.00066851056 0.0069310865 -0.03737003 -0.08727316 0.13489681 -0.07953441
-0.073507264 -0.21878612 -0.1483506 0.012242563 0.10704768 -0.15976132 -0.098045334 0.10781845
-0.19428128 0.06927979 -0.3197719 0.030206995 -0.058776774 0.19991077 0.09472509 0.019820327
-0.03971741 0.054380767 -0.07488249 -0.27388576 -0.13551934 -0.04600026 -0.09272234 -0.11535997
-0.12429644 0.08421482 0.036917705 0.12331113 -0.07722744 0.09530441 0.17802277 0.017229566
-0.29885742 0.1543147 -0.24545272 0.054837752 -0.018356318 0.051529344 0.09912158 -0.3022056
-0.15149955 -0.30337504 -0.05369237 0.1536724 0.022917373 0.012980321 -0.10040667 -0.0033370384
-0.38432586 -0.32242614 0.07503584 0.0051618 0.059813194 -0.36631548 -0.18630415 -0.01377604
-0.02897228 -0.1849495 -0.053597134 0.018186413 -0.022616459 0.06113581 -0.066363916 -0.13746867
0.015900768 -0.21754912 0.059307605 -0.25788528 0.1461367 0.029576523 0.00677756 0.027863076
-0.17326553 -0.07370814 -0.21825752 -0.036868643 -0.12356108 -0.009758236 0.05292772 -0.1027746
-0.073048845 -0.06599415 0.26402456 -0.33479387 0.04716616 -0.28604436 -0.14842695 -0.3432667
-0.021940233 -0.07735024 -0.004855351 -0.2528239 0.0059544775 0.022815058 0.027859291 -0.04853763

net_container.2.bias f4 [64]
00000000: ed91 babe 80c7 44be 61d3 57be c8a5 25be
00000010: 0f07 5fbe 7102 09be 4fb8 72be 1a21 d23c
00000020: e866 adbe 455b 063e 2624 c0bd ac4f 853d
00000030: b48c bbbe c0d8 c0bd 79e4 b6be 16a8 7f3e
00000040: 7388 ca3d a070 8dbe 1f5f cd3c 4d5f 57be
00000050: c7b3 8abe 32f0 76be 8689 5cbd 5af2 313e
00000060: 4539 a23d 7b0b ad3d 6815 1bbe 9b12 35bd
00000070: b0b3 143d d0cf f43c 8ba4 a0bd 8c9a 63be
00000080: d3c4 103e 4bff 2c3e 1cd8 b73d f693 ef3d
00000090: 8273 f0be b588 9fbe 3e09 cebd 410a f1bd
000000a0: edc3 643d 64bc d6bd 799c 87be 46f4 433e
000000b0: a2aa c6be e7f9 2abc 9ba4 43be 4581 873e
000000c0: 80ca 61be e928 4d3e 0fca fe3c 84d2 13bd
000000d0: b7e6 833e 0ad3 9abe c12b 5bbe c814 0d3e
000000e0: 8de7 d2be 3226 7bbd 057b adbd 0c5c 46bc
000000f0: 4f8b 13be 9513 e4be cac1 c8be 9c3a 83bc
-0.36439458 -0.19216728 -0.21076728 -0.16176522 -0.21780036 -0.13379838 -0.2370312 0.02565055
-0.33867574 0.13120754 -0.09381895 0.06509337 -0.36630785 -0.09416342 -0.35721186 0.24966463
0.09889307 -0.2762499 0.025069771 -0.21032448 -0.27090284 -0.24115065 -0.05384209 0.17377606
0.079210795 0.08449455 -0.15144885 -0.044207197 0.036304176 0.029884249 -0.07843884 -0.22226924
0.14137582 0.16894262 0.089767665 0.11698143 -0.46963125 -0.31158987 -0.100603566 -0.11769534
0.055850912 -0.104851514 -0.26486567 0.19136152 -0.38802058 -0.010435558 -0.19105761 0.26465812
-0.22049904 0.20035137 0.031102208 -0.036089435 0.2576196 -0.30239135 -0.2140341 0.13777459
-0.41192284 -0.061315723 -0.0847073 -0.012106907 -0.14408611 -0.4454619 -0.3921035 -0.016019158

policy_layer.weight f4 [7, 64]
00000000: 2080 873e 5fa0 8cbc 08cd babd bfdd 05be
00000010: 6d38 32bd edcc 9abc 82e4 83bd ee84 463d
00000020: 65d8 5dbd 02db 173e 5e25 493e 7bd4 c63d
00000030: 7ecd 3cbd ec0f 6cbe d5ee 573c 3adb 42bd
00000040: f36a 91bd ea94 92bd d92b f43c a40c 113e
00000050: cfb6 d3bd 4e06 c5bd 10f3 ea3d 15fd 483c
00000060: e16b 823d c10e 8fbe 6f1c 20be 7eb1 a1ba
00000070: f0a5 3dbe 96e1 b23d 17ec aabc 03dc d7bc
00000080: f628 cfbc 5060 0e3e cd50 133e e14a 14be
00000090: 4372 263d f2e9 1b3d e242 adbd e676 9cbe
000000a0: 7a85 f83d b5c4 ffbd 906d 2dbd ca4a cfbc
000000b0: 1d50 15be f657 04be 235f 6cbd 7552 cb3d
000000c0: be3e ac3d 636f 84bc c87c 7abd 9a00 c83b
000000d0: b439 39bd 2122 563d aad5 2838 ac03 0fbe
000000e0: 99b8 8e3e 98a7 ff3d 0cae 603c e295 b7bd
000000f0: 0c92 c9bc a8ff 2abd efb0 8d3e b0ae 2cbe
00000100: 8d2e 5abd 7ca0 d0bc 0321 64be cf16 00be
00000110: 91bf ddbd b900 a53c 52cf 7d3d ca07 f5bb
00000120: e5e2 0cbd 3f8f db3d 30ec e0bc 3740 923d
00000130: 2742 93bc af22 cd3d 5044 a53d 7362 56bd
00000140: d77b aebc a0f1 123d 47e6 fbbc fdf7 1bbd
00000150: 292c 64bd 948a 49be 2b08 9b3d ee3f b53d
00000160: baf6 5a3d ff7d 88bd 2fe3 0a3d 639c 0abe
00000170: cda7 973c 0585 8a3d 4fdd 6bbe 2145 54be
00000180: 9c87 613d 76a4 d93d 7bb3 003e 50d7 223d
00000190: 26be 09bd 5f8b 84bd 6f4f 5f3e 70c4 5cbc
000001a0: 9a42 423e 0376 09bc 0e3b f23d ea83 133e
000001b0: 65b8 8d3d 8149 113e 35de 0a3e 2a92 bd3a
000001c0: 4337 12bc 115a 8c3d 471f bb3d 6192 293c
000001d0: a2b3 46bd 0898 afbd 2543 c8bc fe47 083e
000001e0: 21e2 e8bd e4d9 5cbd c17f b3bc 71bf f2bb
000001f0: 6453 0fbd 7ebc 6b3c b764 2cbe 5ec7 55bd
00000200: 345f 8b3e ca78 cd3d 100a 10bc 2a3c d7bd
00000210: b238 f83c 492d 35bd ced6 003c adb1 e73d
00000220: ac6f 443d cebd 193c 16ed 253e 0b24 83bc
00000230: 1d7d a7bc b4d9 8bbe 19cf 73bd 43d4 13be
00000240: f2a9 523d 6a0f d8bd eac8 24be 208f 113e
00000250: c250 28bd f035 703c 3ad9 d0bd 75ba df3c
00000260: c1c1 e1bb 9275 dabd 9d82 0ebe e9ce a93d
00000270: d60c c83d 53f5 0bbe b06a 393a 8a4f 6cbd
00000280: ea3c 01bd b367 833d cec4 503e e283 7e3d
00000290: 6d0d 763d 03b0 323e d217 16bd 49a9 85be
000002a0: d2c3 543e 038a 4ebd 2b1e e33a 9b33 253e
000002b0: fe56 13be 7726 313d ca21 773c 1bcc 51bd
000002c0: 5d78 11be b2d9 6cbd b526 063d 5edc a1bd
000002d0: 1229 573d 032d bfbd 9af5 bdbd c565 bebd
000002e0: 3a2c 273e 87f4 1b3e b73f c63c 5637 07bd
000002f0: 2044 9ebd e1e0 8fbb 25ca a0bd e2ab 14be
00000300: 1551 8dbd 84eb 783d afb5 b53d 45ae e9bc
00000310: 17a9 bfbd 01f7 48be e033 98be 2077 8fbb
00000320: 6805 33be 9c58 23bc 4c85 6b3d 4144 023d
00000330: 924e e6bd bb0a 17be 2c02 2dbe 959b b83c
00000340: 9c81 013d 5553 98bc 44ca 153e 6065 2abe
00000350: 5e68 7bbd 5ba4 3bbd a0b9 83bb 1daa de3d
00000360: a2fa 8bbd 7543 28be 2db1 a1be 22c4 febd
00000370: d789 253d 2ee1 4c3e 6459 7ebc fcc2 473e
00000380: be08 9c3d c5b6 de3d be67 eabd e521 f33c
00000390: 9bb4 5fbc 1584 d9bd 8d78 6a3d a1bb bebc
000003a0: 302a 823d 4017 bebd e83e 3abe 2908 baba
000003b0: f805 e13c dc0e f93d 3008 2cbd e4f3 2f3d
000003c0: 8585 233d 63fd 03bd b302 363e 9693 7a3d
000003d0: bd2c 8d3d 44a6 abbd 9ff7 973d 4267 943d
000003e0: ec20 0fbe bdae 9dbd 8a15 7b3d d658 91bc
000003f0: 5589 83bd 5788 01be 5b36 62be 358e 12bc
0.2646494 -0.017166315 -0.09121138 -0.1307287 -0.043510843 -0.018896544 -0.06440069 0.048466615
-0.054161448 0.14829639 0.1964316 0.09708496 -0.04609441 -0.23052949 0.013179501 -0.047572352
-0.07100477 -0.07157309 0.029806064 0.14164978 -0.10337602 -0.09620343 0.11472142 0.012267371
0.063682325 -0.27940944 -0.15635847 -0.0012336222 -0.18520331 0.08734433 -0.02086453 -0.026350027
-0.025288086 0.13903928 0.14386292 -0.14481689 0.040636312 0.038064905 -0.084600225 -0.30559462
0.12134834 -0.12488691 -0.042340815 -0.025304217 -0.14581342 -0.1292418 -0.057707917 0.09927837
0.084104046 -0.016166395 -0.061154157 0.0061035873 -0.045221046 0.05227864 4.025331e-05 -0.13966244
0.27875212 0.12483138 0.013713371 -0.08964135 -0.024605773 -0.04174772 0.27674052 -0.16863513
-0.05326705 -0.02546715 -0.22278218 -0.12508701 -0.10827554 0.020141946 0.061965294 -0.007477735
-0.03439607 0.107206814 -0.027456373 0.07141154 -0.01797588 0.10016381 0.0806967 -0.052339982
-0.021299286 0.035874963 -0.030749453 -0.038078297 -0.055706177 -0.1968177 0.07569917 0.08850084
0.053457953 -0.06664657 0.033908065 -0.1353622 0.01851263 0.06763653 -0.23033641 -0.20729496
0.055060968 0.106270716 0.12568466 0.03975612 -0.033628605 -0.064718954 0.21807645 -0.013474569
0.18970719 -0.008389953 0.1182767 0.1440579 0.06919936 0.14188196 0.13561328 0.0014463116
-0.008924308 0.06853116 0.09136825 0.010349841 -0.048511155 -0.085739195 -0.02444608 0.13308713
-0.11371256 -0.053918734 -0.021911504 -0.0074080755 -0.034991637 0.014388202 -0.16835295 -0.052192084
0.27221072 0.10032804 -0.008791462 -0.10509522 0.030300472 -0.04423264 0.007863713 0.11313186
0.04795806 0.009383632 0.16203722 -0.016008398 -0.0204454 -0.27314532 -0.059523676 -0.1443644
0.051431604 -0.10549815 -0.16092268 0.14214754 -0.04109264 0.014661297 -0.10197683 0.02731059
-0.0068895523 -0.10666956 -0.13917013 0.08291418 0.09768073 -0.13667803 0.00070730876 -0.05769304
-0.031552233 0.064162634 0.20387575 0.062137492 0.060071398 0.17449956 -0.03664381 -0.26105717
0.20777825 -0.050424587 0.0017327716 0.16132967 -0.14388654 0.043249574 0.0150837395 -0.05122004
-0.14206071 -0.057824798 0.032751758 -0.0790336 0.052529402 -0.09334757 -0.092753604 -0.09296755
0.16325465 0.15229999 0.024200303 -0.033011757 -0.077278376 -0.0043908213 -0.07851056 -0.14518693
-0.06900231 0.06077148 0.08872544 -0.028525481 -0.09358423 -0.19625475 -0.29727077 -0.0043782145
-0.17482531 -0.009969857 0.05750017 0.031803373 -0.11245455 -0.14750187 -0.1689536 0.022535125
0.031617746 -0.018594423 0.1462794 -0.16640234 -0.06137883 -0.04581104 -0.004019931 0.1087229
-0.06834914 -0.16431983 -0.31580487 -0.12439753 0.040414657 0.20007774 -0.015524242 0.19507974
0.07618855 0.10874704 -0.114455685 0.029679248 -0.0136539 -0.10620896 0.057243872 -0.023282828
0.06355703 -0.09281778 -0.1818806 -0.0014193106 0.027468666 0.12161037 -0.041999996 0.0429572
0.039922256 -0.03222407 0.17774467 0.061175905 0.06893299 -0.08381322 0.07420277 0.07246257
-0.13977402 -0.07699344 0.061299838 -0.017742556 -0.064226784 -0.12649666 -0.22091047 -0.008945038

policy_layer.bias f4 [7]
00000000: b615 533d 0afc 843d 8a21 16bd 3de3 913e
00000010: b747 3cbd eae4 f1bd 205a 523d
0.051534377 0.06493385 -0.03665308 0.28493682 -0.04596683 -0.1181124 0.05135548

value_layer.weight f4 [1, 64]
00000000: 9b89 53bc 729e 84ba 8b35 3bbc efb8 53bd
00000010: 7db8 1f3d 38ae 9ebd 3882 4a3d 6088 0abd
00000020: 6970 f0bd 4347 adbc 9ec8 a83d 92f0 32bd
00000030: 2c45 cdbd f3c0 873d 4907 123c b8e1 8dbc
00000040: 682c d9bd 28d4 86bc c0c0 28bc 8a77 98bc
00000050: 1b42 463d 3cc1 813d 826c c23c fe9b b7bc
00000060: 078f 0bbb 9af5 08bd 0dd3 10bd 4e09 033d
00000070: 3e06 b03a 22e2 12bc f854 26bd 6af4 cb3c
00000080: dfe0 0dbd 6942 8b3c 0cdd f23c b240 543c
00000090: 1880 873c 9885 18be a6db 84bc 6118 9dbd
000000a0: c752 dc3c 8006 213d 0c45 dbbd 55e0 003e
000000b0: 5995 013b 1527 483b 8051 54bd bfc7 fd39
000000c0: 01c4 e03d 38df da3c b3f0 ffbc 111d 1dbc
000000d0: 20f8 8a3d 63c8 1ebd 5d11 b1bc 22a6 403b
000000e0: 1286 1bbd 15c3 6ebd d292 18bd bab1 d6bc
000000f0: a2a8 b03b 19c3 93bd 4f48 f6bc 48a7 05bc
-0.012911226 -0.0010118021 -0.01142634 -0.05169004 0.0389943 -0.07748073 0.049440593 -0.033821464
-0.117401905 -0.021152144 0.0824139 -0.043686457 -0.10022959 0.06628599 0.00891287 -0.017319545
-0.10604173 -0.016458586 -0.010299861 -0.018611688 0.048402887 0.06335685 0.023733381 -0.02241325
-0.0021294968 -0.03343735 -0.035357524 0.031991296 0.0013429595 -0.008965047 -0.040608376 0.02489682
-0.034638282 0.01699944 0.029646419 0.012954878 0.016540572 -0.14894712 -0.016218018 -0.076706655
0.02689494 0.03931284 -0.10706529 0.12585576 0.0019772856 0.0030540873 -0.051835537 0.00048404743
0.10974885 0.026717767 -0.031242704 -0.0095894495 0.06785607 -0.038765322 -0.021614725 0.0029395898
-0.037969656 -0.058291513 -0.037249394 -0.026207794 0.0053911963 -0.07214946 -0.030063776 -0.008157559

exp_avg f4 [7]
00000000: e604 b639 075c a439 64f4 043a d70c 913a
00000010: a56e 763a ff35 0d3a e35e 1b3a
0.00034717395 0.00031349083 0.00050718174 0.0011066449 0.00094006426 0.0005386769 0.000592692

exp_avg_sq f4 [7]
00000000: 75dc 2437 382d 0e37 6387 4737 ecd8 3737
00000010: 6115 3037 7850 3137 fd01 1637
9.826491e-06 8.474388e-06 1.18928465e-05 1.0958156e-05 1.0495395e-05 1.0568758e-05 8.94116e-06
