logs/skrl/reach_franka/2024-12-18_21-11-53_ppo_torch/checkpoints/agent_24000.pt (torch, 96272 bytes, 38 tensors)

log_std_parameter f4 [7]
0	0xc036c042	-2.8554845
1	0xc02b864c	-2.6800718
2	0xc03b4a50	-2.9264107
3	0xc034dd7a	-2.8260179
4	0xc02f1ed2	-2.7362561
5	0xc039ec8b	-2.9050624
6	0xc0242f60	-2.5653915

net_container.0.weight f4 [64, 32]
0	0xbecebf35	-0.40380254
1	0x3e0dc6d4	0.13845378
2	0xbec4c38d	-0.38430443
3	0xbe0d1189	-0.1377622
4	0x3d5bbe3e	0.053648226
5	0xbd87a995	-0.06624142
6	0x3e8f7304	0.28017437
7	0xbc187fa8	-0.009307779
8	0x3cf1fb9a	0.029538918
9	0xbe209fc4	-0.15685946
10	0x3e323584	0.17403227
11	0xbe6a4d83	-0.22881131
12	0x3caf0199	0.021363067
13	0x3d40ee31	0.047102157
14	0xbc8365d5	-0.016039768
15	0xbe302cfe	-0.17204663
16	0x3e06c608	0.1316148
17	0xbd39d17a	-0.045365788
18	0x3ea614ce	0.32437748
19	0x3e148a8d	0.14505978
20	0x3db72c72	0.08944024
21	0x3eb19620	0.3468485
22	0xbe6f4283	-0.23365216
23	0xbe80645c	-0.25076568
24	0xbe2b4d26	-0.16728649
25	0xbd217afe	-0.039423935
26	0x3d90f721	0.07078386
27	0x3d11abdc	0.03556429
28	0x3d830d78	0.06399053
29	0xbdd7335a	-0.105078414
30	0xbd9a8bae	-0.07546173
31	0xbe1e00f1	-0.15430047
32	0xbdaa6822	-0.08320643
33	0xbe7ea762	-0.24868539
34	0xbe844a24	-0.25837815
35	0xbe78134c	-0.24226111
36	0xbd02774e	-0.03185206
37	0xbd17df21	-0.037078027
38	0xbe0e9214	-0.13922912
39	0x3ad0e559	0.0015937492
40	0xbc3c7b6d	-0.011504036
41	0xbb9c0c47	-0.0047622058
42	0xbe044137	-0.12915502
43	0x3c349b81	0.011023403
44	0x3d51601a	0.05111704
45	0x3df5367c	0.11973283
46	0xbddb986f	-0.10722434
47	0xbdf62c66	-0.12020187
48	0xbd3940a7	-0.045227673
49	0xbdb25bfc	-0.08708951
50	0xbe082088	-0.1329366
51	0x3d7d1762	0.061789878
52	0xbeb00755	-0.34380594
53	0xbec6a29e	-0.38795942
54	0xbf112476	-0.5669626
55	0x3eacc954	0.3374735
56	0xbf27a660	-0.65488243
57	0x3e8b1c52	0.27170044
58	0xbd69a9d4	-0.057046726
59	0xbd46adef	-0.04850572
60	0xbdc624d6	-0.09674995
61	0xbd9ad83a	-0.07560773
62	0x3d91e33f	0.07123422
63	0xbcb1467a	-0.021640051
64	0xbe59bd4f	-0.21263622
65	0xbe0159ce	-0.12631914
66	0xbe866fe4	-0.2625724
67	0x3e7ca34f	0.24671672
68	0xbd0d1653	-0.03444512
69	0x3dd775af	0.10520493
70	0x3e269a71	0.16269852
71	0x3e0a4921	0.13504459
72	0xbc6c0be2	-0.01440713
73	0xbdadf660	-0.08494258
74	0xbe3875d5	-0.180137
75	0x3dfaae19	0.12240238
76	0x3e0dd747	0.13851653
77	0xbd453ddd	-0.0481547
78	0xbd62914b	-0.055314343
79	0xbbf8789f	-0.0075827385
80	0x3db60930	0.08888471
81	0xbd0a782d	-0.033806015
82	0x3e99f5db	0.30070385
83	0x3ee42dce	0.44566196
84	0xbf0dbf77	-0.5537028
85	0xbe871e91	-0.26390508
86	0xbc42a17b	-0.01187932
87	0x3e05333e	0.13007829
88	0xbdae5f9f	-0.08514332
89	0xbcab4b36	-0.020909887
90	0xbd4c941c	-0.049945936
91	0x3d0f20b1	0.034943286
92	0xbd34f7c9	-0.04418162
93	0x3dd9a0a7	0.10626345
94	0xbdd4fbbd	-0.10399578
95	0x3cbd74d8	0.023127005
96	0x3dd72084	0.10504249
97	0xbe3f84e3	-0.18703036
98	0xbdd6d96f	-0.10490691
99	0xbe831fdf	-0.25610253
100	0x3e1031e8	0.14081538
101	0x3e320f25	0.1738859
102	0xbddbf0f1	-0.10739315
103	0x3c33cb84	0.010973815
104	0x3d09f0a0	0.033676744
105	0xbc50efd3	-0.012752491
106	0x3d9132db	0.07089778
107	0x3d105c40	0.035244226
108	0xbd80cd4a	-0.06289156
109	0xbd549c48	-0.051906854
110	0xbc384012	-0.011245744
111	0x3d89ec56	0.06734531
112	0x3dacefd6	0.084441826
113	0xbd0d7180	-0.03453207
114	0xbef684ea	-0.4814828
115	0xbe404c86	-0.18779191
116	0x3f235565	0.63802177
117	0xbeccefd7	-0.40026733
118	0x3e94abde	0.29037374
119	0x3e9b1896	0.30292195
120	0x3e9f7580	0.31144333
121	0xbdded408	-0.108802855
122	0xbe59634a	-0.21229282
123	0xbe16b337	-0.14716803
124	0xbc99c30a	-0.01876976
125	0x3e1df160	0.15424109
126	0xbc4aa423	-0.012368235
127	0xbcb837fe	-0.022487637
128	0xbe026782	-0.12734798
129	0xbe511878	-0.2041949
130	0xbca442cf	-0.020051388
131	0xbe15c33f	-0.14625262
132	0xbe15e51e	-0.14638183
133	0x3c254054	0.010086138
134	0xbd382dca	-0.044965543
135	0xbce60274	-0.028077342
136	0x3d23cdd2	0.039991207
137	0xbd820625	-0.06348828
138	0x3bdf9600	0.0068233013
139	0x3b93507a	0.0044956775
140	0xbe4725d8	-0.1944803
141	0x3c37c9e0	0.011217564
142	0x3cd6a76d	0.026202882
143	0x3c54faaf	0.012999221
144	0xbd4f640f	-0.050632533
145	0xbe03f181	-0.12885095
146	0x3ebe5c8a	0.37179977
147	0xbdcc99f3	-0.09990301
148	0x3f106606	0.56405675
149	0xbed4af72	-0.41540104
150	0xbee1ef60	-0.4412794
151	0x3f0a2f8d	0.53978807
152	0xbf07b984	-0.5301745
153	0x3cb6de93	0.022322929
154	0x3d180fec	0.03712456
155	0xb9997c00	-0.0002927482
156	0x3e21637e	0.1576061
157	0x3c01305e	0.007885067
158	0xbcf3d1e0	-0.029763162
159	0xbe568384	-0.20948607
160	0xbe486e4e	-0.19573328
161	0xbece71c5	-0.40321174
162	0x3d996e67	0.07491761
163	0xbb12b9c6	-0.0022388562
164	0x3deae49d	0.11469386
165	0xbe80e774	-0.25176585
166	0xbe474683	-0.19460492
167	0x3d18c350	0.03729564
168	0xbccec7c3	-0.025241738
169	0xbc4d61ca	-0.012535522
170	0xbe14d0c3	-0.14532761
171	0x3d90d662	0.0707214
172	0x3dc12bfb	0.09432217
173	0x3d971461	0.07376934
174	0xbc8fd524	-0.017557688
175	0xbdc581c4	-0.096438915
176	0x3cf78089	0.030212658
177	0x3d3c8e9d	0.046034444
178	0x3e7f56b6	0.24935421
179	0x3d691ae4	0.05691041
180	0xbd84fbcb	-0.06493338
181	0x3e0b2bae	0.13590881
182	0x3cdca29d	0.026933009
183	0x3c1a812a	0.009430209
184	0x3caf265f	0.021380601
185	0x3ce29fb1	0.027664037
186	0x3c8940b0	0.016754478
187	0x3d3e3340	0.046435595
188	0xbdf7bc10	-0.12096417
189	0xbd97d483	-0.0741358
190	0xbe09b7ca	-0.13449016
191	0x3db4e535	0.0883278
192	0xbc1143c4	-0.008866254
193	0xbe680946	-0.22659788
194	0x3d7b989a	0.06142483
195	0x3d986d22	0.074426904
196	0x3bba3ccb	0.0056835166
197	0x3e9993fc	0.29995716
198	0xbe8a3e1c	-0.2700051
199	0xbdc74514	-0.097299725
200	0x3ccf14e5	0.025278518
201	0xbe0bdf09	-0.136593
202	0x3e0d96f7	0.1382712
203	0xbe0c4313	-0.13697462
204	0xbe19f4d6	-0.15034804
205	0x3db14172	0.08655061
206	0x3d9752a5	0.0738881
207	0x3e1e253e	0.15443894
208	0xbdd133fa	-0.10214992
209	0xbd55d3d8	-0.052203983
210	0xbca32818	-0.01991658
211	0x3e22bae6	0.15891609
212	0xbf1f3bca	-0.62200606
213	0xbe8e85da	-0.27836496
214	0xbf1d47a9	-0.6143747
215	0x3ea097ad	0.3136572
216	0xbed9fdbf	-0.42576405
217	0xbdd788b4	-0.10524121
218	0x3c8e28f2	0.017353509
219	0xbc434ed1	-0.011920647
220	0x3cd643f8	0.026155457
221	0x3db23762	0.0870197
222	0xbe002efb	-0.12517922
223	0x3d06a834	0.032875255
224	0xbe9cb4c1	-0.30606654
225	0xbeb794b3	-0.35855636
226	0xbf0b2ed2	-0.5436832
227	0xbc879c89	-0.016554134
228	0x3e3f83b9	0.18702592
229	0x3e1b32e0	0.15156126
230	0x3eb00d4c	0.34385145
231	0x3cbe8b41	0.02325976
232	0xbd1042b3	-0.03521986
233	0xbe113853	-0.14181642
234	0xbe868eef	-0.26280925
235	0xbe1f4d7e	-0.15556905
236	0xbdc49f0c	-0.09600648
237	0xbb9075c6	-0.004408571
238	0x3ceff0da	0.029289652
239	0xbc191e09	-0.00934554
240	0xbdac3f79	-0.08410544
241	0x3e280ab3	0.16410331
242	0x3e9a856f	0.30179927
243	0x3decc797	0.11561506
244	0x3d832a22	0.064045206
245	0xbd151f27	-0.036406662
246	0xbf6de9dc	-0.92934966
247	0xbe365905	-0.17807396
248	0xbf6b009f	-0.9179782
249	0x3dc9a3a4	0.09845665
250	0x3e19a326	0.15003642
251	0x3cdcd4ca	0.026956934
252	0xbde50e0b	-0.11184319
253	0x3dea3e9b	0.11437722
254	0xbda32806	-0.07966618
255	0x3ea72cf2	0.32651478

net_container.0.bias f4 [64]
0	0x3e12c7b7	0.14333998
1	0x3e5b8020	0.21435595
2	0x3e7454d9	0.23860492
3	0x3e81220b	0.25221285
4	0xba7fb763	-0.0009754805
5	0x3dfa7f59	0.12231321
6	0x3e68988c	0.22714442
7	0xbe263406	-0.16230783
8	0x3e2c367b	0.16817658
9	0xbea75669	-0.32683113
10	0xbda8c048	-0.082398
11	0x3e5e3bfd	0.21702571
12	0xbe81bf2e	-0.2534117
13	0xbea55ae8	-0.32295918
14	0x3e359237	0.17731558
15	0xbda23aeb	-0.07921394
16	0xbe1aaa1d	-0.15103956
17	0xbe92507b	-0.28577027
18	0x3db520cd	0.08844147
19	0xbe5a3f1e	-0.2131314
20	0xbeae2ac6	-0.3401701
21	0xbe28bc8f	-0.1647818
22	0x3cef0162	0.029175464
23	0x3db2ecb6	0.08736555
24	0x3e18f807	0.14938365
25	0xbefbbd02	-0.4916764
26	0x3e38980d	0.18026753
27	0x3ecad83c	0.396181
28	0xbe2119d2	-0.15732506
29	0xbcfeaadf	-0.031087337
30	0x3c80580e	0.015666988
31	0xbe6a1e42	-0.22863105
32	0xbe6e15ed	-0.23250552
33	0xbe473115	-0.19452317
34	0xbe61658d	-0.22011395
35	0xbe712caf	-0.23552202
36	0xbdf88a84	-0.12135795
37	0xbeb5fb08	-0.35543084
38	0x3d1c2682	0.03812266
39	0x3eae5c83	0.34054956
40	0x3e864e34	0.2623154
41	0x3eabbbc2	0.33541685
42	0xbed811f4	-0.42201197
43	0xbe8ce0a8	-0.2751515
44	0xbe5b4439	-0.21412744
45	0xbea0cf3f	-0.31408116
46	0x3df1ee30	0.11813009
47	0xbe2444bd	-0.16041847
48	0xbed9f2a2	-0.42567927
49	0xbc85b5e4	-0.016322084
50	0xbdf19a8a	-0.11797054
51	0x3db81da0	0.089900255
52	0xbe817a66	-0.25288695
53	0xbdf07e8c	-0.11742887
54	0xbe8ef525	-0.27921405
55	0xbd79b81d	-0.0609666
56	0xbc58c34b	-0.013230155
57	0xbe8ea5c0	-0.27860832
58	0xbecc2fb9	-0.3988016
59	0xbe9a3fda	-0.3012684
60	0xba762af7	-0.00093905575
61	0xbebc9560	-0.36832714
62	0x3a0773bd	0.00051670877
63	0xbe76fa15	-0.24118836

net_container.2.weight f4 [64, 64]
0	0x3e027737	0.1274079
1	0xbe456e40	-0.19280338
2	0xbcb12481	-0.021623852
3	0xbd8a892e	-0.06764446
4	0xbe4592fc	-0.19294351
5	0xbd4a462d	-0.04938333
6	0xbcb8426c	-0.02249261
7	0x3e2f70a8	0.17132819
8	0xbd28a73a	-0.041175105
9	0x3e8a696a	0.2703355
10	0x3dbfd411	0.0936662
11	0x3e5d8174	0.21631414
12	0x3d955a7d	0.0729265
13	0xbcf09f7d	-0.029372925
14	0x3e46d5bf	0.19417475
15	0xbe8034ba	-0.25040227
16	0xbcc2c153	-0.023773825
17	0xbdd16a25	-0.102253236
18	0xbd6b12a6	-0.05739083
19	0xbd21d318	-0.039507955
20	0xbd054d71	-0.032544557
21	0xbc4d32e9	-0.012524345
22	0xbe00d466	-0.12581024
23	0xbe712775	-0.23550208
24	0x3e9891d7	0.29798767
25	0x3db83915	0.089952625
26	0xbe985f13	-0.29760036
27	0xbe33a158	-0.17542017
28	0xbd003e6d	-0.031309534
29	0xbe5db6db	-0.21651785
30	0xbdf5c040	-0.119995594
31	0xbef8ea58	-0.4861629
32	0xbe4af866	-0.19821319
33	0x3ec344b2	0.38138348
34	0x3d19833b	0.037478667
35	0x3ddd8f7a	0.108183816
36	0x3dd48ef1	0.103788264
37	0xbe8c1aba	-0.2736414
38	0x3cb90f92	0.022590432
39	0xbc19f6db	-0.009397234
40	0xbd8f426e	-0.06995092
41	0x3d43cca7	0.047802594
42	0x3e6849a1	0.22684337
43	0x3e488aa5	0.19584139
44	0xbd111532	-0.035420604
45	0x3e041566	0.12898788
46	0xbe8549d3	-0.26032886
47	0x3e922c97	0.28549644
48	0xbe04cd23	-0.12968878
49	0xbd821f16	-0.063535854
50	0x3dae90ca	0.0852371
51	0xbd8f9d9c	-0.070124835
52	0x3c70ac20	0.014689475
53	0xbe27b5fd	-0.16378017
54	0xbc911395	-0.017709533
55	0x3d253eed	0.040343214
56	0xbe03ef60	-0.12884283
57	0x3d96ae70	0.0735749
58	0x3cc5bc1c	0.02413755
59	0x3e13fc9f	0.14451836
60	0xbe99f6c8	-0.30071092
61	0xbc9c5763	-0.019084638
62	0xbe5f3399	-0.21797027
63	0x3d85f637	0.065411024
64	0xbd1aa808	-0.037757903
65	0x3db752e8	0.0895136
66	0x3ccaf477	0.024774773
67	0x3dfecbef	0.12441241
68	0x3dfe38b1	0.12413157
69	0xbd795c50	-0.06087905
70	0x3d5d6b39	0.054057334
71	0xbea5e5e1	-0.32401946
72	0x3df70b53	0.12062707
73	0x3ca7f472	0.020502303
74	0xbef2492e	-0.47321457
75	0x3dc55e99	0.09637184
76	0x3d7a2f90	0.061080515
77	0xbdff5576	-0.12467472
78	0x3d47b5af	0.04875725
79	0x3ce693fc	0.028146736
80	0xbe2ed1e0	-0.17072248
81	0x3d38d522	0.045125134
82	0xbcb70370	-0.022340506
83	0xbdf4df45	-0.11956648
84	0xbe247d8b	-0.16063516
85	0x3e635f18	0.22204244
86	0xbcc3ec07	-0.023916258
87	0xbd69c639	-0.057073805
88	0x3dbef96a	0.09324916
89	0x3e97e652	0.29667908
90	0x3a7f9936	0.0009750308
91	0x3ca93be2	0.020658437
92	0x3d05463e	0.03253769
93	0x3dfea4e7	0.124337964
94	0xbeba7a9c	-0.3642167
95	0xbe3815df	-0.17977093
96	0x3e81d9db	0.25361523
97	0xbdd7db23	-0.10539844
98	0xbe79a407	-0.24378978
99	0x3bf0df94	0.0073508713
100	0xbe93a4be	-0.28836626
101	0x3d32f469	0.04369012
102	0xbd355442	-0.044269808
103	0x3e16f723	0.14742713
104	0x3e1d8560	0.1538291
105	0x3ddd9d71	0.10821045
106	0xbba332ca	-0.0049804198
107	0xbd1445ab	-0.036199253
108	0x3d4958e6	0.049157046
109	0xbe2b8f38	-0.16753852
110	0xbe0d9df6	-0.13829789
111	0xbd3e4c32	-0.046459384
112	0xbd83d402	-0.06436922
113	0xbde31139	-0.11087269
114	0xbcb32b3f	-0.021871207
115	0xbe34893b	-0.17630474
116	0xbe22a3ec	-0.15882844
117	0xbe807c62	-0.25094897
118	0x3d0ce620	0.03439915
119	0xbd02bc9f	-0.031918164
120	0x3dc87b7a	0.09789176
121	0x3dad9ef5	0.08477584
122	0xbe4b7707	-0.19869624
123	0xbe441305	-0.1914788
124	0xbc28590f	-0.0102751395
125	0xbe8dcd47	-0.27695677
126	0xbd2206ba	-0.039557196
127	0xbd986bfa	-0.0744247
128	0xbd89dd45	-0.06731657
129	0xbdefc000	-0.11706543
130	0xbe51f6e0	-0.20504332
131	0x3e6b71bb	0.22992603
132	0xbe257e82	-0.1616154
133	0x3d2496e3	0.04018296
134	0xbe989cfc	-0.2980727
135	0xbe01936d	-0.12653895
136	0xbe7e21e3	-0.24817614
137	0x3dd19b07	0.10234647
138	0xbc2884ec	-0.010285597
139	0xbdf494e4	-0.11942461
140	0xbe1b03a3	-0.15138106
141	0x3e43d222	0.19123128
142	0xbd4beb15	-0.04978474
143	0xbdc6409e	-0.096802935
144	0xbea48019	-0.3212898
145	0xbddc171b	-0.107465945
146	0x3d479b2f	0.04873198
147	0xbde207cf	-0.110366456
148	0x3de336be	0.110944256
149	0x3d6b9bf5	0.05752178
150	0xbe27c88b	-0.16385095
151	0x3e031a43	0.12802987
152	0xbca58457	-0.020204706
153	0x3d122bc7	0.03568628
154	0xbca56ae4	-0.020192571
155	0x3c49e054	0.01232155
156	0xbcc00fc5	-0.02344502
157	0xbdba4297	-0.09094732
158	0x3e0bba8c	0.1364538
159	0xbd9bf29d	-0.07614634
160	0xbd9b1f47	-0.07574325
161	0xbe4f3b1d	-0.20237394
162	0xbe0b7f48	-0.13622773
163	0x3cc5a661	0.024127187
164	0x3ddc27fc	0.10749814
165	0xbe1f2b44	-0.15543848
166	0xbdb4e07a	-0.08831878
167	0x3de9c2d7	0.11414116
168	0xbe263196	-0.16229853
169	0x3dab1e8c	0.08355436
170	0xbeaf0372	-0.34182316
171	0x3d308450	0.043094933
172	0xbdbfa3ed	-0.09357438
173	0x3e571028	0.21002257
174	0x3dc14adf	0.09438109
175	0xbc484ac5	-0.012224858
176	0xbceca303	-0.028886324
177	0x3d3b571b	0.045737367
178	0xbd9485be	-0.07252072
179	0xbe82e03e	-0.25561708
180	0xbe02e5b7	-0.12782942
181	0xbd7343c7	-0.05939081
182	0xbd9953d4	-0.07486692
183	0xbda1f125	-0.07907323
184	0xbde500de	-0.11181806
185	0x3d8f1824	0.06987026
186	0x3d15a066	0.03652992
187	0x3dc7799b	0.09739991
188	0xbdb183e1	-0.08667732
189	0x3dc18a4a	0.09450205
190	0x3e3b8b7d	0.1831493
191	0x3c796de0	0.01522395
192	0xbea029ad	-0.31281796
193	0x3e1465d8	0.14491975
194	0xbe663f53	-0.22485094
195	0x3d8fc1f7	0.07019418
196	0xbd055c7c	-0.032558903
197	0x3d7d8f2b	0.061904114
198	0x3dd8913e	0.10574578
199	0xbe99b9d7	-0.30024597
200	0xbe0a09e5	-0.13480337
201	0xbe9f9255	-0.3116633
202	0xbd465dcc	-0.048429295
203	0x3e1d5be5	0.15367086
204	0x3c3e5351	0.011616544
205	0x3cc420cb	0.023941418
206	0xbdbbe133	-0.09173813
207	0x3c406058	0.01174172
208	0xbebad6d6	-0.36492032
209	0xbe9a5044	-0.30139363
210	0x3d68f39e	0.056872956
211	0x3bb6b558	0.005575817
212	0x3d4fe875	0.050758798
213	0xbeace141	-0.33765605
214	0xbe319f72	-0.1734598
215	0xbc8d6901	-0.017261984
216	0xbd2a4583	-0.041570198
217	0xbe3d7ea8	-0.18505347
218	0xbd822d13	-0.063562535
219	0x3cb8db56	0.022565525
220	0xbd05ed53	-0.032697033
221	0x3d4cc248	0.04998997
222	0xbd78f65d	-0.060781825
223	0xbe3092f3	-0.17243557
224	0x3c2e2ea5	0.010631238
225	0xbe5d5d47	-0.21617614
226	0x3d4a448e	0.049381785
227	0xbe81dc69	-0.25363472
228	0x3e1c8df6	0.15288529
229	0xbbb1f213	-0.005430469
230	0x3d37ed2a	0.04490391
231	0x3d02c147	0.031922605
232	0xbe2e9335	-0.17048343
233	0xbd73fbe8	-0.05956641
234	0xbe80d7fd	-0.25164786
235	0xbd2a8c17	-0.041637506
236	0xbe06974d	-0.13143654
237	0xbc53d56c	-0.012929302
238	0x3d70f258	0.058824867
239	0xbe04a9a1	-0.12955333
240	0xbd80eac5	-0.06294779
241	0xbd6cca70	-0.057810247
242	0x3e878463	0.2646819
243	0xbeb46606	-0.35234088
244	0x3d4cc3b5	0.04999133
245	0xbe986fa6	-0.2977268
246	0xbe186258	-0.14881265
247	0xbeabf340	-0.33584023
248	0xbc14c41e	-0.009079961
249	0xbdbf60da	-0.09344645
250	0x3c1d764c	0.009610724
251	0xbe956e91	-0.29185918
252	0x3b2090d7	0.0024500394
253	0x3cd760fb	0.026291361
254	0x3c31b2df	0.010845869
255	0xbd54f068	-0.05198708

net_container.2.bias f4 [64]
0	0xbebb61b9	-0.36597994
1	0xbe460353	-0.19337206
2	0xbe5d4abf	-0.21610545
3	0xbe2387e7	-0.15969811
4	0xbe663a56	-0.22483191
5	0xbdf4a73a	-0.119459584
6	0xbe805f5d	-0.25072756
7	0x3d15dfb2	0.036590286
8	0xbea223fa	-0.31668073
9	0x3e11a21e	0.14221999
10	0xbe07dc79	-0.13267697
11	0x3d87ae5f	0.066250555
12	0xbebf4bc4	-0.37362492
13	0xbdfd6020	-0.1237185
14	0xbebe58be	-0.3717708
15	0x3e7f1fa9	0.24914421
16	0x3df06228	0.11737472
17	0xbe8ddbe2	-0.2770682
18	0x3cdbf1b4	0.026848651
19	0xbe573439	-0.21016015
20	0xbe97e640	-0.29667854
21	0xbe832bbb	-0.256193
22	0xbdb647bf	-0.08900403
23	0x3e360498	0.1777519
24	0x3db46085	0.08807472
25	0x3dd26382	0.10272886
26	0xbe18d90b	-0.14926545
27	0xbd5fd2e3	-0.054644477
28	0x3d4856eb	0.048911016
29	0x3cbe1822	0.023204867
30	0xbd7ed083	-0.06221057
31	0xbe7ba8c6	-0.245761
32	0x3e15e0cb	0.14636533
33	0x3e2ebc79	0.17064084
34	0x3dc0135b	0.09378692
35	0x3dce291f	0.10066437
36	0xbef2cb88	-0.47420907
37	0xbe9f03ec	-0.3105768
38	0xbdc9f535	-0.09861223
39	0xbde5aa6b	-0.11214145
40	0x3d774cca	0.060375966
41	0xbdc089b4	-0.09401265
42	0xbe8414d3	-0.25797138
43	0x3e4546ce	0.19265291
44	0xbec88882	-0.39166647
45	0x3bd709e9	0.0065624607
46	0xbe383bf2	-0.17991617
47	0x3e87750e	0.26456493
48	0xbe6f350e	-0.23360083
49	0x3e499544	0.19685847
50	0x3cf99adc	0.03046935
51	0xbd2870ba	-0.04112313
52	0x3e7c2f01	0.24627306
53	0xbe9959c4	-0.29951298
54	0xbe660704	-0.22463614
55	0x3e11b309	0.14228453
56	0xbed24e46	-0.41075343
57	0xbd79ac9d	-0.060955632
58	0xbdafaf14	-0.085783154
59	0xbbaa67ed	-0.005200377
60	0xbe1f62d7	-0.15565048
61	0xbed5a9b6	-0.41731042
62	0xbecdd9e5	-0.40205303
63	0xbd06fc20	-0.03295529

policy_layer.weight f4 [7, 64]
0	0x3e8566ae	0.260549
1	0xbcd7383d	-0.026271934
2	0xbd9a0661	-0.07520748
3	0xbe02776c	-0.12740868
4	0xbd199a32	-0.037500568
5	0xbb1bf5cb	-0.0023797627
6	0xbd33842a	-0.043827213
7	0x3d3edf16	0.04659947
8	0xbd8309c2	-0.063983455
9	0x3e1a1a12	0.15049008
10	0x3e439455	0.19099553
11	0x3dc41b0d	0.09575472
12	0xbd10e64d	-0.035375882
13	0xbe603f82	-0.21899226
14	0xbc81a45f	-0.015825449
15	0xbd548e3e	-0.051893465
16	0xbd85dd21	-0.065363176
17	0xbd6b102d	-0.057388473
18	0x3c56d392	0.013111966
19	0x3e1668b5	0.1468838
20	0xbde5c4a9	-0.112191506
21	0xbdc981ca	-0.098392084
22	0x3e04892a	0.12942949
23	0x385c62b6	5.254402e-05
24	0x3d4bae06	0.04972651
25	0xbe8b56ae	-0.2721457
26	0xbe0b5907	-0.1360818
27	0xbb7711de	-0.0037699859
28	0xbe31958f	-0.17342208
29	0x3db7cf1b	0.08975049
30	0xbc13d0fe	-0.009021996
31	0xbcd7518c	-0.026284002
32	0xbcd006fa	-0.025393952
33	0x3df632e6	0.12021427
34	0x3dfcd4f3	0.12345304
35	0xbe0e68e2	-0.13907197
36	0x3d19ec18	0.037578672
37	0x3cf7f8b7	0.030269964
38	0xbd8fb7d2	-0.07017483
39	0xbe9c614a	-0.30542976
40	0x3dd2dc47	0.10295921
41	0xbdd752cb	-0.105138384
42	0xbcd32783	-0.025775677
43	0xbd0d931d	-0.034564126
44	0xbe2693bd	-0.16267295
45	0xbdf01e6a	-0.11724551
46	0xbd7515af	-0.059835132
47	0x3dcea68c	0.1009036
48	0x3dadf03d	0.084930874
49	0xbbe425ac	-0.0069624986
50	0xbd94d145	-0.072664775
51	0x3c7aa112	0.015297191
52	0xbd6b2f17	-0.057417955
53	0x3d6b426f	0.057436403
54	0x3bba46c7	0.005684707
55	0xbe16f1a8	-0.14740622
56	0x3e89c140	0.2690525
57	0x3dc95341	0.098303325
58	0x3c2a9075	0.010410418
59	0xbda6bc96	-0.08141439
60	0xbbbdc618	-0.005791437
61	0xbd2981fb	-0.041383725
62	0x3e916d88	0.28403878
63	0xbe1cd336	-0.15314946
64	0xbd59e845	-0.053200025
65	0xbcadfc85	-0.021238575
66	0xbe5f6f05	-0.21819694
67	0xbdffc528	-0.124887764
68	0xbdccd90b	-0.10002335
69	0x3c206ae0	0.009791106
70	0x3d5af7c1	0.053458933
71	0xbb60d2df	-0.0034305376
72	0xbcb6b32c	-0.022302233
73	0x3de0cb5b	0.10976287
74	0xbd16e6f0	-0.036841333
75	0x3d90c4af	0.070687644
76	0xbc21b86a	-0.009870628
77	0x3dbef39f	0.09323811
78	0x3d6e5d16	0.058194242
79	0xbd5fdd7d	-0.054654587
80	0xbbf1ba3c	-0.007376937
81	0x3d2c0d67	0.04200497
82	0xbc7b25d7	-0.015328846
83	0xbd383957	-0.04497656
84	0xbd7c30e2	-0.061570056
85	0xbe5375fb	-0.20650475
86	0x3d91b04c	0.07113704
87	0x3dbc7b63	0.09203222
88	0x3d4eeea2	0.050520547
89	0xbd682074	-0.056671575
90	0xbc12d1ed	-0.008961183
91	0xbe1a492b	-0.15066974
92	0x3cb3587e	0.021892782
93	0x3d9b5c89	0.07586009
94	0xbe628783	-0.22122006
95	0xbe5f60ca	-0.21814266
96	0x3d6b8a61	0.057505015
97	0x3dc5c29a	0.09656258
98	0x3de8c4a1	0.11365629
99	0x3d4d736d	0.050158907
100	0xbce7bd55	-0.028288523
101	0xbd917c5f	-0.071038
102	0x3e66accd	0.22526856
103	0xbbfaf733	-0.007658863
104	0x3e37a9de	0.17935893
105	0xba95b6ec	-0.0011422313
106	0x3df5b88c	0.1199809
107	0x3e15c4b8	0.14625823
108	0x3d8859a4	0.066577226
109	0x3e0cbf1a	0.13744774
110	0x3dff4e93	0.12466159
111	0x3b521c3e	0.003206029
112	0xbc2b8d05	-0.010470633
113	0x3d8b70d4	0.0680863
114	0x3dc6ae39	0.09701199
115	0x3c9a0e43	0.018805629
116	0xbd433c9f	-0.047665235
117	0xbda8a827	-0.082351975
118	0xbd138a53	-0.036020588
119	0x3df74c43	0.12075093
120	0xbdc95ff8	-0.09832758
121	0xbd47b1be	-0.048753493
122	0xbc7300af	-0.014831706
123	0xbd1b7c8b	-0.03796057
124	0xbd442da5	-0.047895093
125	0x3b1d94fb	0.0024045098
126	0xbe237a24	-0.15964562
127	0xbd865793	-0.06559672
128	0x3e85c102	0.26123816
129	0x3de509dd	0.11183522
130	0xbc013e10	-0.007888332
131	0xbdb1b100	-0.08676338
132	0x3d01b804	0.03166963
133	0xbd6a7e52	-0.057249375
134	0xbbb6c2ed	-0.005577436
135	0x3df03c0c	0.11730203
136	0x3d65fa0f	0.056146678
137	0x3ac85758	0.001528482
138	0x3e15d19e	0.14630744
139	0xbbee42b4	-0.007271135
140	0xbcd9823d	-0.02655136
141	0xbe8a3d2f	-0.26999804
142	0xbd3fe984	-0.046853557
143	0xbe0f9a74	-0.14023763
144	0x3d58f794	0.052970484
145	0xbdeffcbc	-0.11718127
146	0xbe21f9c8	-0.1581794
147	0x3e09a24c	0.13440818
148	0xbd2c6307	-0.042086627
149	0x3cc2a708	0.023761287
150	0xbdfba2de	-0.12286924
151	0x3d21afa8	0.03947416
152	0xbc343078	-0.010997884
153	0xbde0a590	-0.109690785
154	0xbe0a829b	-0.13526385
155	0x3da6da51	0.08147109
156	0x3db78c8f	0.08962356
157	0xbe2acbbb	-0.1667928
158	0x3b895052	0.004190483
159	0xbd2e766c	-0.042593405
160	0xbd1bdf1b	-0.038054567
161	0x3d55f175	0.052232224
162	0x3e668953	0.22513323
163	0x3d989d8a	0.07451923
164	0x3d7bf537	0.061513152
165	0x3e336e73	0.17522602
166	0xbd52404a	-0.051330842
167	0xbe763b02	-0.24045947
168	0x3e5180b0	0.20459247
169	0xbd5de6c0	-0.05417514
170	0x3bc1922d	0.005907318
171	0x3e2e0779	0.16995038
172	0xbdf0fd2e	-0.1176704
173	0x3d6c70c7	0.05772474
174	0x3c97bbae	0.01852211
175	0xbd6fa365	-0.058505435
176	0xbe1ab724	-0.15108925
177	0xbd99bc1d	-0.07506583
178	0x3cf46b52	0.02983633
179	0xbdcc43b2	-0.09973849
180	0x3d715e66	0.058927916
181	0xbdcc9a33	-0.09990349
182	0xbde47662	-0.11155392
183	0xbda81a68	-0.082081616
184	0x3e23d370	0.15998626
185	0x3e28f37c	0.16499132
186	0x3cd4fa26	0.025998186
187	0xbd498b1e	-0.049204938
188	0xbdaf3a8c	-0.08556089
189	0xbbff6599	-0.007794094
190	0xbda211e6	-0.0791357
191	0xbe14811a	-0.14502373
192	0xbda90221	-0.08252359
193	0x3d6783f8	0.05652234
194	0x3d9e7b5a	0.07738371
195	0xbcecf33c	-0.028924577
196	0xbdd878ab	-0.105698906
197	0xbe4b96c4	-0.19881731
198	0xbe96baee	-0.2943949
199	0xbbb6f24a	-0.0055830823
200	0xbe3d90de	-0.18512294
201	0xbc23cde7	-0.009997821
202	0x3d3f365c	0.0466827
203	0x3d46eed4	0.048567608
204	0xbdf35ede	-0.11883329
205	0xbe184efe	-0.14873883
206	0xbe32e32e	-0.17469475
207	0x3cdb1815	0.026744882
208	0x3d03a663	0.0321411
209	0xbc7d2b45	-0.015452211
210	0x3e07d2a6	0.1326395
211	0xbe0fa3f0	-0.14027381
212	0xbd750e3c	-0.059828028
213	0xbd1ed901	-0.03878117
214	0xbba02300	-0.004886985
215	0x3ddc324f	0.10751783
216	0xbd4f4fea	-0.05061332
217	0xbe2683d0	-0.1626122
218	0xbe9784d4	-0.29593527
219	0xbdf87736	-0.12132113
220	0x3d369944	0.04457976
221	0x3e3b60ca	0.18298641
222	0xbcb5d9c3	-0.022198563
223	0x3e4f016d	0.20215388
224	0x3d9956ae	0.07487236
225	0x3de22412	0.11042036
226	0xbdcedfe4	-0.101012975
227	0x3ca1d49d	0.019754702
228	0xbcc28f66	-0.023750018
229	0xbdf248e7	-0.11830311
230	0x3d6c59d8	0.05770287
231	0xbceeb4eb	-0.029139003
232	0x3d85eca7	0.065392785
233	0xbdc4c65a	-0.09608145
234	0xbe395f48	-0.18102753
235	0xbac63113	-0.0015120826
236	0x3cc61942	0.024181966
237	0x3df7bda2	0.120967165
238	0xbcdd1089	-0.026985424
239	0x3d26b203	0.04069711
240	0x3d161588	0.036641628
241	0xbceb3bd8	-0.02871506
242	0x3e1ed725	0.15511759
243	0x3d56442b	0.052311104
244	0x3d9368e8	0.07197744
245	0xbdbedd60	-0.09319568
246	0x3da6cc9f	0.08144497
247	0x3dabd31c	0.08389875
248	0xbe1524b7	-0.14564787
249	0xbd8f57c4	-0.06999162
250	0x3d84ae12	0.06478514
251	0x3bc5b5d7	0.00603364
252	0xbd861ede	-0.06548856
253	0xbe07f906	-0.13278589
254	0xbe72200d	-0.23645039
255	0x3aaf0b6c	0.0013354844

policy_layer.bias f4 [7]
0	0x3d187582	0.03722144
1	0x3da1ceeb	0.079007946
2	0xbccbfcbd	-0.024900788
3	0x3e93cba1	0.28866294
4	0xbd329438	-0.043598384
5	0xbe1427aa	-0.14468256
6	0x3d617394	0.055041865

value_layer.weight f4 [1, 64]
0	0xbaf689b3	-0.0018809348
1	0x3cb86bcf	0.022512345
2	0x3b8aaa4e	0.0042317277
3	0xbdbaf348	-0.091284335
4	0x3d2d2ef1	0.042281095
5	0xbd5fdbc9	-0.054652963
6	0x3dac4f74	0.08413592
7	0xbda44d8f	-0.08022606
8	0xbdaab076	-0.083344385
9	0xbd2eeb08	-0.042704612
10	0x3dc7b33d	0.09750984
11	0xbd773674	-0.060354665
12	0xbe044424	-0.12916619
13	0x3dd1d5d3	0.10245862
14	0x3ce2c057	0.027679605
15	0xbc6c1b74	-0.014410842
16	0xbded9e58	-0.11602467
17	0xbce28a72	-0.027653906
18	0xbd120e37	-0.035658088
19	0xbcfa1f18	-0.030532405
20	0x3e135b72	0.14390352
21	0x3dbeb2a3	0.09311416
22	0x3d820987	0.063494734
23	0xbd2d5a12	-0.042322226
24	0xbdbb232b	-0.09137567
25	0xbd024b9b	-0.031810384
26	0xbd2d8c43	-0.042370092
27	0x3d48b5ec	0.04900162
28	0x3bdbf995	0.006713102
29	0xbd5f27f1	-0.05448145
30	0xbdd43554	-0.10361734
31	0x3c99d008	0.018775955
32	0xbd21ed24	-0.039532796
33	0x3d0b9cc3	0.034085046
34	0x3c9cdc23	0.019147938
35	0x3d6f0ef7	0.05836388
36	0x3d93d628	0.072185814
37	0xbe0de238	-0.13855827
38	0x3c6733b4	0.014111448
39	0xbdb96028	-0.090515435
40	0x3d61617b	0.055024605
41	0x3d2e672f	0.042578872
42	0xbd7582ad	-0.059939075
43	0x3e03cf1a	0.12871972
44	0x39e0d5d1	0.00042883915
45	0x3c9df29a	0.01928072
46	0xbe0bffdf	-0.13671826
47	0xbc14f14d	-0.009090734
48	0x3e0984ee	0.13429615
49	0x3c9a5935	0.018841365
50	0xbd94552c	-0.07242808
51	0xbccdfde0	-0.025145471
52	0x3db0012e	0.08593975
53	0xbd3d73e3	-0.046253096
54	0xbc6dd42c	-0.014515918
55	0xbc187a09	-0.009306439
56	0xbd74c6ad	-0.059759784
57	0xbd2144bb	-0.039372187
58	0xbdc2631e	-0.09491561
59	0xbd074f64	-0.033034697
60	0x3c0b5d2a	0.008506099
61	0xbd2abd32	-0.041684337
62	0xbd7e1501	-0.06203175
63	0xbd844d89	-0.06460101

log_std_parameter f4 [7]
0	0xc036c042	-2.8554845
1	0xc02b864c	-2.6800718
2	0xc03b4a50	-2.9264107
3	0xc034dd7a	-2.8260179
4	0xc02f1ed2	-2.7362561
5	0xc039ec8b	-2.9050624
6	0xc0242f60	-2.5653915

net_container.0.weight f4 [64, 32]
0	0xbecebf35	-0.40380254
1	0x3e0dc6d4	0.13845378
2	0xbec4c38d	-0.38430443
3	0xbe0d1189	-0.1377622
4	0x3d5bbe3e	0.053648226
5	0xbd87a995	-0.06624142
6	0x3e8f7304	0.28017437
7	0xbc187fa8	-0.009307779
8	0x3cf1fb9a	0.029538918
9	0xbe209fc4	-0.15685946
10	0x3e323584	0.17403227
11	0xbe6a4d83	-0.22881131
12	0x3caf0199	0.021363067
13	0x3d40ee31	0.047102157
14	0xbc8365d5	-0.016039768
15	0xbe302cfe	-0.17204663
16	0x3e06c608	0.1316148
17	0xbd39d17a	-0.045365788
18	0x3ea614ce	0.32437748
19	0x3e148a8d	0.14505978
20	0x3db72c72	0.08944024
21	0x3eb19620	0.3468485
22	0xbe6f4283	-0.23365216
23	0xbe80645c	-0.25076568
24	0xbe2b4d26	-0.16728649
25	0xbd217afe	-0.039423935
26	0x3d90f721	0.07078386
27	0x3d11abdc	0.03556429
28	0x3d830d78	0.06399053
29	0xbdd7335a	-0.105078414
30	0xbd9a8bae	-0.07546173
31	0xbe1e00f1	-0.15430047
32	0xbdaa6822	-0.08320643
33	0xbe7ea762	-0.24868539
34	0xbe844a24	-0.25837815
35	0xbe78134c	-0.24226111
36	0xbd02774e	-0.03185206
37	0xbd17df21	-0.037078027
38	0xbe0e9214	-0.13922912
39	0x3ad0e559	0.0015937492
40	0xbc3c7b6d	-0.011504036
41	0xbb9c0c47	-0.0047622058
42	0xbe044137	-0.12915502
43	0x3c349b81	0.011023403
44	0x3d51601a	0.05111704
45	0x3df5367c	0.11973283
46	0xbddb986f	-0.10722434
47	0xbdf62c66	-0.12020187
48	0xbd3940a7	-0.045227673
49	0xbdb25bfc	-0.08708951
50	0xbe082088	-0.1329366
51	0x3d7d1762	0.061789878
52	0xbeb00755	-0.34380594
53	0xbec6a29e	-0.38795942
54	0xbf112476	-0.5669626
55	0x3eacc954	0.3374735
56	0xbf27a660	-0.65488243
57	0x3e8b1c52	0.27170044
58	0xbd69a9d4	-0.057046726
59	0xbd46adef	-0.04850572
60	0xbdc624d6	-0.09674995
61	0xbd9ad83a	-0.07560773
62	0x3d91e33f	0.07123422
63	0xbcb1467a	-0.021640051
64	0xbe59bd4f	-0.21263622
65	0xbe0159ce	-0.12631914
66	0xbe866fe4	-0.2625724
67	0x3e7ca34f	0.24671672
68	0xbd0d1653	-0.03444512
69	0x3dd775af	0.10520493
70	0x3e269a71	0.16269852
71	0x3e0a4921	0.13504459
72	0xbc6c0be2	-0.01440713
73	0xbdadf660	-0.08494258
74	0xbe3875d5	-0.180137
75	0x3dfaae19	0.12240238
76	0x3e0dd747	0.13851653
77	0xbd453ddd	-0.0481547
78	0xbd62914b	-0.055314343
79	0xbbf8789f	-0.0075827385
80	0x3db60930	0.08888471
81	0xbd0a782d	-0.033806015
82	0x3e99f5db	0.30070385
83	0x3ee42dce	0.44566196
84	0xbf0dbf77	-0.5537028
85	0xbe871e91	-0.26390508
86	0xbc42a17b	-0.01187932
87	0x3e05333e	0.13007829
88	0xbdae5f9f	-0.08514332
89	0xbcab4b36	-0.020909887
90	0xbd4c941c	-0.049945936
91	0x3d0f20b1	0.034943286
92	0xbd34f7c9	-0.04418162
93	0x3dd9a0a7	0.10626345
94	0xbdd4fbbd	-0.10399578
95	0x3cbd74d8	0.023127005
96	0x3dd72084	0.10504249
97	0xbe3f84e3	-0.18703036
98	0xbdd6d96f	-0.10490691
99	0xbe831fdf	-0.25610253
100	0x3e1031e8	0.14081538
101	0x3e320f25	0.1738859
102	0xbddbf0f1	-0.10739315
103	0x3c33cb84	0.010973815
104	0x3d09f0a0	0.033676744
105	0xbc50efd3	-0.012752491
106	0x3d9132db	0.07089778
107	0x3d105c40	0.035244226
108	0xbd80cd4a	-0.06289156
109	0xbd549c48	-0.051906854
110	0xbc384012	-0.011245744
111	0x3d89ec56	0.06734531
112	0x3dacefd6	0.084441826
113	0xbd0d7180	-0.03453207
114	0xbef684ea	-0.4814828
115	0xbe404c86	-0.18779191
116	0x3f235565	0.63802177
117	0xbeccefd7	-0.40026733
118	0x3e94abde	0.29037374
119	0x3e9b1896	0.30292195
120	0x3e9f7580	0.31144333
121	0xbdded408	-0.108802855
122	0xbe59634a	-0.21229282
123	0xbe16b337	-0.14716803
124	0xbc99c30a	-0.01876976
125	0x3e1df160	0.15424109
126	0xbc4aa423	-0.012368235
127	0xbcb837fe	-0.022487637
128	0xbe026782	-0.12734798
129	0xbe511878	-0.2041949
130	0xbca442cf	-0.020051388
131	0xbe15c33f	-0.14625262
132	0xbe15e51e	-0.14638183
133	0x3c254054	0.010086138
134	0xbd382dca	-0.044965543
135	0xbce60274	-0.028077342
136	0x3d23cdd2	0.039991207
137	0xbd820625	-0.06348828
138	0x3bdf9600	0.0068233013
139	0x3b93507a	0.0044956775
140	0xbe4725d8	-0.1944803
141	0x3c37c9e0	0.011217564
142	0x3cd6a76d	0.026202882
143	0x3c54faaf	0.012999221
144	0xbd4f640f	-0.050632533
145	0xbe03f181	-0.12885095
146	0x3ebe5c8a	0.37179977
147	0xbdcc99f3	-0.09990301
148	0x3f106606	0.56405675
149	0xbed4af72	-0.41540104
150	0xbee1ef60	-0.4412794
151	0x3f0a2f8d	0.53978807
152	0xbf07b984	-0.5301745
153	0x3cb6de93	0.022322929
154	0x3d180fec	0.03712456
155	0xb9997c00	-0.0002927482
156	0x3e21637e	0.1576061
157	0x3c01305e	0.007885067
158	0xbcf3d1e0	-0.029763162
159	0xbe568384	-0.20948607
160	0xbe486e4e	-0.19573328
161	0xbece71c5	-0.40321174
162	0x3d996e67	0.07491761
163	0xbb12b9c6	-0.0022388562
164	0x3deae49d	0.11469386
165	0xbe80e774	-0.25176585
166	0xbe474683	-0.19460492
167	0x3d18c350	0.03729564
168	0xbccec7c3	-0.025241738
169	0xbc4d61ca	-0.012535522
170	0xbe14d0c3	-0.14532761
171	0x3d90d662	0.0707214
172	0x3dc12bfb	0.09432217
173	0x3d971461	0.07376934
174	0xbc8fd524	-0.017557688
175	0xbdc581c4	-0.096438915
176	0x3cf78089	0.030212658
177	0x3d3c8e9d	0.046034444
178	0x3e7f56b6	0.24935421
179	0x3d691ae4	0.05691041
180	0xbd84fbcb	-0.06493338
181	0x3e0b2bae	0.13590881
182	0x3cdca29d	0.026933009
183	0x3c1a812a	0.009430209
184	0x3caf265f	0.021380601
185	0x3ce29fb1	0.027664037
186	0x3c8940b0	0.016754478
187	0x3d3e3340	0.046435595
188	0xbdf7bc10	-0.12096417
189	0xbd97d483	-0.0741358
190	0xbe09b7ca	-0.13449016
191	0x3db4e535	0.0883278
192	0xbc1143c4	-0.008866254
193	0xbe680946	-0.22659788
194	0x3d7b989a	0.06142483
195	0x3d986d22	0.074426904
196	0x3bba3ccb	0.0056835166
197	0x3e9993fc	0.29995716
198	0xbe8a3e1c	-0.2700051
199	0xbdc74514	-0.097299725
200	0x3ccf14e5	0.025278518
201	0xbe0bdf09	-0.136593
202	0x3e0d96f7	0.1382712
203	0xbe0c4313	-0.13697462
204	0xbe19f4d6	-0.15034804
205	0x3db14172	0.08655061
206	0x3d9752a5	0.0738881
207	0x3e1e253e	0.15443894
208	0xbdd133fa	-0.10214992
209	0xbd55d3d8	-0.052203983
210	0xbca32818	-0.01991658
211	0x3e22bae6	0.15891609
212	0xbf1f3bca	-0.62200606
213	0xbe8e85da	-0.27836496
214	0xbf1d47a9	-0.6143747
215	0x3ea097ad	0.3136572
216	0xbed9fdbf	-0.42576405
217	0xbdd788b4	-0.10524121
218	0x3c8e28f2	0.017353509
219	0xbc434ed1	-0.011920647
220	0x3cd643f8	0.026155457
221	0x3db23762	0.0870197
222	0xbe002efb	-0.12517922
223	0x3d06a834	0.032875255
224	0xbe9cb4c1	-0.30606654
225	0xbeb794b3	-0.35855636
226	0xbf0b2ed2	-0.5436832
227	0xbc879c89	-0.016554134
228	0x3e3f83b9	0.18702592
229	0x3e1b32e0	0.15156126
230	0x3eb00d4c	0.34385145
231	0x3cbe8b41	0.02325976
232	0xbd1042b3	-0.03521986
233	0xbe113853	-0.14181642
234	0xbe868eef	-0.26280925
235	0xbe1f4d7e	-0.15556905
236	0xbdc49f0c	-0.09600648
237	0xbb9075c6	-0.004408571
238	0x3ceff0da	0.029289652
239	0xbc191e09	-0.00934554
240	0xbdac3f79	-0.08410544
241	0x3e280ab3	0.16410331
242	0x3e9a856f	0.30179927
243	0x3decc797	0.11561506
244	0x3d832a22	0.064045206
245	0xbd151f27	-0.036406662
246	0xbf6de9dc	-0.92934966
247	0xbe365905	-0.17807396
248	0xbf6b009f	-0.9179782
249	0x3dc9a3a4	0.09845665
250	0x3e19a326	0.15003642
251	0x3cdcd4ca	0.026956934
252	0xbde50e0b	-0.11184319
253	0x3dea3e9b	0.11437722
254	0xbda32806	-0.07966618
255	0x3ea72cf2	0.32651478

net_container.0.bias f4 [64]
0	0x3e12c7b7	0.14333998
1	0x3e5b8020	0.21435595
2	0x3e7454d9	0.23860492
3	0x3e81220b	0.25221285
4	0xba7fb763	-0.0009754805
5	0x3dfa7f59	0.12231321
6	0x3e68988c	0.22714442
7	0xbe263406	-0.16230783
8	0x3e2c367b	0.16817658
9	0xbea75669	-0.32683113
10	0xbda8c048	-0.082398
11	0x3e5e3bfd	0.21702571
12	0xbe81bf2e	-0.2534117
13	0xbea55ae8	-0.32295918
14	0x3e359237	0.17731558
15	0xbda23aeb	-0.07921394
16	0xbe1aaa1d	-0.15103956
17	0xbe92507b	-0.28577027
18	0x3db520cd	0.08844147
19	0xbe5a3f1e	-0.2131314
20	0xbeae2ac6	-0.3401701
21	0xbe28bc8f	-0.1647818
22	0x3cef0162	0.029175464
23	0x3db2ecb6	0.08736555
24	0x3e18f807	0.14938365
25	0xbefbbd02	-0.4916764
26	0x3e38980d	0.18026753
27	0x3ecad83c	0.396181
28	0xbe2119d2	-0.15732506
29	0xbcfeaadf	-0.031087337
30	0x3c80580e	0.015666988
31	0xbe6a1e42	-0.22863105
32	0xbe6e15ed	-0.23250552
33	0xbe473115	-0.19452317
34	0xbe61658d	-0.22011395
35	0xbe712caf	-0.23552202
36	0xbdf88a84	-0.12135795
37	0xbeb5fb08	-0.35543084
38	0x3d1c2682	0.03812266
39	0x3eae5c83	0.34054956
40	0x3e864e34	0.2623154
41	0x3eabbbc2	0.33541685
42	0xbed811f4	-0.42201197
43	0xbe8ce0a8	-0.2751515
44	0xbe5b4439	-0.21412744
45	0xbea0cf3f	-0.31408116
46	0x3df1ee30	0.11813009
47	0xbe2444bd	-0.16041847
48	0xbed9f2a2	-0.42567927
49	0xbc85b5e4	-0.016322084
50	0xbdf19a8a	-0.11797054
51	0x3db81da0	0.089900255
52	0xbe817a66	-0.25288695
53	0xbdf07e8c	-0.11742887
54	0xbe8ef525	-0.27921405
55	0xbd79b81d	-0.0609666
56	0xbc58c34b	-0.013230155
57	0xbe8ea5c0	-0.27860832
58	0xbecc2fb9	-0.3988016
59	0xbe9a3fda	-0.3012684
60	0xba762af7	-0.00093905575
61	0xbebc9560	-0.36832714
62	0x3a0773bd	0.00051670877
63	0xbe76fa15	-0.24118836

net_container.2.weight f4 [64, 64]
0	0x3e027737	0.1274079
1	0xbe456e40	-0.19280338
2	0xbcb12481	-0.021623852
3	0xbd8a892e	-0.06764446
4	0xbe4592fc	-0.19294351
5	0xbd4a462d	-0.04938333
6	0xbcb8426c	-0.02249261
7	0x3e2f70a8	0.17132819
8	0xbd28a73a	-0.041175105
9	0x3e8a696a	0.2703355
10	0x3dbfd411	0.0936662
11	0x3e5d8174	0.21631414
12	0x3d955a7d	0.0729265
13	0xbcf09f7d	-0.029372925
14	0x3e46d5bf	0.19417475
15	0xbe8034ba	-0.25040227
16	0xbcc2c153	-0.023773825
17	0xbdd16a25	-0.102253236
18	0xbd6b12a6	-0.05739083
19	0xbd21d318	-0.039507955
20	0xbd054d71	-0.032544557
21	0xbc4d32e9	-0.012524345
22	0xbe00d466	-0.12581024
23	0xbe712775	-0.23550208
24	0x3e9891d7	0.29798767
25	0x3db83915	0.089952625
26	0xbe985f13	-0.29760036
27	0xbe33a158	-0.17542017
28	0xbd003e6d	-0.031309534
29	0xbe5db6db	-0.21651785
30	0xbdf5c040	-0.119995594
31	0xbef8ea58	-0.4861629
32	0xbe4af866	-0.19821319
33	0x3ec344b2	0.38138348
34	0x3d19833b	0.037478667
35	0x3ddd8f7a	0.108183816
36	0x3dd48ef1	0.103788264
37	0xbe8c1aba	-0.2736414
38	0x3cb90f92	0.022590432
39	0xbc19f6db	-0.009397234
40	0xbd8f426e	-0.06995092
41	0x3d43cca7	0.047802594
42	0x3e6849a1	0.22684337
43	0x3e488aa5	0.19584139
44	0xbd111532	-0.035420604
45	0x3e041566	0.12898788
46	0xbe8549d3	-0.26032886
47	0x3e922c97	0.28549644
48	0xbe04cd23	-0.12968878
49	0xbd821f16	-0.063535854
50	0x3dae90ca	0.0852371
51	0xbd8f9d9c	-0.070124835
52	0x3c70ac20	0.014689475
53	0xbe27b5fd	-0.16378017
54	0xbc911395	-0.017709533
55	0x3d253eed	0.040343214
56	0xbe03ef60	-0.12884283
57	0x3d96ae70	0.0735749
58	0x3cc5bc1c	0.02413755
59	0x3e13fc9f	0.14451836
60	0xbe99f6c8	-0.30071092
61	0xbc9c5763	-0.019084638
62	0xbe5f3399	-0.21797027
63	0x3d85f637	0.065411024
64	0xbd1aa808	-0.037757903
65	0x3db752e8	0.0895136
66	0x3ccaf477	0.024774773
67	0x3dfecbef	0.12441241
68	0x3dfe38b1	0.12413157
69	0xbd795c50	-0.06087905
70	0x3d5d6b39	0.054057334
71	0xbea5e5e1	-0.32401946
72	0x3df70b53	0.12062707
73	0x3ca7f472	0.020502303
74	0xbef2492e	-0.47321457
75	0x3dc55e99	0.09637184
76	0x3d7a2f90	0.061080515
77	0xbdff5576	-0.12467472
78	0x3d47b5af	0.04875725
79	0x3ce693fc	0.028146736
80	0xbe2ed1e0	-0.17072248
81	0x3d38d522	0.045125134
82	0xbcb70370	-0.022340506
83	0xbdf4df45	-0.11956648
84	0xbe247d8b	-0.16063516
85	0x3e635f18	0.22204244
86	0xbcc3ec07	-0.023916258
87	0xbd69c639	-0.057073805
88	0x3dbef96a	0.09324916
89	0x3e97e652	0.29667908
90	0x3a7f9936	0.0009750308
91	0x3ca93be2	0.020658437
92	0x3d05463e	0.03253769
93	0x3dfea4e7	0.124337964
94	0xbeba7a9c	-0.3642167
95	0xbe3815df	-0.17977093
96	0x3e81d9db	0.25361523
97	0xbdd7db23	-0.10539844
98	0xbe79a407	-0.24378978
99	0x3bf0df94	0.0073508713
100	0xbe93a4be	-0.28836626
101	0x3d32f469	0.04369012
102	0xbd355442	-0.044269808
103	0x3e16f723	0.14742713
104	0x3e1d8560	0.1538291
105	0x3ddd9d71	0.10821045
106	0xbba332ca	-0.0049804198
107	0xbd1445ab	-0.036199253
108	0x3d4958e6	0.049157046
109	0xbe2b8f38	-0.16753852
110	0xbe0d9df6	-0.13829789
111	0xbd3e4c32	-0.046459384
112	0xbd83d402	-0.06436922
113	0xbde31139	-0.11087269
114	0xbcb32b3f	-0.021871207
115	0xbe34893b	-0.17630474
116	0xbe22a3ec	-0.15882844
117	0xbe807c62	-0.25094897
118	0x3d0ce620	0.03439915
119	0xbd02bc9f	-0.031918164
120	0x3dc87b7a	0.09789176
121	0x3dad9ef5	0.08477584
122	0xbe4b7707	-0.19869624
123	0xbe441305	-0.1914788
124	0xbc28590f	-0.0102751395
125	0xbe8dcd47	-0.27695677
126	0xbd2206ba	-0.039557196
127	0xbd986bfa	-0.0744247
128	0xbd89dd45	-0.06731657
129	0xbdefc000	-0.11706543
130	0xbe51f6e0	-0.20504332
131	0x3e6b71bb	0.22992603
132	0xbe257e82	-0.1616154
133	0x3d2496e3	0.04018296
134	0xbe989cfc	-0.2980727
135	0xbe01936d	-0.12653895
136	0xbe7e21e3	-0.24817614
137	0x3dd19b07	0.10234647
138	0xbc2884ec	-0.010285597
139	0xbdf494e4	-0.11942461
140	0xbe1b03a3	-0.15138106
141	0x3e43d222	0.19123128
142	0xbd4beb15	-0.04978474
143	0xbdc6409e	-0.096802935
144	0xbea48019	-0.3212898
145	0xbddc171b	-0.107465945
146	0x3d479b2f	0.04873198
147	0xbde207cf	-0.110366456
148	0x3de336be	0.110944256
149	0x3d6b9bf5	0.05752178
150	0xbe27c88b	-0.16385095
151	0x3e031a43	0.12802987
152	0xbca58457	-0.020204706
153	0x3d122bc7	0.03568628
154	0xbca56ae4	-0.020192571
155	0x3c49e054	0.01232155
156	0xbcc00fc5	-0.02344502
157	0xbdba4297	-0.09094732
158	0x3e0bba8c	0.1364538
159	0xbd9bf29d	-0.07614634
160	0xbd9b1f47	-0.07574325
161	0xbe4f3b1d	-0.20237394
162	0xbe0b7f48	-0.13622773
163	0x3cc5a661	0.024127187
164	0x3ddc27fc	0.10749814
165	0xbe1f2b44	-0.15543848
166	0xbdb4e07a	-0.08831878
167	0x3de9c2d7	0.11414116
168	0xbe263196	-0.16229853
169	0x3dab1e8c	0.08355436
170	0xbeaf0372	-0.34182316
171	0x3d308450	0.043094933
172	0xbdbfa3ed	-0.09357438
173	0x3e571028	0.21002257
174	0x3dc14adf	0.09438109
175	0xbc484ac5	-0.012224858
176	0xbceca303	-0.028886324
177	0x3d3b571b	0.045737367
178	0xbd9485be	-0.07252072
179	0xbe82e03e	-0.25561708
180	0xbe02e5b7	-0.12782942
181	0xbd7343c7	-0.05939081
182	0xbd9953d4	-0.07486692
183	0xbda1f125	-0.07907323
184	0xbde500de	-0.11181806
185	0x3d8f1824	0.06987026
186	0x3d15a066	0.03652992
187	0x3dc7799b	0.09739991
188	0xbdb183e1	-0.08667732
189	0x3dc18a4a	0.09450205
190	0x3e3b8b7d	0.1831493
191	0x3c796de0	0.01522395
192	0xbea029ad	-0.31281796
193	0x3e1465d8	0.14491975
194	0xbe663f53	-0.22485094
195	0x3d8fc1f7	0.07019418
196	0xbd055c7c	-0.032558903
197	0x3d7d8f2b	0.061904114
198	0x3dd8913e	0.10574578
199	0xbe99b9d7	-0.30024597
200	0xbe0a09e5	-0.13480337
201	0xbe9f9255	-0.3116633
202	0xbd465dcc	-0.048429295
203	0x3e1d5be5	0.15367086
204	0x3c3e5351	0.011616544
205	0x3cc420cb	0.023941418
206	0xbdbbe133	-0.09173813
207	0x3c406058	0.01174172
208	0xbebad6d6	-0.36492032
209	0xbe9a5044	-0.30139363
210	0x3d68f39e	0.056872956
211	0x3bb6b558	0.005575817
212	0x3d4fe875	0.050758798
213	0xbeace141	-0.33765605
214	0xbe319f72	-0.1734598
215	0xbc8d6901	-0.017261984
216	0xbd2a4583	-0.041570198
217	0xbe3d7ea8	-0.18505347
218	0xbd822d13	-0.063562535
219	0x3cb8db56	0.022565525
220	0xbd05ed53	-0.032697033
221	0x3d4cc248	0.04998997
222	0xbd78f65d	-0.060781825
223	0xbe3092f3	-0.17243557
224	0x3c2e2ea5	0.010631238
225	0xbe5d5d47	-0.21617614
226	0x3d4a448e	0.049381785
227	0xbe81dc69	-0.25363472
228	0x3e1c8df6	0.15288529
229	0xbbb1f213	-0.005430469
230	0x3d37ed2a	0.04490391
231	0x3d02c147	0.031922605
232	0xbe2e9335	-0.17048343
233	0xbd73fbe8	-0.05956641
234	0xbe80d7fd	-0.25164786
235	0xbd2a8c17	-0.041637506
236	0xbe06974d	-0.13143654
237	0xbc53d56c	-0.012929302
238	0x3d70f258	0.058824867
239	0xbe04a9a1	-0.12955333
240	0xbd80eac5	-0.06294779
241	0xbd6cca70	-0.057810247
242	0x3e878463	0.2646819
243	0xbeb46606	-0.35234088
244	0x3d4cc3b5	0.04999133
245	0xbe986fa6	-0.2977268
246	0xbe186258	-0.14881265
247	0xbeabf340	-0.33584023
248	0xbc14c41e	-0.009079961
249	0xbdbf60da	-0.09344645
250	0x3c1d764c	0.009610724
251	0xbe956e91	-0.29185918
252	0x3b2090d7	0.0024500394
253	0x3cd760fb	0.026291361
254	0x3c31b2df	0.010845869
255	0xbd54f068	-0.05198708

net_container.2.bias f4 [64]
0	0xbebb61b9	-0.36597994
1	0xbe460353	-0.19337206
2	0xbe5d4abf	-0.21610545
3	0xbe2387e7	-0.15969811
4	0xbe663a56	-0.22483191
5	0xbdf4a73a	-0.119459584
6	0xbe805f5d	-0.25072756
7	0x3d15dfb2	0.036590286
8	0xbea223fa	-0.31668073
9	0x3e11a21e	0.14221999
10	0xbe07dc79	-0.13267697
11	0x3d87ae5f	0.066250555
12	0xbebf4bc4	-0.37362492
13	0xbdfd6020	-0.1237185
14	0xbebe58be	-0.3717708
15	0x3e7f1fa9	0.24914421
16	0x3df06228	0.11737472
17	0xbe8ddbe2	-0.2770682
18	0x3cdbf1b4	0.026848651
19	0xbe573439	-0.21016015
20	0xbe97e640	-0.29667854
21	0xbe832bbb	-0.256193
22	0xbdb647bf	-0.08900403
23	0x3e360498	0.1777519
24	0x3db46085	0.08807472
25	0x3dd26382	0.10272886
26	0xbe18d90b	-0.14926545
27	0xbd5fd2e3	-0.054644477
28	0x3d4856eb	0.048911016
29	0x3cbe1822	0.023204867
30	0xbd7ed083	-0.06221057
31	0xbe7ba8c6	-0.245761
32	0x3e15e0cb	0.14636533
33	0x3e2ebc79	0.17064084
34	0x3dc0135b	0.09378692
35	0x3dce291f	0.10066437
36	0xbef2cb88	-0.47420907
37	0xbe9f03ec	-0.3105768
38	0xbdc9f535	-0.09861223
39	0xbde5aa6b	-0.11214145
40	0x3d774cca	0.060375966
41	0xbdc089b4	-0.09401265
42	0xbe8414d3	-0.25797138
43	0x3e4546ce	0.19265291
44	0xbec88882	-0.39166647
45	0x3bd709e9	0.0065624607
46	0xbe383bf2	-0.17991617
47	0x3e87750e	0.26456493
48	0xbe6f350e	-0.23360083
49	0x3e499544	0.19685847
50	0x3cf99adc	0.03046935
51	0xbd2870ba	-0.04112313
52	0x3e7c2f01	0.24627306
53	0xbe9959c4	-0.29951298
54	0xbe660704	-0.22463614
55	0x3e11b309	0.14228453
56	0xbed24e46	-0.41075343
57	0xbd79ac9d	-0.060955632
58	0xbdafaf14	-0.085783154
59	0xbbaa67ed	-0.005200377
60	0xbe1f62d7	-0.15565048
61	0xbed5a9b6	-0.41731042
62	0xbecdd9e5	-0.40205303
63	0xbd06fc20	-0.03295529

policy_layer.weight f4 [7, 64]
0	0x3e8566ae	0.260549
1	0xbcd7383d	-0.026271934
2	0xbd9a0661	-0.07520748
3	0xbe02776c	-0.12740868
4	0xbd199a32	-0.037500568
5	0xbb1bf5cb	-0.0023797627
6	0xbd33842a	-0.043827213
7	0x3d3edf16	0.04659947
8	0xbd8309c2	-0.063983455
9	0x3e1a1a12	0.15049008
10	0x3e439455	0.19099553
11	0x3dc41b0d	0.09575472
12	0xbd10e64d	-0.035375882
13	0xbe603f82	-0.21899226
14	0xbc81a45f	-0.015825449
15	0xbd548e3e	-0.051893465
16	0xbd85dd21	-0.065363176
17	0xbd6b102d	-0.057388473
18	0x3c56d392	0.013111966
19	0x3e1668b5	0.1468838
20	0xbde5c4a9	-0.112191506
21	0xbdc981ca	-0.098392084
22	0x3e04892a	0.12942949
23	0x385c62b6	5.254402e-05
24	0x3d4bae06	0.04972651
25	0xbe8b56ae	-0.2721457
26	0xbe0b5907	-0.1360818
27	0xbb7711de	-0.0037699859
28	0xbe31958f	-0.17342208
29	0x3db7cf1b	0.08975049
30	0xbc13d0fe	-0.009021996
31	0xbcd7518c	-0.026284002
32	0xbcd006fa	-0.025393952
33	0x3df632e6	0.12021427
34	0x3dfcd4f3	0.12345304
35	0xbe0e68e2	-0.13907197
36	0x3d19ec18	0.037578672
37	0x3cf7f8b7	0.030269964
38	0xbd8fb7d2	-0.07017483
39	0xbe9c614a	-0.30542976
40	0x3dd2dc47	0.10295921
41	0xbdd752cb	-0.105138384
42	0xbcd32783	-0.025775677
43	0xbd0d931d	-0.034564126
44	0xbe2693bd	-0.16267295
45	0xbdf01e6a	-0.11724551
46	0xbd7515af	-0.059835132
47	0x3dcea68c	0.1009036
48	0x3dadf03d	0.084930874
49	0xbbe425ac	-0.0069624986
50	0xbd94d145	-0.072664775
51	0x3c7aa112	0.015297191
52	0xbd6b2f17	-0.057417955
53	0x3d6b426f	0.057436403
54	0x3bba46c7	0.005684707
55	0xbe16f1a8	-0.14740622
56	0x3e89c140	0.2690525
57	0x3dc95341	0.098303325
58	0x3c2a9075	0.010410418
59	0xbda6bc96	-0.08141439
60	0xbbbdc618	-0.005791437
61	0xbd2981fb	-0.041383725
62	0x3e916d88	0.28403878
63	0xbe1cd336	-0.15314946
64	0xbd59e845	-0.053200025
65	0xbcadfc85	-0.021238575
66	0xbe5f6f05	-0.21819694
67	0xbdffc528	-0.124887764
68	0xbdccd90b	-0.10002335
69	0x3c206ae0	0.009791106
70	0x3d5af7c1	0.053458933
71	0xbb60d2df	-0.0034305376
72	0xbcb6b32c	-0.022302233
73	0x3de0cb5b	0.10976287
74	0xbd16e6f0	-0.036841333
75	0x3d90c4af	0.070687644
76	0xbc21b86a	-0.009870628
77	0x3dbef39f	0.09323811
78	0x3d6e5d16	0.058194242
79	0xbd5fdd7d	-0.054654587
80	0xbbf1ba3c	-0.007376937
81	0x3d2c0d67	0.04200497
82	0xbc7b25d7	-0.015328846
83	0xbd383957	-0.04497656
84	0xbd7c30e2	-0.061570056
85	0xbe5375fb	-0.20650475
86	0x3d91b04c	0.07113704
87	0x3dbc7b63	0.09203222
88	0x3d4eeea2	0.050520547
89	0xbd682074	-0.056671575
90	0xbc12d1ed	-0.008961183
91	0xbe1a492b	-0.15066974
92	0x3cb3587e	0.021892782
93	0x3d9b5c89	0.07586009
94	0xbe628783	-0.22122006
95	0xbe5f60ca	-0.21814266
96	0x3d6b8a61	0.057505015
97	0x3dc5c29a	0.09656258
98	0x3de8c4a1	0.11365629
99	0x3d4d736d	0.050158907
100	0xbce7bd55	-0.028288523
101	0xbd917c5f	-0.071038
102	0x3e66accd	0.22526856
103	0xbbfaf733	-0.007658863
104	0x3e37a9de	0.17935893
105	0xba95b6ec	-0.0011422313
106	0x3df5b88c	0.1199809
107	0x3e15c4b8	0.14625823
108	0x3d8859a4	0.066577226
109	0x3e0cbf1a	0.13744774
110	0x3dff4e93	0.12466159
111	0x3b521c3e	0.003206029
112	0xbc2b8d05	-0.010470633
113	0x3d8b70d4	0.0680863
114	0x3dc6ae39	0.09701199
115	0x3c9a0e43	0.018805629
116	0xbd433c9f	-0.047665235
117	0xbda8a827	-0.082351975
118	0xbd138a53	-0.036020588
119	0x3df74c43	0.12075093
120	0xbdc95ff8	-0.09832758
121	0xbd47b1be	-0.048753493
122	0xbc7300af	-0.014831706
123	0xbd1b7c8b	-0.03796057
124	0xbd442da5	-0.047895093
125	0x3b1d94fb	0.0024045098
126	0xbe237a24	-0.15964562
127	0xbd865793	-0.06559672
128	0x3e85c102	0.26123816
129	0x3de509dd	0.11183522
130	0xbc013e10	-0.007888332
131	0xbdb1b100	-0.08676338
132	0x3d01b804	0.03166963
133	0xbd6a7e52	-0.057249375
134	0xbbb6c2ed	-0.005577436
135	0x3df03c0c	0.11730203
136	0x3d65fa0f	0.056146678
137	0x3ac85758	0.001528482
138	0x3e15d19e	0.14630744
139	0xbbee42b4	-0.007271135
140	0xbcd9823d	-0.02655136
141	0xbe8a3d2f	-0.26999804
142	0xbd3fe984	-0.046853557
143	0xbe0f9a74	-0.14023763
144	0x3d58f794	0.052970484
145	0xbdeffcbc	-0.11718127
146	0xbe21f9c8	-0.1581794
147	0x3e09a24c	0.13440818
148	0xbd2c6307	-0.042086627
149	0x3cc2a708	0.023761287
150	0xbdfba2de	-0.12286924
151	0x3d21afa8	0.03947416
152	0xbc343078	-0.010997884
153	0xbde0a590	-0.109690785
154	0xbe0a829b	-0.13526385
155	0x3da6da51	0.08147109
156	0x3db78c8f	0.08962356
157	0xbe2acbbb	-0.1667928
158	0x3b895052	0.004190483
159	0xbd2e766c	-0.042593405
160	0xbd1bdf1b	-0.038054567
161	0x3d55f175	0.052232224
162	0x3e668953	0.22513323
163	0x3d989d8a	0.07451923
164	0x3d7bf537	0.061513152
165	0x3e336e73	0.17522602
166	0xbd52404a	-0.051330842
167	0xbe763b02	-0.24045947
168	0x3e5180b0	0.20459247
169	0xbd5de6c0	-0.05417514
170	0x3bc1922d	0.005907318
171	0x3e2e0779	0.16995038
172	0xbdf0fd2e	-0.1176704
173	0x3d6c70c7	0.05772474
174	0x3c97bbae	0.01852211
175	0xbd6fa365	-0.058505435
176	0xbe1ab724	-0.15108925
177	0xbd99bc1d	-0.07506583
178	0x3cf46b52	0.02983633
179	0xbdcc43b2	-0.09973849
180	0x3d715e66	0.058927916
181	0xbdcc9a33	-0.09990349
182	0xbde47662	-0.11155392
183	0xbda81a68	-0.082081616
184	0x3e23d370	0.15998626
185	0x3e28f37c	0.16499132
186	0x3cd4fa26	0.025998186
187	0xbd498b1e	-0.049204938
188	0xbdaf3a8c	-0.08556089
189	0xbbff6599	-0.007794094
190	0xbda211e6	-0.0791357
191	0xbe14811a	-0.14502373
192	0xbda90221	-0.08252359
193	0x3d6783f8	0.05652234
194	0x3d9e7b5a	0.07738371
195	0xbcecf33c	-0.028924577
196	0xbdd878ab	-0.105698906
197	0xbe4b96c4	-0.19881731
198	0xbe96baee	-0.2943949
199	0xbbb6f24a	-0.0055830823
200	0xbe3d90de	-0.18512294
201	0xbc23cde7	-0.009997821
202	0x3d3f365c	0.0466827
203	0x3d46eed4	0.048567608
204	0xbdf35ede	-0.11883329
205	0xbe184efe	-0.14873883
206	0xbe32e32e	-0.17469475
207	0x3cdb1815	0.026744882
208	0x3d03a663	0.0321411
209	0xbc7d2b45	-0.015452211
210	0x3e07d2a6	0.1326395
211	0xbe0fa3f0	-0.14027381
212	0xbd750e3c	-0.059828028
213	0xbd1ed901	-0.03878117
214	0xbba02300	-0.004886985
215	0x3ddc324f	0.10751783
216	0xbd4f4fea	-0.05061332
217	0xbe2683d0	-0.1626122
218	0xbe9784d4	-0.29593527
219	0xbdf87736	-0.12132113
220	0x3d369944	0.04457976
221	0x3e3b60ca	0.18298641
222	0xbcb5d9c3	-0.022198563
223	0x3e4f016d	0.20215388
224	0x3d9956ae	0.07487236
225	0x3de22412	0.11042036
226	0xbdcedfe4	-0.101012975
227	0x3ca1d49d	0.019754702
228	0xbcc28f66	-0.023750018
229	0xbdf248e7	-0.11830311
230	0x3d6c59d8	0.05770287
231	0xbceeb4eb	-0.029139003
232	0x3d85eca7	0.065392785
233	0xbdc4c65a	-0.09608145
234	0xbe395f48	-0.18102753
235	0xbac63113	-0.0015120826
236	0x3cc61942	0.024181966
237	0x3df7bda2	0.120967165
238	0xbcdd1089	-0.026985424
239	0x3d26b203	0.04069711
240	0x3d161588	0.036641628
241	0xbceb3bd8	-0.02871506
242	0x3e1ed725	0.15511759
243	0x3d56442b	0.052311104
244	0x3d9368e8	0.07197744
245	0xbdbedd60	-0.09319568
246	0x3da6cc9f	0.08144497
247	0x3dabd31c	0.08389875
248	0xbe1524b7	-0.14564787
249	0xbd8f57c4	-0.06999162
250	0x3d84ae12	0.06478514
251	0x3bc5b5d7	0.00603364
252	0xbd861ede	-0.06548856
253	0xbe07f906	-0.13278589
254	0xbe72200d	-0.23645039
255	0x3aaf0b6c	0.0013354844

policy_layer.bias f4 [7]
0	0x3d187582	0.03722144
1	0x3da1ceeb	0.079007946
2	0xbccbfcbd	-0.024900788
3	0x3e93cba1	0.28866294
4	0xbd329438	-0.043598384
5	0xbe1427aa	-0.14468256
6	0x3d617394	0.055041865
