logs/skrl/reach_franka/2024-12-18_21-11-53_ppo_torch/checkpoints/agent_21600.pt (torch, 96272 bytes, 38 tensors)

log_std_parameter f4 [7]
0	0xc03219fa	-2.7828355
1	0xc028a0dd	-2.6348183
2	0xc0372a35	-2.861951
3	0xc0328f04	-2.789979
4	0xc02c0aae	-2.6881518
5	0xc0373bc4	-2.8630228
6	0xc021758f	-2.5228002

net_container.0.weight f4 [64, 32]
0	0xbece9d30	-0.403543
1	0x3e0e2765	0.13882215
2	0xbec3edc6	-0.38267344
3	0xbe0c5511	-0.13704325
4	0x3d5eb6c4	0.054373518
5	0xbd87ba3f	-0.066273205
6	0x3e8f7196	0.28016347
7	0xbbf4d20b	-0.007471328
8	0x3d12420e	0.035707526
9	0xbe20a583	-0.15688138
10	0x3e2fac2d	0.17155524
11	0xbe7077d3	-0.2348321
12	0x3cd032b9	0.025414811
13	0x3d455523	0.048176896
14	0xbc7dbc65	-0.015486811
15	0xbe31bb06	-0.173565
16	0x3e09de6e	0.13463756
17	0xbd2eb7d8	-0.042655796
18	0x3ea6def5	0.32591978
19	0x3e1905c7	0.1494361
20	0x3dbb5e1e	0.09148811
21	0x3eb21e02	0.3478852
22	0xbe70d180	-0.23517418
23	0xbe80e95a	-0.25178033
24	0xbe2ce615	-0.16884644
25	0xbd20d960	-0.039269805
26	0x3d961fc0	0.073302746
27	0x3d0bd3e9	0.03413764
28	0x3d8426cc	0.064527124
29	0xbdd282ea	-0.10278876
30	0xbd9b7b9a	-0.075919345
31	0xbe1da442	-0.1539469
32	0xbdab1342	-0.083532825
33	0xbe7e701f	-0.24847458
34	0xbe837f53	-0.25683078
35	0xbe75e390	-0.2401259
36	0xbd0c17f7	-0.034202542
37	0xbd1740f3	-0.036927175
38	0xbe0f8a59	-0.14017619
39	0x3a92f76b	0.0011212652
40	0xbb5074d7	-0.0031807923
41	0xbbd16bb0	-0.006391011
42	0xbdfe38c6	-0.124131724
43	0x3c1b2bfb	0.009470935
44	0x3d6ba4ce	0.057530217
45	0x3e00df8b	0.12585275
46	0xbde25548	-0.11051422
47	0xbdf8a889	-0.121415205
48	0xbd3c2906	-0.04593756
49	0xbdafc57d	-0.0858259
50	0xbe04c27d	-0.12964816
51	0x3d70d7ed	0.058799673
52	0xbeb15204	-0.34632885
53	0xbec71081	-0.3887978
54	0xbf114ec1	-0.56760794
55	0x3ead35c3	0.3383008
56	0xbf27d1c0	-0.6555443
57	0x3e8ba112	0.27271324
58	0xbd5d8e2b	-0.05409066
59	0xbd40a94e	-0.04703646
60	0xbdbe8d2a	-0.09304269
61	0xbda03fff	-0.07824706
62	0x3d915c47	0.07097679
63	0xbcb6d78e	-0.022319581
64	0xbe5aa7fe	-0.21353146
65	0xbe018c4f	-0.1265118
66	0xbe85b535	-0.26114812
67	0x3e7f0ceb	0.24907272
68	0xbd14e847	-0.03635433
69	0x3dd886b7	0.1057257
70	0x3e2740cb	0.1633331
71	0x3e03516f	0.12824033
72	0xbc809a5a	-0.0156986
73	0xbdaff44e	-0.08591519
74	0xbe36a99a	-0.17838135
75	0x3df4c2c1	0.11951209
76	0x3e11eacf	0.14249729
77	0xbd5b67da	-0.053565837
78	0xbd57962c	-0.05263345
79	0xbc35efd0	-0.011104539
80	0x3dc42a18	0.09578341
81	0xbcd230b9	-0.025657998
82	0x3e9a94b5	0.3019158
83	0x3ee2a72c	0.44268167
84	0xbf0dd735	-0.55406505
85	0xbe872fd0	-0.26403666
86	0xbc36f535	-0.01116686
87	0x3e055583	0.13020901
88	0xbdace33a	-0.084417775
89	0xbcb9b201	-0.022667887
90	0xbd3c9bf4	-0.046047166
91	0x3d0cf73a	0.03441546
92	0xbd37bb70	-0.04485649
93	0x3dd668f4	0.10469237
94	0xbdcffebb	-0.10156008
95	0x3cb4df3d	0.022079105
96	0x3dd4f3c8	0.1039806
97	0xbe3a2b0e	-0.18180487
98	0xbdd2faf1	-0.103017695
99	0xbe82ad2a	-0.2552274
100	0x3e0e6b3e	0.13908097
101	0x3e335122	0.17511418
102	0xbddee8c3	-0.108842395
103	0x3c88de35	0.01670752
104	0x3cdfa13e	0.027298566
105	0xbbd3c29e	-0.006462409
106	0x3d96ae4d	0.07357464
107	0x3d01fb69	0.031733904
108	0xbd6b7d93	-0.057492804
109	0xbd65caa7	-0.056101467
110	0xbc83485c	-0.016025715
111	0x3d96d6a7	0.073651604
112	0x3d9a36c3	0.07529976
113	0xbd1b0164	-0.037843123
114	0xbef853ff	-0.48501584
115	0xbe418e6d	-0.18901987
116	0x3f22aa0e	0.6354073
117	0xbecd0fe8	-0.40051198
118	0x3e936928	0.28791165
119	0x3e9b3921	0.30317023
120	0x3e9e2b77	0.30892536
121	0xbddfe8ec	-0.10933098
122	0xbe5192da	-0.20466176
123	0xbe1575d9	-0.14595737
124	0xbc687b02	-0.014189484
125	0x3e1b01e5	0.15137441
126	0xbc41855a	-0.011811579
127	0xbcc04874	-0.023472048
128	0xbe02ccb9	-0.12773408
129	0xbe52d2b7	-0.20588194
130	0xbc910bd0	-0.017705828
131	0xbe120060	-0.14257956
132	0xbe0e8c68	-0.13920748
133	0x3bd7931d	0.0065788166
134	0xbd40e0bc	-0.047089323
135	0xbcf35bfe	-0.029706951
136	0x3d3ffc4a	0.04687146
137	0xbd83b4e0	-0.064309835
138	0x3b9b868e	0.004746265
139	0x3bf09e8b	0.0073431185
140	0xbe4217b5	-0.18954356
141	0x3ca4118b	0.020027896
142	0x3cb10da1	0.021612944
143	0x3c73be7e	0.01487696
144	0xbd53e79e	-0.05173456
145	0xbe04f1cd	-0.12982865
146	0x3ec01d77	0.3752248
147	0xbdc3987f	-0.09550571
148	0x3f118678	0.5684581
149	0xbed455d0	-0.4147172
150	0xbedf9f21	-0.43676093
151	0x3f0a035f	0.53911394
152	0xbf068a68	-0.5255494
153	0x3cbeb81b	0.023281148
154	0x3d0f9bc2	0.03506065
155	0x3add63a6	0.001689066
156	0x3e285fdd	0.16442819
157	0x3c893fc6	0.016754042
158	0xbd0ba6ea	-0.03409473
159	0xbe5659c3	-0.20932679
160	0xbe470074	-0.19433767
161	0xbecc0da3	-0.39854154
162	0x3d9a30cb	0.07528838
163	0x3b2813b1	0.0025646503
164	0x3dee0606	0.11622243
165	0xbe8164e7	-0.25272295
166	0xbe465c5a	-0.19371167
167	0x3d08d57b	0.033406716
168	0xbd0163d2	-0.031589337
169	0xbc46375e	-0.0120981615
170	0xbe176b89	-0.14787115
171	0x3d8dabd7	0.069175415
172	0x3dbe51de	0.09292959
173	0x3d9a4c1e	0.075340495
174	0xbc62c4e7	-0.0138408905
175	0xbdc7e5e3	-0.09760644
176	0x3cfefaef	0.031125514
177	0x3d46bef2	0.048521943
178	0x3e82dd02	0.2555924
179	0x3d6bf2a4	0.057604447
180	0xbd81dddd	-0.06341145
181	0x3e0c10ee	0.13678333
182	0x3ce5c78c	0.028049253
183	0x3c0c5cc8	0.008567043
184	0x3cb8851c	0.022524409
185	0x3cff0d74	0.031134345
186	0x3ca10e0e	0.019660022
187	0x3d45a054	0.048248604
188	0xbdea545e	-0.11441873
189	0xbd9571af	-0.07297074
190	0xbe0a173f	-0.1348543
191	0x3db822cf	0.08991014
192	0xbc0cfa4b	-0.008604596
193	0xbe686bb6	-0.22697338
194	0x3d7d4310	0.061831534
195	0x3d96c41d	0.073616244
196	0x3b93a258	0.004505437
197	0x3e9cd2c5	0.30629554
198	0xbe8a6717	-0.27031776
199	0xbdbf36b9	-0.093366094
200	0x3cff15ad	0.031138266
201	0xbe0ebdd5	-0.13939603
202	0x3e0fd85a	0.14047375
203	0xbe0b7468	-0.13618624
204	0xbe134494	-0.14381629
205	0x3db42928	0.087969124
206	0x3d91103d	0.07083175
207	0x3e1e9326	0.1548582
208	0xbdd51943	-0.10405209
209	0xbd4af828	-0.049553066
210	0xbc875026	-0.01651771
211	0x3e1a73e1	0.15083267
212	0xbf20113b	-0.6252629
213	0xbe912df4	-0.28355372
214	0xbf1c57b7	-0.6107134
215	0x3ea3345c	0.31875885
216	0xbed81364	-0.42202294
217	0xbdd64908	-0.10463148
218	0x3c9c7bc3	0.019101983
219	0xbc24480f	-0.010026946
220	0x3cde10a0	0.027107537
221	0x3dae2cc3	0.08504631
222	0xbdf476c7	-0.119367175
223	0x3d06308d	0.032761145
224	0xbe9de87e	-0.3084144
225	0xbeb78272	-0.3584171
226	0xbf0a3a6c	-0.53995395
227	0xbc22ec0d	-0.009943974
228	0x3e3d03df	0.18458508
229	0x3e15fdd9	0.14647616
230	0x3eaebc3c	0.34127986
231	0x3c909977	0.017651303
232	0xbd0585fb	-0.032598477
233	0xbe19d504	-0.15022665
234	0xbe877881	-0.26459125
235	0xbe18f3ca	-0.14936748
236	0xbdc0af04	-0.094083816
237	0xbbd6f522	-0.006559984
238	0x3c9c89f3	0.019108748
239	0xbc466d50	-0.012111023
240	0xbd9c8141	-0.07641841
241	0x3e2faab6	0.17154965
242	0x3e9cec54	0.30649054
243	0x3df7f008	0.12106329
244	0x3d902b92	0.070395604
245	0xbd1f4dca	-0.038892545
246	0xbf6dd90a	-0.929093
247	0xbe33d712	-0.17562512
248	0xbf6aefb1	-0.9177199
249	0x3dc4572d	0.0958694
250	0x3e16fa4a	0.14743915
251	0x3ceeabcb	0.029134652
252	0xbddc3d75	-0.107539095
253	0x3de57843	0.11204579
254	0xbdac6380	-0.084174156
255	0x3ea59e13	0.32347164

net_container.0.bias f4 [64]
0	0x3e12f22f	0.14350198
1	0x3e5b7a95	0.2143348
2	0x3e748a64	0.23880917
3	0x3e816174	0.25269663
4	0xbacbfb9b	-0.0015562655
5	0x3df8f0d4	0.12155309
6	0x3e68a804	0.22720343
7	0xbe289957	-0.16464745
8	0x3e2c9082	0.16852
9	0xbea6acb4	-0.32553637
10	0xbda8803a	-0.08227582
11	0x3e5df250	0.21674466
12	0xbe80d911	-0.2516561
13	0xbea4891c	-0.32135856
14	0x3e34e987	0.17667209
15	0xbd9d82d9	-0.07690973
16	0xbe1b2d26	-0.15153942
17	0xbe92bfe3	-0.28662023
18	0x3db2b0ca	0.08725126
19	0xbe58d7de	-0.21176097
20	0xbeadf363	-0.33974752
21	0xbe28e42e	-0.16493294
22	0x3d06dbd2	0.03292448
23	0x3dad6438	0.08466381
24	0x3e17c667	0.14821778
25	0xbefc3710	-0.4926076
26	0x3e37f244	0.17963511
27	0x3ec8ece5	0.39243236
28	0xbe20e638	-0.15712821
29	0xbcf38a77	-0.029729111
30	0x3c5528ee	0.013010247
31	0xbe6a5270	-0.2288301
32	0xbe705c8c	-0.23472804
33	0xbe47af1e	-0.19500396
34	0xbe605e3d	-0.21910949
35	0xbe70205c	-0.23449844
36	0xbdf8fc97	-0.12157553
37	0xbeb65dd9	-0.35618475
38	0x3d0f4503	0.034977924
39	0x3ead3009	0.3382571
40	0x3e8632f4	0.2621075
41	0x3eaa7870	0.33295012
42	0xbed95d76	-0.42454118
43	0xbe8dc051	-0.27685788
44	0xbe58d7e9	-0.21176113
45	0xbea06731	-0.3132873
46	0x3decb59d	0.115580775
47	0xbe24ebb8	-0.16105545
48	0xbedb856f	-0.4287524
49	0xbc95fd03	-0.018309122
50	0xbdef4078	-0.11682218
51	0x3db6bbe9	0.0892256
52	0xbe81592e	-0.2526335
53	0xbdf75cd8	-0.120782554
54	0xbe8f5167	-0.27991793
55	0xbd84de86	-0.064877555
56	0xbc2a9a1c	-0.010412719
57	0xbe8e4a4c	-0.2779106
58	0xbecc1ee4	-0.39867318
59	0xbe9c141f	-0.304841
60	0xba309cc3	-0.00067372265
61	0xbebb3dca	-0.3657058
62	0x3aecc403	0.0018063787
63	0xbe7a1e90	-0.24425721

net_container.2.weight f4 [64, 64]
0	0x3e028b6b	0.12748496
1	0xbe457913	-0.19284467
2	0xbcae9304	-0.021310337
3	0xbd852b02	-0.06502344
4	0xbe407968	-0.18796313
5	0xbd471ef9	-0.048613522
6	0xbcb71aee	-0.022351708
7	0x3e2f28e2	0.1710544
8	0xbd281e47	-0.0410445
9	0x3e8925d3	0.2678667
10	0x3dc1564b	0.09440287
11	0x3e60e8b9	0.21963777
12	0x3d9afe97	0.075680904
13	0xbcf2866c	-0.029605113
14	0x3e48787d	0.19577213
15	0xbe806133	-0.25074157
16	0xbcb0da54	-0.021588482
17	0xbdccd1e3	-0.1000097
18	0xbd6ca53f	-0.05777478
19	0xbd1dde1a	-0.03854189
20	0xbd0bf4dd	-0.034169067
21	0xbc1fda5b	-0.00975665
22	0xbe068558	-0.13136804
23	0xbe714508	-0.2356149
24	0x3e982e67	0.29722902
25	0x3db1244d	0.08649502
26	0xbe9a2c67	-0.30112
27	0xbe2fb1ec	-0.17157716
28	0xbcf28e88	-0.02960898
29	0xbe5c8428	-0.21534789
30	0xbdf63a48	-0.12022835
31	0xbef9d34d	-0.48794022
32	0xbe48c146	-0.19604978
33	0x3ec4113a	0.38294393
34	0x3d188ba6	0.037242554
35	0x3ddf9e96	0.1091892
36	0x3dd0bce1	0.10192276
37	0xbe8c7409	-0.27432278
38	0x3ce8f6cb	0.028437993
39	0xbc363e11	-0.011123196
40	0xbd8aa42d	-0.06769595
41	0x3d44cb8b	0.048045676
42	0x3e68b275	0.22724326
43	0x3e4937fc	0.19650263
44	0xbd0bd717	-0.034140673
45	0x3e03afec	0.12860078
46	0xbe84d074	-0.25940287
47	0x3e91b105	0.28455368
48	0xbe015a20	-0.12632036
49	0xbd7b0e25	-0.061292786
50	0x3db009db	0.0859563
51	0xbd8bfaca	-0.068349436
52	0x3c7e6c6c	0.0155287795
53	0xbe26bb64	-0.16282421
54	0xbc835e56	-0.016036194
55	0x3d23d836	0.040001117
56	0xbe03502b	-0.1282355
57	0x3d95dcee	0.073175296
58	0x3ce36488	0.027757898
59	0x3e112b9d	0.14176793
60	0xbe9b8c5f	-0.30380532
61	0xbc9aee19	-0.018912362
62	0xbe58fdf9	-0.21190633
63	0x3d84472c	0.064588875
64	0xbd28b71c	-0.04119025
65	0x3db7feda	0.08984156
66	0x3cc799cd	0.02436533
67	0x3dfb3ef0	0.12267864
68	0x3e01c8ac	0.12674206
69	0xbd759474	-0.05995603
70	0x3d5f55d1	0.0545252
71	0xbea5c770	-0.3237872
72	0x3df76ee4	0.120816976
73	0x3c8a73ba	0.016900886
74	0xbef1f6e2	-0.4725867
75	0x3dc7a665	0.09748534
76	0x3d83ad61	0.06429554
77	0xbdfde15d	-0.123965
78	0x3d4e72df	0.05040252
79	0x3cbc2096	0.022964757
80	0xbe2f3850	-0.17111325
81	0x3d37b0a9	0.04484621
82	0xbcc61850	-0.024181515
83	0xbdfe7a3e	-0.124256596
84	0xbe262604	-0.1622544
85	0x3e64d1c9	0.22345652
86	0xbcd4b48b	-0.025964996
87	0xbd6e453e	-0.058171503
88	0x3dc0645e	0.093941435
89	0x3e960501	0.29300693
90	0x3b28921f	0.002572186
91	0x3ca2a076	0.019851904
92	0x3d127560	0.03575647
93	0x3e01423e	0.12622926
94	0xbeba88ae	-0.36432403
95	0xbe3741bd	-0.17896171
96	0x3e85223f	0.2600269
97	0xbddd7f0d	-0.10815249
98	0xbe7a4be6	-0.24443015
99	0x3bdedd25	0.006801265
100	0xbe940c4f	-0.2891564
101	0x3d30aa3e	0.043131106
102	0xbd34603f	-0.0440371
103	0x3e1675f4	0.14693433
104	0x3e1dbe60	0.15404654
105	0x3dd92efb	0.10604664
106	0xbc4ca758	-0.01249107
107	0xbd0fd565	-0.03511562
108	0x3d4f1cb8	0.050564498
109	0xbe2cdb3c	-0.16880506
110	0xbe0db720	-0.13839388
111	0xbd4594fa	-0.04823778
112	0xbd864698	-0.065564334
113	0xbde5f66c	-0.11228642
114	0xbca9d65c	-0.020732097
115	0xbe350bb6	-0.17680249
116	0xbe22fb05	-0.15916069
117	0xbe7f4b2f	-0.24931024
118	0x3d0c36a7	0.034231808
119	0xbd04d4d7	-0.032429542
120	0x3dc45bd8	0.0958783
121	0x3dafafc5	0.08578447
122	0xbe4d71a6	-0.20062885
123	0xbe44403e	-0.19165131
124	0xbc7bc9ba	-0.01536792
125	0xbe8df3b4	-0.27724993
126	0xbd18dad3	-0.037318062
127	0xbd936283	-0.07196524
128	0xbd8b6099	-0.06805534
129	0xbdf5c59b	-0.12000581
130	0xbe50f88a	-0.2040731
131	0x3e6b5dce	0.22985002
132	0xbe203408	-0.15644848
133	0x3d2026d3	0.039099526
134	0xbe99c777	-0.30034992
135	0xbe028550	-0.12746167
136	0xbe807469	-0.25088814
137	0x3dcd7dcc	0.100337595
138	0xbc213f48	-0.009841748
139	0xbdffd3a3	-0.124915384
140	0xbe14917d	-0.14508624
141	0x3e456aea	0.19279066
142	0xbd64a24e	-0.05581885
143	0xbdd1bbf5	-0.10240928
144	0xbea7764e	-0.32707447
145	0xbddb5b08	-0.10710722
146	0x3d3ea5f6	0.04654499
147	0xbdee866b	-0.11646732
148	0x3ddda002	0.10821535
149	0x3d687287	0.056749847
150	0xbe22b95b	-0.1589102
151	0x3e01af3d	0.12664504
152	0xbcb0f466	-0.021600913
153	0x3d112135	0.03543206
154	0xbc81cb24	-0.015843935
155	0x3c285e60	0.010276407
156	0xbce719b4	-0.028210498
157	0xbdb5ca47	-0.08876472
158	0x3e0b8875	0.13626273
159	0xbd9d00c1	-0.076661594
160	0xbd9ae7ae	-0.07563721
161	0xbe5015aa	-0.20320764
162	0xbe0b9ce3	-0.13634066
163	0x3cc12e89	0.02358176
164	0x3ddd4467	0.10804062
165	0xbe22c115	-0.15893967
166	0xbdb8483e	-0.08998154
167	0x3de48235	0.111576475
168	0xbe2a6c31	-0.16642834
169	0x3da68d77	0.08132451
170	0xbeab712b	-0.33484778
171	0x3d2e860b	0.042608302
172	0xbdba0077	-0.0908212
173	0x3e566384	0.209364
174	0x3dbe9bc3	0.09307053
175	0xbb831e3c	-0.004001407
176	0xbccd4379	-0.025056588
177	0x3d41b6e8	0.047293574
178	0xbd93408e	-0.07190047
179	0xbe84aea6	-0.25914496
180	0xbe004598	-0.12526548
181	0xbd6dfe20	-0.05810368
182	0xbda59e0f	-0.08086788
183	0xbdaedd9a	-0.08538361
184	0xbdea4caf	-0.114404075
185	0x3d9ae734	0.0756363
186	0x3d0d3e4e	0.034483247
187	0x3dd1d4ac	0.10245642
188	0xbdbbe70c	-0.09174928
189	0x3dc28025	0.09497098
190	0x3e3a4e36	0.18193898
191	0x3c8610d8	0.016365454
192	0xbea0f1ca	-0.3143447
193	0x3e15c933	0.14627533
194	0xbe64dae5	-0.22349127
195	0x3d903f9f	0.07043385
196	0xbcf64a15	-0.030064622
197	0x3d7b7473	0.06139035
198	0x3dd44409	0.10364539
199	0xbe99ec38	-0.30063033
200	0xbe0a408d	-0.13501187
201	0xbe9f3ddd	-0.31101885
202	0xbd47aae2	-0.04874695
203	0x3e1d8135	0.1538132
204	0x3c3dbd61	0.011580796
205	0x3cb6bba1	0.022306265
206	0xbdb8a4b6	-0.09015791
207	0x3c70306b	0.014659981
208	0xbebd15e3	-0.3693076
209	0xbe9a9080	-0.3018837
210	0x3d711b8d	0.058864165
211	0x3b66ccdf	0.0035217328
212	0x3d5683b9	0.052371714
213	0xbead851f	-0.33890626
214	0xbe30e094	-0.1727317
215	0xbc750b83	-0.014956358
216	0xbd15c2af	-0.036562618
217	0xbe38be9f	-0.18041466
218	0xbd803dd2	-0.06261791
219	0x3cbc0553	0.022951758
220	0xbce87f5e	-0.028381046
221	0x3d5b04c9	0.05347136
222	0xbd7d5c33	-0.061855506
223	0xbe2c94e8	-0.16853678
224	0x3c1f4fe9	0.009723642
225	0xbe60f4ae	-0.21968338
226	0x3d544ec4	0.05183293
227	0xbe82ac08	-0.25521874
228	0x3e1b67fe	0.15176389
229	0xbabc7f36	-0.0014381174
230	0x3d3346f0	0.043768823
231	0x3d14a7e2	0.036292918
232	0xbe2e37cb	-0.17013471
233	0xbd6fc32d	-0.058535744
234	0xbe7b3d98	-0.24535215
235	0xbd2547a9	-0.040351544
236	0xbe084a80	-0.1330967
237	0xbc33d09a	-0.010975027
238	0x3d6517d5	0.05593093
239	0xbe026b09	-0.12736143
240	0xbd81a7a4	-0.06330803
241	0xbd76cc70	-0.06025356
242	0x3e884876	0.26617783
243	0xbeb371c3	-0.3504773
244	0x3d4d7d2d	0.050168205
245	0xbe9785d1	-0.2959428
246	0xbe1747c7	-0.14773475
247	0xbeacb3ca	-0.33730918
248	0xbc43a61b	-0.011941458
249	0xbdbcd712	-0.09220709
250	0x3bad5e3d	0.005290775
251	0xbe92bbee	-0.28659004
252	0x3b59157d	0.003312438
253	0x3cd769cd	0.026295567
254	0x3c4ae5ce	0.012383891
255	0xbd520f7c	-0.0512843

net_container.2.bias f4 [64]
0	0xbebb66d6	-0.36601895
1	0xbe45013f	-0.19238757
2	0xbe5ded93	-0.21672659
3	0xbe213269	-0.15741886
4	0xbe646147	-0.22302733
5	0xbdf69937	-0.12040942
6	0xbe80865a	-0.25102502
7	0x3d18ffac	0.037353203
8	0xbea1fde2	-0.3163901
9	0x3e0fa4d0	0.14027715
10	0xbe02d99c	-0.12778324
11	0x3d815190	0.06314385
12	0xbebf8f49	-0.37414005
13	0xbdf69160	-0.12039447
14	0xbebbf763	-0.3671218
15	0x3e7dbb6b	0.24778526
16	0x3dedc959	0.1161067
17	0xbe8eab61	-0.27865127
18	0x3cd3f499	0.02587347
19	0xbe56ebe5	-0.20988424
20	0xbe964500	-0.29349518
21	0xbe833a20	-0.25630283
22	0xbdacdee1	-0.08440948
23	0x3e3694c4	0.17830187
24	0x3db22021	0.08697534
25	0x3dd00c0f	0.1015855
26	0xbe18a6ea	-0.14907423
27	0xbd5427b5	-0.05179568
28	0x3d47041a	0.048587896
29	0x3cab8dbe	0.020941611
30	0xbd864d4f	-0.06557714
31	0xbe7c9088	-0.2466451
32	0x3e153fc6	0.14575109
33	0x3e2e15f8	0.17000568
34	0x3dc169a7	0.0944398
35	0x3dd35798	0.103194416
36	0xbef1ef06	-0.47252673
37	0xbe9def6f	-0.30846736
38	0xbdcb9a76	-0.099415705
39	0xbde4bc4b	-0.111687265
40	0x3d7110a4	0.05885376
41	0xbdc5477e	-0.09632777
42	0xbe82ba8a	-0.25532943
43	0x3e458406	0.19288644
44	0xbec83388	-0.39101815
45	0x3ae45807	0.0017421254
46	0xbe39230e	-0.18079779
47	0x3e874f66	0.26427764
48	0xbe6e4042	-0.232667
49	0x3e499bf9	0.19688405
50	0x3d066d8d	0.03281932
51	0xbd32ce73	-0.043653917
52	0x3e7c94f6	0.24666199
53	0xbe994a1e	-0.2993936
54	0xbe64bbc1	-0.22337247
55	0x3e107180	0.14105797
56	0xbed21f48	-0.4103949
57	0xbd7664c9	-0.06015471
58	0xbdab4a89	-0.08363826
59	0xbbbdd3bc	-0.005793063
60	0xbe1e65fd	-0.15468593
61	0xbed7602e	-0.42065567
62	0xbecca507	-0.39969656
63	0xbcf7d1d6	-0.030251425

policy_layer.weight f4 [7, 64]
0	0x3e84847c	0.25882328
1	0xbcd08326	-0.025453161
2	0xbd9c1df8	-0.076229036
3	0xbe055de1	-0.13024093
4	0xbd11201b	-0.03543101
5	0xbb59e802	-0.003324986
6	0xbd335225	-0.04377951
7	0x3d4b4bce	0.04963284
8	0xbd7aa280	-0.06119013
9	0x3e19de77	0.1502627
10	0x3e46ffb9	0.19433488
11	0x3dc4dec3	0.09612801
12	0xbd216fea	-0.03941337
13	0xbe61311a	-0.21991387
14	0xbc6e28ac	-0.014536064
15	0xbd594e03	-0.053052913
16	0xbd87bbb4	-0.066275984
17	0xbd743fdf	-0.059631225
18	0x3c58456b	0.013200144
19	0x3e1795c3	0.14803223
20	0xbde14648	-0.10999733
21	0xbdc99ae9	-0.09844
22	0x3e02b8d8	0.12765825
23	0x39e7e8d6	0.0004423323
24	0x3d49a237	0.049226966
25	0xbe8bea2a	-0.2732709
26	0xbe0e71e4	-0.13910633
27	0xbb14985e	-0.0022673826
28	0xbe333292	-0.1749976
29	0x3db0e456	0.086373016
30	0xbc053cff	-0.008132218
31	0xbcd8a797	-0.0264471
32	0xbccb9d1c	-0.024855189
33	0x3df80a59	0.12111349
34	0x3e046ff6	0.12933335
35	0xbe0ecd63	-0.13945536
36	0x3d1bfa7d	0.03808068
37	0x3d034d91	0.032056395
38	0xbd8f84c2	-0.070077434
39	0xbe9d1b98	-0.30685115
40	0x3dd518f1	0.10405148
41	0xbddfdf75	-0.10931293
42	0xbcd10a84	-0.02551771
43	0xbd0b7612	-0.034048147
44	0xbe2427ea	-0.16030851
45	0xbdf1a781	-0.11799527
46	0xbd6779a8	-0.056512505
47	0x3dceeeda	0.10104151
48	0x3dae4868	0.08509904
49	0xbbdde134	-0.006771231
50	0xbd95d9ed	-0.07316957
51	0x3c40d810	0.011770263
52	0xbd6560c7	-0.056000497
53	0x3d68e0d1	0.056855027
54	0x3b9d92dc	0.004808767
55	0xbe13cfe3	-0.14434771
56	0x3e8b083a	0.27154714
57	0x3dd24047	0.10266166
58	0x3c167e3b	0.009185369
59	0xbda69147	-0.08133178
60	0xbc13a82b	-0.009012262
61	0xbd2ccc71	-0.042187158
62	0x3e90f4e3	0.28311834
63	0xbe1f4ea0	-0.15557337
64	0xbd65dcc6	-0.05611875
65	0xbcac731f	-0.021050988
66	0xbe5f7328	-0.21821272
67	0xbdf8c40e	-0.121467695
68	0xbdd21322	-0.102575555
69	0x3c382421	0.011239083
70	0x3d5e811c	0.054322347
71	0xbbcea40c	-0.006306177
72	0xbcd2aa08	-0.025715843
73	0x3ddfd996	0.10930173
74	0xbd0a4c60	-0.033764243
75	0x3d8eaf50	0.06967032
76	0xbc3ab6e2	-0.011396142
77	0x3dc2a7bb	0.09504648
78	0x3d7d2dc8	0.06181124
79	0xbd5c811a	-0.05383406
80	0xbbfc1641	-0.0076930826
81	0x3d213c64	0.039364234
82	0xbc854bbb	-0.016271463
83	0xbd3acd4e	-0.04560595
84	0xbd79d02c	-0.060989544
85	0xbe554c1a	-0.20829812
86	0x3d91f1e7	0.07126217
87	0x3dbd4551	0.09241737
88	0x3d4eb655	0.050466854
89	0xbd76f714	-0.060294226
90	0xbc125d26	-0.008933341
91	0xbe1806b6	-0.1484631
92	0x3ca7ed45	0.020498881
93	0x3d9bc870	0.0760659
94	0xbe64e59d	-0.22353216
95	0xbe6086e6	-0.2192646
96	0x3d69d9eb	0.05709259
97	0x3dcc53d4	0.099769264
98	0x3de5a549	0.11213166
99	0x3d4eac5a	0.050457336
100	0xbcfb4037	-0.030670268
101	0xbd8da278	-0.06915754
102	0x3e69686a	0.22793737
103	0xbbdefe3a	-0.0068052085
104	0x3e37ccdb	0.1794924
105	0xbb195c2b	-0.0023400884
106	0x3df41f36	0.119200155
107	0x3e1583c5	0.14601047
108	0x3d84ecc0	0.06490469
109	0x3e0c1fcf	0.13684009
110	0x3e034592	0.12819508
111	0x3b458cbd	0.00301437
112	0xbc36786f	-0.011137112
113	0x3d8c4044	0.06848195
114	0x3dc5aaf7	0.096517496
115	0x3c94ff60	0.018188179
116	0xbd48e5f4	-0.049047425
117	0xbda808a4	-0.08204773
118	0xbd142916	-0.036171995
119	0x3df7c8ad	0.12098823
120	0xbdd0d6bf	-0.101972096
121	0xbd54f935	-0.051995475
122	0xbc908442	-0.01764119
123	0xbd0f92b4	-0.035052016
124	0xbd399ce5	-0.045315642
125	0x3b97b87d	0.004630147
126	0xbe22760d	-0.15865345
127	0xbd84dff8	-0.06488031
128	0x3e86a895	0.26300493
129	0x3de1a4c3	0.11017754
130	0xbc05a80c	-0.008157741
131	0xbdb30902	-0.087419525
132	0x3cfd458d	0.030916953
133	0xbd66a61c	-0.056310758
134	0xbb9c3415	-0.004766951
135	0x3ded88c0	0.115983486
136	0x3d659c50	0.056057274
137	0x3b22ad80	0.0024822652
138	0x3e14cb31	0.14530636
139	0xbc1fc5da	-0.009751761
140	0xbcdb919f	-0.026802836
141	0xbe891857	-0.26776382
142	0xbd47bacb	-0.048762124
143	0xbe0ebc65	-0.13939054
144	0x3d5645af	0.05231255
145	0xbdeb8b18	-0.115011394
146	0xbe1f95d9	-0.15584506
147	0x3e07cb83	0.13261227
148	0xbd2e485e	-0.042549483
149	0x3cbc0826	0.022953104
150	0xbdf95a37	-0.1217541
151	0x3d1c0a84	0.038095966
152	0xbc15f83f	-0.009153425
153	0xbde1341a	-0.10996266
154	0xbe0feb20	-0.14054537
155	0x3da70b38	0.08156437
156	0x3db8c04d	0.090210535
157	0xbe261a4a	-0.16220966
158	0x3a814729	0.0009863126
159	0xbd30a4f4	-0.04312606
160	0xbd187dc5	-0.03722932
161	0x3d5fff8f	0.05468708
162	0x3e64e18f	0.22351669
163	0x3d96bc9a	0.07360192
164	0x3d7783bf	0.060428377
165	0x3e349d75	0.1763819
166	0xbd42618e	-0.047456317
167	0xbe78904a	-0.24273792
168	0x3e520879	0.20511045
169	0xbd5a144e	-0.05324202
170	0x3b8e41c3	0.0043413355
171	0x3e2ceb21	0.1688657
172	0xbdf9adc2	-0.12191345
173	0x3d608ae6	0.054819964
174	0x3c8f59e8	0.017498925
175	0xbd6c6f8c	-0.057723567
176	0xbe19bf5c	-0.15014404
177	0xbd976a81	-0.07393361
178	0x3ce689c9	0.028141873
179	0xbdc2fb44	-0.09520581
180	0x3d6e403f	0.05816674
181	0xbdcc86e9	-0.099866696
182	0xbddff282	-0.109349266
183	0xbda54720	-0.08070207
184	0x3e2398e7	0.15976296
185	0x3e280758	0.16409051
186	0x3ccb110c	0.024788402
187	0xbd43159c	-0.04762803
188	0xbdaf2c9b	-0.0855343
189	0xbbbbb4e1	-0.0057283496
190	0xbda59bc8	-0.080863535
191	0xbe120451	-0.14259459
192	0xbda8ff92	-0.08251871
193	0x3d6ac2fe	0.057314865
194	0x3da5000e	0.08056651
195	0xbce5820b	-0.02801611
196	0xbdd3c340	-0.10339975
197	0xbe4a4d4f	-0.19756053
198	0xbe978ef1	-0.29601243
199	0xbbd24292	-0.006416627
200	0xbe3a3cd5	-0.18187268
201	0xbc2be86c	-0.010492425
202	0x3d3c0b35	0.045909125
203	0x3d3bed0c	0.045880362
204	0xbdf40cea	-0.11916526
205	0xbe18850a	-0.148945
206	0xbe3053cc	-0.17219466
207	0x3cda7774	0.026668288
208	0x3d065a1c	0.03280078
209	0xbc8a1a0c	-0.016858123
210	0x3e08f894	0.13376075
211	0xbe14886f	-0.1450517
212	0xbd713353	-0.058886837
213	0xbd1c6db8	-0.038190573
214	0xbbab3668	-0.0052249916
215	0x3ddcf5bd	0.10789058
216	0xbd60eebe	-0.054915182
217	0xbe27f86f	-0.16403364
218	0xbe9842d3	-0.29738483
219	0xbdf9d5b5	-0.121989645
220	0x3d3ef99d	0.04662477
221	0x3e3da1de	0.18518779
222	0xbcc053ad	-0.0234774
223	0x3e4d7dae	0.20067474
224	0x3d991e7f	0.0747652
225	0x3de136d6	0.10996787
226	0xbdd1073b	-0.10206457
227	0x3ca2099a	0.019779969
228	0xbca83213	-0.02053169
229	0xbdedc6ff	-0.11610221
230	0x3d768106	0.06018164
231	0xbcf51296	-0.029916089
232	0x3d81da4e	0.063404664
233	0xbdc5d8d2	-0.09660496
234	0xbe3765ca	-0.17909923
235	0xbadc5aee	-0.0016811767
236	0x3ccdbd50	0.025114685
237	0x3dfb910a	0.122835234
238	0xbce333fd	-0.02773475
239	0x3d26d83f	0.040733572
240	0x3d18ab26	0.037272595
241	0xbce5e3aa	-0.02806266
242	0x3e21d40f	0.1580355
243	0x3d5f635a	0.05453811
244	0x3d91ce7e	0.071194634
245	0xbdbae2dd	-0.09125302
246	0x3da5709d	0.0807812
247	0x3dadb498	0.08481711
248	0xbe127d80	-0.14305687
249	0xbd900de2	-0.07033898
250	0x3d844fc8	0.064605296
251	0x3ba55281	0.0050452356
252	0xbd84fa0f	-0.064930074
253	0xbe05522f	-0.13019632
254	0xbe716043	-0.23571877
255	0x3ad11c23	0.001595382

policy_layer.bias f4 [7]
0	0x3d1c0a95	0.03809603
1	0x3d9e48e7	0.07728749
2	0xbccf52b6	-0.025307994
3	0x3e92e318	0.28688884
4	0xbd368695	-0.04456194
5	0xbe0f56c6	-0.13997945
6	0x3d5f1325	0.054461617

value_layer.weight f4 [1, 64]
0	0xb9b12021	-0.0003378401
1	0x3c764426	0.015030896
2	0x3bf97bbb	0.007613627
3	0xbdb05116	-0.08609216
4	0x3d48dd35	0.049039084
5	0xbd517304	-0.051135078
6	0x3da99a75	0.082814135
7	0xbd983716	-0.07432382
8	0xbda96047	-0.082703166
9	0xbd31b4bd	-0.043385256
10	0x3dcce64a	0.10004862
11	0xbd7195a2	-0.05898059
12	0xbdf35b26	-0.118826196
13	0x3dd76654	0.105175644
14	0x3d067fb5	0.032836635
15	0xbcbd0ef1	-0.023078414
16	0xbde31359	-0.11087675
17	0xbc8f26fd	-0.017474646
18	0xbcf4b1b0	-0.029869884
19	0xbccf0aae	-0.025273647
20	0x3e0fbb8e	0.1403639
21	0x3dc2fc7c	0.09520814
22	0x3d7bee34	0.061506465
23	0xbd37f0c5	-0.04490735
24	0xbd8437e9	-0.064559765
25	0xbcf2333a	-0.029565442
26	0xbd00b987	-0.031426933
27	0x3d568afb	0.052378636
28	0xbb25e670	-0.0025314353
29	0xbd1fef1b	-0.039046388
30	0xbdb7aa0d	-0.089679815
31	0x3cc2045f	0.023683725
32	0xbd2aced8	-0.041701168
33	0x3cbe46d0	0.023227125
34	0x3cef74fa	0.029230583
35	0x3d5566d1	0.052100006
36	0x3d899a34	0.06718865
37	0xbe092821	-0.13394214
38	0x3cd36e94	0.025809564
39	0xbdb82a87	-0.089924864
40	0x3d3e01dd	0.046388496
41	0x3d20b229	0.039232407
42	0xbd7cbbdc	-0.061702594
43	0x3dfbbf80	0.12292385
44	0xbb8ba6ff	-0.004261851
45	0x3c5c0281	0.013428331
46	0xbdfd5972	-0.12370576
47	0xbc2cfaac	-0.010557812
48	0x3e00c829	0.12576355
49	0x3c874740	0.016513467
50	0xbd84a32b	-0.06476434
51	0xbcd1d673	-0.025614953
52	0x3da70791	0.0815574
53	0xbd3351f1	-0.043779317
54	0xbd074fb4	-0.033034995
55	0xbc788b71	-0.015169964
56	0xbd543639	-0.051809523
57	0xbd4422db	-0.047884803
58	0xbdb45327	-0.088049226
59	0xbd244a12	-0.0401097
60	0x3c386766	0.011255121
61	0xbd1ceec9	-0.03831366
62	0xbd48b2cb	-0.048998635
63	0xbd4cb801	-0.049980167

log_std_parameter f4 [7]
0	0xc03219fa	-2.7828355
1	0xc028a0dd	-2.6348183
2	0xc0372a35	-2.861951
3	0xc0328f04	-2.789979
4	0xc02c0aae	-2.6881518
5	0xc0373bc4	-2.8630228
6	0xc021758f	-2.5228002

net_container.0.weight f4 [64, 32]
0	0xbece9d30	-0.403543
1	0x3e0e2765	0.13882215
2	0xbec3edc6	-0.38267344
3	0xbe0c5511	-0.13704325
4	0x3d5eb6c4	0.054373518
5	0xbd87ba3f	-0.066273205
6	0x3e8f7196	0.28016347
7	0xbbf4d20b	-0.007471328
8	0x3d12420e	0.035707526
9	0xbe20a583	-0.15688138
10	0x3e2fac2d	0.17155524
11	0xbe7077d3	-0.2348321
12	0x3cd032b9	0.025414811
13	0x3d455523	0.048176896
14	0xbc7dbc65	-0.015486811
15	0xbe31bb06	-0.173565
16	0x3e09de6e	0.13463756
17	0xbd2eb7d8	-0.042655796
18	0x3ea6def5	0.32591978
19	0x3e1905c7	0.1494361
20	0x3dbb5e1e	0.09148811
21	0x3eb21e02	0.3478852
22	0xbe70d180	-0.23517418
23	0xbe80e95a	-0.25178033
24	0xbe2ce615	-0.16884644
25	0xbd20d960	-0.039269805
26	0x3d961fc0	0.073302746
27	0x3d0bd3e9	0.03413764
28	0x3d8426cc	0.064527124
29	0xbdd282ea	-0.10278876
30	0xbd9b7b9a	-0.075919345
31	0xbe1da442	-0.1539469
32	0xbdab1342	-0.083532825
33	0xbe7e701f	-0.24847458
34	0xbe837f53	-0.25683078
35	0xbe75e390	-0.2401259
36	0xbd0c17f7	-0.034202542
37	0xbd1740f3	-0.036927175
38	0xbe0f8a59	-0.14017619
39	0x3a92f76b	0.0011212652
40	0xbb5074d7	-0.0031807923
41	0xbbd16bb0	-0.006391011
42	0xbdfe38c6	-0.124131724
43	0x3c1b2bfb	0.009470935
44	0x3d6ba4ce	0.057530217
45	0x3e00df8b	0.12585275
46	0xbde25548	-0.11051422
47	0xbdf8a889	-0.121415205
48	0xbd3c2906	-0.04593756
49	0xbdafc57d	-0.0858259
50	0xbe04c27d	-0.12964816
51	0x3d70d7ed	0.058799673
52	0xbeb15204	-0.34632885
53	0xbec71081	-0.3887978
54	0xbf114ec1	-0.56760794
55	0x3ead35c3	0.3383008
56	0xbf27d1c0	-0.6555443
57	0x3e8ba112	0.27271324
58	0xbd5d8e2b	-0.05409066
59	0xbd40a94e	-0.04703646
60	0xbdbe8d2a	-0.09304269
61	0xbda03fff	-0.07824706
62	0x3d915c47	0.07097679
63	0xbcb6d78e	-0.022319581
64	0xbe5aa7fe	-0.21353146
65	0xbe018c4f	-0.1265118
66	0xbe85b535	-0.26114812
67	0x3e7f0ceb	0.24907272
68	0xbd14e847	-0.03635433
69	0x3dd886b7	0.1057257
70	0x3e2740cb	0.1633331
71	0x3e03516f	0.12824033
72	0xbc809a5a	-0.0156986
73	0xbdaff44e	-0.08591519
74	0xbe36a99a	-0.17838135
75	0x3df4c2c1	0.11951209
76	0x3e11eacf	0.14249729
77	0xbd5b67da	-0.053565837
78	0xbd57962c	-0.05263345
79	0xbc35efd0	-0.011104539
80	0x3dc42a18	0.09578341
81	0xbcd230b9	-0.025657998
82	0x3e9a94b5	0.3019158
83	0x3ee2a72c	0.44268167
84	0xbf0dd735	-0.55406505
85	0xbe872fd0	-0.26403666
86	0xbc36f535	-0.01116686
87	0x3e055583	0.13020901
88	0xbdace33a	-0.084417775
89	0xbcb9b201	-0.022667887
90	0xbd3c9bf4	-0.046047166
91	0x3d0cf73a	0.03441546
92	0xbd37bb70	-0.04485649
93	0x3dd668f4	0.10469237
94	0xbdcffebb	-0.10156008
95	0x3cb4df3d	0.022079105
96	0x3dd4f3c8	0.1039806
97	0xbe3a2b0e	-0.18180487
98	0xbdd2faf1	-0.103017695
99	0xbe82ad2a	-0.2552274
100	0x3e0e6b3e	0.13908097
101	0x3e335122	0.17511418
102	0xbddee8c3	-0.108842395
103	0x3c88de35	0.01670752
104	0x3cdfa13e	0.027298566
105	0xbbd3c29e	-0.006462409
106	0x3d96ae4d	0.07357464
107	0x3d01fb69	0.031733904
108	0xbd6b7d93	-0.057492804
109	0xbd65caa7	-0.056101467
110	0xbc83485c	-0.016025715
111	0x3d96d6a7	0.073651604
112	0x3d9a36c3	0.07529976
113	0xbd1b0164	-0.037843123
114	0xbef853ff	-0.48501584
115	0xbe418e6d	-0.18901987
116	0x3f22aa0e	0.6354073
117	0xbecd0fe8	-0.40051198
118	0x3e936928	0.28791165
119	0x3e9b3921	0.30317023
120	0x3e9e2b77	0.30892536
121	0xbddfe8ec	-0.10933098
122	0xbe5192da	-0.20466176
123	0xbe1575d9	-0.14595737
124	0xbc687b02	-0.014189484
125	0x3e1b01e5	0.15137441
126	0xbc41855a	-0.011811579
127	0xbcc04874	-0.023472048
128	0xbe02ccb9	-0.12773408
129	0xbe52d2b7	-0.20588194
130	0xbc910bd0	-0.017705828
131	0xbe120060	-0.14257956
132	0xbe0e8c68	-0.13920748
133	0x3bd7931d	0.0065788166
134	0xbd40e0bc	-0.047089323
135	0xbcf35bfe	-0.029706951
136	0x3d3ffc4a	0.04687146
137	0xbd83b4e0	-0.064309835
138	0x3b9b868e	0.004746265
139	0x3bf09e8b	0.0073431185
140	0xbe4217b5	-0.18954356
141	0x3ca4118b	0.020027896
142	0x3cb10da1	0.021612944
143	0x3c73be7e	0.01487696
144	0xbd53e79e	-0.05173456
145	0xbe04f1cd	-0.12982865
146	0x3ec01d77	0.3752248
147	0xbdc3987f	-0.09550571
148	0x3f118678	0.5684581
149	0xbed455d0	-0.4147172
150	0xbedf9f21	-0.43676093
151	0x3f0a035f	0.53911394
152	0xbf068a68	-0.5255494
153	0x3cbeb81b	0.023281148
154	0x3d0f9bc2	0.03506065
155	0x3add63a6	0.001689066
156	0x3e285fdd	0.16442819
157	0x3c893fc6	0.016754042
158	0xbd0ba6ea	-0.03409473
159	0xbe5659c3	-0.20932679
160	0xbe470074	-0.19433767
161	0xbecc0da3	-0.39854154
162	0x3d9a30cb	0.07528838
163	0x3b2813b1	0.0025646503
164	0x3dee0606	0.11622243
165	0xbe8164e7	-0.25272295
166	0xbe465c5a	-0.19371167
167	0x3d08d57b	0.033406716
168	0xbd0163d2	-0.031589337
169	0xbc46375e	-0.0120981615
170	0xbe176b89	-0.14787115
171	0x3d8dabd7	0.069175415
172	0x3dbe51de	0.09292959
173	0x3d9a4c1e	0.075340495
174	0xbc62c4e7	-0.0138408905
175	0xbdc7e5e3	-0.09760644
176	0x3cfefaef	0.031125514
177	0x3d46bef2	0.048521943
178	0x3e82dd02	0.2555924
179	0x3d6bf2a4	0.057604447
180	0xbd81dddd	-0.06341145
181	0x3e0c10ee	0.13678333
182	0x3ce5c78c	0.028049253
183	0x3c0c5cc8	0.008567043
184	0x3cb8851c	0.022524409
185	0x3cff0d74	0.031134345
186	0x3ca10e0e	0.019660022
187	0x3d45a054	0.048248604
188	0xbdea545e	-0.11441873
189	0xbd9571af	-0.07297074
190	0xbe0a173f	-0.1348543
191	0x3db822cf	0.08991014
192	0xbc0cfa4b	-0.008604596
193	0xbe686bb6	-0.22697338
194	0x3d7d4310	0.061831534
195	0x3d96c41d	0.073616244
196	0x3b93a258	0.004505437
197	0x3e9cd2c5	0.30629554
198	0xbe8a6717	-0.27031776
199	0xbdbf36b9	-0.093366094
200	0x3cff15ad	0.031138266
201	0xbe0ebdd5	-0.13939603
202	0x3e0fd85a	0.14047375
203	0xbe0b7468	-0.13618624
204	0xbe134494	-0.14381629
205	0x3db42928	0.087969124
206	0x3d91103d	0.07083175
207	0x3e1e9326	0.1548582
208	0xbdd51943	-0.10405209
209	0xbd4af828	-0.049553066
210	0xbc875026	-0.01651771
211	0x3e1a73e1	0.15083267
212	0xbf20113b	-0.6252629
213	0xbe912df4	-0.28355372
214	0xbf1c57b7	-0.6107134
215	0x3ea3345c	0.31875885
216	0xbed81364	-0.42202294
217	0xbdd64908	-0.10463148
218	0x3c9c7bc3	0.019101983
219	0xbc24480f	-0.010026946
220	0x3cde10a0	0.027107537
221	0x3dae2cc3	0.08504631
222	0xbdf476c7	-0.119367175
223	0x3d06308d	0.032761145
224	0xbe9de87e	-0.3084144
225	0xbeb78272	-0.3584171
226	0xbf0a3a6c	-0.53995395
227	0xbc22ec0d	-0.009943974
228	0x3e3d03df	0.18458508
229	0x3e15fdd9	0.14647616
230	0x3eaebc3c	0.34127986
231	0x3c909977	0.017651303
232	0xbd0585fb	-0.032598477
233	0xbe19d504	-0.15022665
234	0xbe877881	-0.26459125
235	0xbe18f3ca	-0.14936748
236	0xbdc0af04	-0.094083816
237	0xbbd6f522	-0.006559984
238	0x3c9c89f3	0.019108748
239	0xbc466d50	-0.012111023
240	0xbd9c8141	-0.07641841
241	0x3e2faab6	0.17154965
242	0x3e9cec54	0.30649054
243	0x3df7f008	0.12106329
244	0x3d902b92	0.070395604
245	0xbd1f4dca	-0.038892545
246	0xbf6dd90a	-0.929093
247	0xbe33d712	-0.17562512
248	0xbf6aefb1	-0.9177199
249	0x3dc4572d	0.0958694
250	0x3e16fa4a	0.14743915
251	0x3ceeabcb	0.029134652
252	0xbddc3d75	-0.107539095
253	0x3de57843	0.11204579
254	0xbdac6380	-0.084174156
255	0x3ea59e13	0.32347164

net_container.0.bias f4 [64]
0	0x3e12f22f	0.14350198
1	0x3e5b7a95	0.2143348
2	0x3e748a64	0.23880917
3	0x3e816174	0.25269663
4	0xbacbfb9b	-0.0015562655
5	0x3df8f0d4	0.12155309
6	0x3e68a804	0.22720343
7	0xbe289957	-0.16464745
8	0x3e2c9082	0.16852
9	0xbea6acb4	-0.32553637
10	0xbda8803a	-0.08227582
11	0x3e5df250	0.21674466
12	0xbe80d911	-0.2516561
13	0xbea4891c	-0.32135856
14	0x3e34e987	0.17667209
15	0xbd9d82d9	-0.07690973
16	0xbe1b2d26	-0.15153942
17	0xbe92bfe3	-0.28662023
18	0x3db2b0ca	0.08725126
19	0xbe58d7de	-0.21176097
20	0xbeadf363	-0.33974752
21	0xbe28e42e	-0.16493294
22	0x3d06dbd2	0.03292448
23	0x3dad6438	0.08466381
24	0x3e17c667	0.14821778
25	0xbefc3710	-0.4926076
26	0x3e37f244	0.17963511
27	0x3ec8ece5	0.39243236
28	0xbe20e638	-0.15712821
29	0xbcf38a77	-0.029729111
30	0x3c5528ee	0.013010247
31	0xbe6a5270	-0.2288301
32	0xbe705c8c	-0.23472804
33	0xbe47af1e	-0.19500396
34	0xbe605e3d	-0.21910949
35	0xbe70205c	-0.23449844
36	0xbdf8fc97	-0.12157553
37	0xbeb65dd9	-0.35618475
38	0x3d0f4503	0.034977924
39	0x3ead3009	0.3382571
40	0x3e8632f4	0.2621075
41	0x3eaa7870	0.33295012
42	0xbed95d76	-0.42454118
43	0xbe8dc051	-0.27685788
44	0xbe58d7e9	-0.21176113
45	0xbea06731	-0.3132873
46	0x3decb59d	0.115580775
47	0xbe24ebb8	-0.16105545
48	0xbedb856f	-0.4287524
49	0xbc95fd03	-0.018309122
50	0xbdef4078	-0.11682218
51	0x3db6bbe9	0.0892256
52	0xbe81592e	-0.2526335
53	0xbdf75cd8	-0.120782554
54	0xbe8f5167	-0.27991793
55	0xbd84de86	-0.064877555
56	0xbc2a9a1c	-0.010412719
57	0xbe8e4a4c	-0.2779106
58	0xbecc1ee4	-0.39867318
59	0xbe9c141f	-0.304841
60	0xba309cc3	-0.00067372265
61	0xbebb3dca	-0.3657058
62	0x3aecc403	0.0018063787
63	0xbe7a1e90	-0.24425721

net_container.2.weight f4 [64, 64]
0	0x3e028b6b	0.12748496
1	0xbe457913	-0.19284467
2	0xbcae9304	-0.021310337
3	0xbd852b02	-0.06502344
4	0xbe407968	-0.18796313
5	0xbd471ef9	-0.048613522
6	0xbcb71aee	-0.022351708
7	0x3e2f28e2	0.1710544
8	0xbd281e47	-0.0410445
9	0x3e8925d3	0.2678667
10	0x3dc1564b	0.09440287
11	0x3e60e8b9	0.21963777
12	0x3d9afe97	0.075680904
13	0xbcf2866c	-0.029605113
14	0x3e48787d	0.19577213
15	0xbe806133	-0.25074157
16	0xbcb0da54	-0.021588482
17	0xbdccd1e3	-0.1000097
18	0xbd6ca53f	-0.05777478
19	0xbd1dde1a	-0.03854189
20	0xbd0bf4dd	-0.034169067
21	0xbc1fda5b	-0.00975665
22	0xbe068558	-0.13136804
23	0xbe714508	-0.2356149
24	0x3e982e67	0.29722902
25	0x3db1244d	0.08649502
26	0xbe9a2c67	-0.30112
27	0xbe2fb1ec	-0.17157716
28	0xbcf28e88	-0.02960898
29	0xbe5c8428	-0.21534789
30	0xbdf63a48	-0.12022835
31	0xbef9d34d	-0.48794022
32	0xbe48c146	-0.19604978
33	0x3ec4113a	0.38294393
34	0x3d188ba6	0.037242554
35	0x3ddf9e96	0.1091892
36	0x3dd0bce1	0.10192276
37	0xbe8c7409	-0.27432278
38	0x3ce8f6cb	0.028437993
39	0xbc363e11	-0.011123196
40	0xbd8aa42d	-0.06769595
41	0x3d44cb8b	0.048045676
42	0x3e68b275	0.22724326
43	0x3e4937fc	0.19650263
44	0xbd0bd717	-0.034140673
45	0x3e03afec	0.12860078
46	0xbe84d074	-0.25940287
47	0x3e91b105	0.28455368
48	0xbe015a20	-0.12632036
49	0xbd7b0e25	-0.061292786
50	0x3db009db	0.0859563
51	0xbd8bfaca	-0.068349436
52	0x3c7e6c6c	0.0155287795
53	0xbe26bb64	-0.16282421
54	0xbc835e56	-0.016036194
55	0x3d23d836	0.040001117
56	0xbe03502b	-0.1282355
57	0x3d95dcee	0.073175296
58	0x3ce36488	0.027757898
59	0x3e112b9d	0.14176793
60	0xbe9b8c5f	-0.30380532
61	0xbc9aee19	-0.018912362
62	0xbe58fdf9	-0.21190633
63	0x3d84472c	0.064588875
64	0xbd28b71c	-0.04119025
65	0x3db7feda	0.08984156
66	0x3cc799cd	0.02436533
67	0x3dfb3ef0	0.12267864
68	0x3e01c8ac	0.12674206
69	0xbd759474	-0.05995603
70	0x3d5f55d1	0.0545252
71	0xbea5c770	-0.3237872
72	0x3df76ee4	0.120816976
73	0x3c8a73ba	0.016900886
74	0xbef1f6e2	-0.4725867
75	0x3dc7a665	0.09748534
76	0x3d83ad61	0.06429554
77	0xbdfde15d	-0.123965
78	0x3d4e72df	0.05040252
79	0x3cbc2096	0.022964757
80	0xbe2f3850	-0.17111325
81	0x3d37b0a9	0.04484621
82	0xbcc61850	-0.024181515
83	0xbdfe7a3e	-0.124256596
84	0xbe262604	-0.1622544
85	0x3e64d1c9	0.22345652
86	0xbcd4b48b	-0.025964996
87	0xbd6e453e	-0.058171503
88	0x3dc0645e	0.093941435
89	0x3e960501	0.29300693
90	0x3b28921f	0.002572186
91	0x3ca2a076	0.019851904
92	0x3d127560	0.03575647
93	0x3e01423e	0.12622926
94	0xbeba88ae	-0.36432403
95	0xbe3741bd	-0.17896171
96	0x3e85223f	0.2600269
97	0xbddd7f0d	-0.10815249
98	0xbe7a4be6	-0.24443015
99	0x3bdedd25	0.006801265
100	0xbe940c4f	-0.2891564
101	0x3d30aa3e	0.043131106
102	0xbd34603f	-0.0440371
103	0x3e1675f4	0.14693433
104	0x3e1dbe60	0.15404654
105	0x3dd92efb	0.10604664
106	0xbc4ca758	-0.01249107
107	0xbd0fd565	-0.03511562
108	0x3d4f1cb8	0.050564498
109	0xbe2cdb3c	-0.16880506
110	0xbe0db720	-0.13839388
111	0xbd4594fa	-0.04823778
112	0xbd864698	-0.065564334
113	0xbde5f66c	-0.11228642
114	0xbca9d65c	-0.020732097
115	0xbe350bb6	-0.17680249
116	0xbe22fb05	-0.15916069
117	0xbe7f4b2f	-0.24931024
118	0x3d0c36a7	0.034231808
119	0xbd04d4d7	-0.032429542
120	0x3dc45bd8	0.0958783
121	0x3dafafc5	0.08578447
122	0xbe4d71a6	-0.20062885
123	0xbe44403e	-0.19165131
124	0xbc7bc9ba	-0.01536792
125	0xbe8df3b4	-0.27724993
126	0xbd18dad3	-0.037318062
127	0xbd936283	-0.07196524
128	0xbd8b6099	-0.06805534
129	0xbdf5c59b	-0.12000581
130	0xbe50f88a	-0.2040731
131	0x3e6b5dce	0.22985002
132	0xbe203408	-0.15644848
133	0x3d2026d3	0.039099526
134	0xbe99c777	-0.30034992
135	0xbe028550	-0.12746167
136	0xbe807469	-0.25088814
137	0x3dcd7dcc	0.100337595
138	0xbc213f48	-0.009841748
139	0xbdffd3a3	-0.124915384
140	0xbe14917d	-0.14508624
141	0x3e456aea	0.19279066
142	0xbd64a24e	-0.05581885
143	0xbdd1bbf5	-0.10240928
144	0xbea7764e	-0.32707447
145	0xbddb5b08	-0.10710722
146	0x3d3ea5f6	0.04654499
147	0xbdee866b	-0.11646732
148	0x3ddda002	0.10821535
149	0x3d687287	0.056749847
150	0xbe22b95b	-0.1589102
151	0x3e01af3d	0.12664504
152	0xbcb0f466	-0.021600913
153	0x3d112135	0.03543206
154	0xbc81cb24	-0.015843935
155	0x3c285e60	0.010276407
156	0xbce719b4	-0.028210498
157	0xbdb5ca47	-0.08876472
158	0x3e0b8875	0.13626273
159	0xbd9d00c1	-0.076661594
160	0xbd9ae7ae	-0.07563721
161	0xbe5015aa	-0.20320764
162	0xbe0b9ce3	-0.13634066
163	0x3cc12e89	0.02358176
164	0x3ddd4467	0.10804062
165	0xbe22c115	-0.15893967
166	0xbdb8483e	-0.08998154
167	0x3de48235	0.111576475
168	0xbe2a6c31	-0.16642834
169	0x3da68d77	0.08132451
170	0xbeab712b	-0.33484778
171	0x3d2e860b	0.042608302
172	0xbdba0077	-0.0908212
173	0x3e566384	0.209364
174	0x3dbe9bc3	0.09307053
175	0xbb831e3c	-0.004001407
176	0xbccd4379	-0.025056588
177	0x3d41b6e8	0.047293574
178	0xbd93408e	-0.07190047
179	0xbe84aea6	-0.25914496
180	0xbe004598	-0.12526548
181	0xbd6dfe20	-0.05810368
182	0xbda59e0f	-0.08086788
183	0xbdaedd9a	-0.08538361
184	0xbdea4caf	-0.114404075
185	0x3d9ae734	0.0756363
186	0x3d0d3e4e	0.034483247
187	0x3dd1d4ac	0.10245642
188	0xbdbbe70c	-0.09174928
189	0x3dc28025	0.09497098
190	0x3e3a4e36	0.18193898
191	0x3c8610d8	0.016365454
192	0xbea0f1ca	-0.3143447
193	0x3e15c933	0.14627533
194	0xbe64dae5	-0.22349127
195	0x3d903f9f	0.07043385
196	0xbcf64a15	-0.030064622
197	0x3d7b7473	0.06139035
198	0x3dd44409	0.10364539
199	0xbe99ec38	-0.30063033
200	0xbe0a408d	-0.13501187
201	0xbe9f3ddd	-0.31101885
202	0xbd47aae2	-0.04874695
203	0x3e1d8135	0.1538132
204	0x3c3dbd61	0.011580796
205	0x3cb6bba1	0.022306265
206	0xbdb8a4b6	-0.09015791
207	0x3c70306b	0.014659981
208	0xbebd15e3	-0.3693076
209	0xbe9a9080	-0.3018837
210	0x3d711b8d	0.058864165
211	0x3b66ccdf	0.0035217328
212	0x3d5683b9	0.052371714
213	0xbead851f	-0.33890626
214	0xbe30e094	-0.1727317
215	0xbc750b83	-0.014956358
216	0xbd15c2af	-0.036562618
217	0xbe38be9f	-0.18041466
218	0xbd803dd2	-0.06261791
219	0x3cbc0553	0.022951758
220	0xbce87f5e	-0.028381046
221	0x3d5b04c9	0.05347136
222	0xbd7d5c33	-0.061855506
223	0xbe2c94e8	-0.16853678
224	0x3c1f4fe9	0.009723642
225	0xbe60f4ae	-0.21968338
226	0x3d544ec4	0.05183293
227	0xbe82ac08	-0.25521874
228	0x3e1b67fe	0.15176389
229	0xbabc7f36	-0.0014381174
230	0x3d3346f0	0.043768823
231	0x3d14a7e2	0.036292918
232	0xbe2e37cb	-0.17013471
233	0xbd6fc32d	-0.058535744
234	0xbe7b3d98	-0.24535215
235	0xbd2547a9	-0.040351544
236	0xbe084a80	-0.1330967
237	0xbc33d09a	-0.010975027
238	0x3d6517d5	0.05593093
239	0xbe026b09	-0.12736143
240	0xbd81a7a4	-0.06330803
241	0xbd76cc70	-0.06025356
242	0x3e884876	0.26617783
243	0xbeb371c3	-0.3504773
244	0x3d4d7d2d	0.050168205
245	0xbe9785d1	-0.2959428
246	0xbe1747c7	-0.14773475
247	0xbeacb3ca	-0.33730918
248	0xbc43a61b	-0.011941458
249	0xbdbcd712	-0.09220709
250	0x3bad5e3d	0.005290775
251	0xbe92bbee	-0.28659004
252	0x3b59157d	0.003312438
253	0x3cd769cd	0.026295567
254	0x3c4ae5ce	0.012383891
255	0xbd520f7c	-0.0512843

net_container.2.bias f4 [64]
0	0xbebb66d6	-0.36601895
1	0xbe45013f	-0.19238757
2	0xbe5ded93	-0.21672659
3	0xbe213269	-0.15741886
4	0xbe646147	-0.22302733
5	0xbdf69937	-0.12040942
6	0xbe80865a	-0.25102502
7	0x3d18ffac	0.037353203
8	0xbea1fde2	-0.3163901
9	0x3e0fa4d0	0.14027715
10	0xbe02d99c	-0.12778324
11	0x3d815190	0.06314385
12	0xbebf8f49	-0.37414005
13	0xbdf69160	-0.12039447
14	0xbebbf763	-0.3671218
15	0x3e7dbb6b	0.24778526
16	0x3dedc959	0.1161067
17	0xbe8eab61	-0.27865127
18	0x3cd3f499	0.02587347
19	0xbe56ebe5	-0.20988424
20	0xbe964500	-0.29349518
21	0xbe833a20	-0.25630283
22	0xbdacdee1	-0.08440948
23	0x3e3694c4	0.17830187
24	0x3db22021	0.08697534
25	0x3dd00c0f	0.1015855
26	0xbe18a6ea	-0.14907423
27	0xbd5427b5	-0.05179568
28	0x3d47041a	0.048587896
29	0x3cab8dbe	0.020941611
30	0xbd864d4f	-0.06557714
31	0xbe7c9088	-0.2466451
32	0x3e153fc6	0.14575109
33	0x3e2e15f8	0.17000568
34	0x3dc169a7	0.0944398
35	0x3dd35798	0.103194416
36	0xbef1ef06	-0.47252673
37	0xbe9def6f	-0.30846736
38	0xbdcb9a76	-0.099415705
39	0xbde4bc4b	-0.111687265
40	0x3d7110a4	0.05885376
41	0xbdc5477e	-0.09632777
42	0xbe82ba8a	-0.25532943
43	0x3e458406	0.19288644
44	0xbec83388	-0.39101815
45	0x3ae45807	0.0017421254
46	0xbe39230e	-0.18079779
47	0x3e874f66	0.26427764
48	0xbe6e4042	-0.232667
49	0x3e499bf9	0.19688405
50	0x3d066d8d	0.03281932
51	0xbd32ce73	-0.043653917
52	0x3e7c94f6	0.24666199
53	0xbe994a1e	-0.2993936
54	0xbe64bbc1	-0.22337247
55	0x3e107180	0.14105797
56	0xbed21f48	-0.4103949
57	0xbd7664c9	-0.06015471
58	0xbdab4a89	-0.08363826
59	0xbbbdd3bc	-0.005793063
60	0xbe1e65fd	-0.15468593
61	0xbed7602e	-0.42065567
62	0xbecca507	-0.39969656
63	0xbcf7d1d6	-0.030251425

policy_layer.weight f4 [7, 64]
0	0x3e84847c	0.25882328
1	0xbcd08326	-0.025453161
2	0xbd9c1df8	-0.076229036
3	0xbe055de1	-0.13024093
4	0xbd11201b	-0.03543101
5	0xbb59e802	-0.003324986
6	0xbd335225	-0.04377951
7	0x3d4b4bce	0.04963284
8	0xbd7aa280	-0.06119013
9	0x3e19de77	0.1502627
10	0x3e46ffb9	0.19433488
11	0x3dc4dec3	0.09612801
12	0xbd216fea	-0.03941337
13	0xbe61311a	-0.21991387
14	0xbc6e28ac	-0.014536064
15	0xbd594e03	-0.053052913
16	0xbd87bbb4	-0.066275984
17	0xbd743fdf	-0.059631225
18	0x3c58456b	0.013200144
19	0x3e1795c3	0.14803223
20	0xbde14648	-0.10999733
21	0xbdc99ae9	-0.09844
22	0x3e02b8d8	0.12765825
23	0x39e7e8d6	0.0004423323
24	0x3d49a237	0.049226966
25	0xbe8bea2a	-0.2732709
26	0xbe0e71e4	-0.13910633
27	0xbb14985e	-0.0022673826
28	0xbe333292	-0.1749976
29	0x3db0e456	0.086373016
30	0xbc053cff	-0.008132218
31	0xbcd8a797	-0.0264471
32	0xbccb9d1c	-0.024855189
33	0x3df80a59	0.12111349
34	0x3e046ff6	0.12933335
35	0xbe0ecd63	-0.13945536
36	0x3d1bfa7d	0.03808068
37	0x3d034d91	0.032056395
38	0xbd8f84c2	-0.070077434
39	0xbe9d1b98	-0.30685115
40	0x3dd518f1	0.10405148
41	0xbddfdf75	-0.10931293
42	0xbcd10a84	-0.02551771
43	0xbd0b7612	-0.034048147
44	0xbe2427ea	-0.16030851
45	0xbdf1a781	-0.11799527
46	0xbd6779a8	-0.056512505
47	0x3dceeeda	0.10104151
48	0x3dae4868	0.08509904
49	0xbbdde134	-0.006771231
50	0xbd95d9ed	-0.07316957
51	0x3c40d810	0.011770263
52	0xbd6560c7	-0.056000497
53	0x3d68e0d1	0.056855027
54	0x3b9d92dc	0.004808767
55	0xbe13cfe3	-0.14434771
56	0x3e8b083a	0.27154714
57	0x3dd24047	0.10266166
58	0x3c167e3b	0.009185369
59	0xbda69147	-0.08133178
60	0xbc13a82b	-0.009012262
61	0xbd2ccc71	-0.042187158
62	0x3e90f4e3	0.28311834
63	0xbe1f4ea0	-0.15557337
64	0xbd65dcc6	-0.05611875
65	0xbcac731f	-0.021050988
66	0xbe5f7328	-0.21821272
67	0xbdf8c40e	-0.121467695
68	0xbdd21322	-0.102575555
69	0x3c382421	0.011239083
70	0x3d5e811c	0.054322347
71	0xbbcea40c	-0.006306177
72	0xbcd2aa08	-0.025715843
73	0x3ddfd996	0.10930173
74	0xbd0a4c60	-0.033764243
75	0x3d8eaf50	0.06967032
76	0xbc3ab6e2	-0.011396142
77	0x3dc2a7bb	0.09504648
78	0x3d7d2dc8	0.06181124
79	0xbd5c811a	-0.05383406
80	0xbbfc1641	-0.0076930826
81	0x3d213c64	0.039364234
82	0xbc854bbb	-0.016271463
83	0xbd3acd4e	-0.04560595
84	0xbd79d02c	-0.060989544
85	0xbe554c1a	-0.20829812
86	0x3d91f1e7	0.07126217
87	0x3dbd4551	0.09241737
88	0x3d4eb655	0.050466854
89	0xbd76f714	-0.060294226
90	0xbc125d26	-0.008933341
91	0xbe1806b6	-0.1484631
92	0x3ca7ed45	0.020498881
93	0x3d9bc870	0.0760659
94	0xbe64e59d	-0.22353216
95	0xbe6086e6	-0.2192646
96	0x3d69d9eb	0.05709259
97	0x3dcc53d4	0.099769264
98	0x3de5a549	0.11213166
99	0x3d4eac5a	0.050457336
100	0xbcfb4037	-0.030670268
101	0xbd8da278	-0.06915754
102	0x3e69686a	0.22793737
103	0xbbdefe3a	-0.0068052085
104	0x3e37ccdb	0.1794924
105	0xbb195c2b	-0.0023400884
106	0x3df41f36	0.119200155
107	0x3e1583c5	0.14601047
108	0x3d84ecc0	0.06490469
109	0x3e0c1fcf	0.13684009
110	0x3e034592	0.12819508
111	0x3b458cbd	0.00301437
112	0xbc36786f	-0.011137112
113	0x3d8c4044	0.06848195
114	0x3dc5aaf7	0.096517496
115	0x3c94ff60	0.018188179
116	0xbd48e5f4	-0.049047425
117	0xbda808a4	-0.08204773
118	0xbd142916	-0.036171995
119	0x3df7c8ad	0.12098823
120	0xbdd0d6bf	-0.101972096
121	0xbd54f935	-0.051995475
122	0xbc908442	-0.01764119
123	0xbd0f92b4	-0.035052016
124	0xbd399ce5	-0.045315642
125	0x3b97b87d	0.004630147
126	0xbe22760d	-0.15865345
127	0xbd84dff8	-0.06488031
128	0x3e86a895	0.26300493
129	0x3de1a4c3	0.11017754
130	0xbc05a80c	-0.008157741
131	0xbdb30902	-0.087419525
132	0x3cfd458d	0.030916953
133	0xbd66a61c	-0.056310758
134	0xbb9c3415	-0.004766951
135	0x3ded88c0	0.115983486
136	0x3d659c50	0.056057274
137	0x3b22ad80	0.0024822652
138	0x3e14cb31	0.14530636
139	0xbc1fc5da	-0.009751761
140	0xbcdb919f	-0.026802836
141	0xbe891857	-0.26776382
142	0xbd47bacb	-0.048762124
143	0xbe0ebc65	-0.13939054
144	0x3d5645af	0.05231255
145	0xbdeb8b18	-0.115011394
146	0xbe1f95d9	-0.15584506
147	0x3e07cb83	0.13261227
148	0xbd2e485e	-0.042549483
149	0x3cbc0826	0.022953104
150	0xbdf95a37	-0.1217541
151	0x3d1c0a84	0.038095966
152	0xbc15f83f	-0.009153425
153	0xbde1341a	-0.10996266
154	0xbe0feb20	-0.14054537
155	0x3da70b38	0.08156437
156	0x3db8c04d	0.090210535
157	0xbe261a4a	-0.16220966
158	0x3a814729	0.0009863126
159	0xbd30a4f4	-0.04312606
160	0xbd187dc5	-0.03722932
161	0x3d5fff8f	0.05468708
162	0x3e64e18f	0.22351669
163	0x3d96bc9a	0.07360192
164	0x3d7783bf	0.060428377
165	0x3e349d75	0.1763819
166	0xbd42618e	-0.047456317
167	0xbe78904a	-0.24273792
168	0x3e520879	0.20511045
169	0xbd5a144e	-0.05324202
170	0x3b8e41c3	0.0043413355
171	0x3e2ceb21	0.1688657
172	0xbdf9adc2	-0.12191345
173	0x3d608ae6	0.054819964
174	0x3c8f59e8	0.017498925
175	0xbd6c6f8c	-0.057723567
176	0xbe19bf5c	-0.15014404
177	0xbd976a81	-0.07393361
178	0x3ce689c9	0.028141873
179	0xbdc2fb44	-0.09520581
180	0x3d6e403f	0.05816674
181	0xbdcc86e9	-0.099866696
182	0xbddff282	-0.109349266
183	0xbda54720	-0.08070207
184	0x3e2398e7	0.15976296
185	0x3e280758	0.16409051
186	0x3ccb110c	0.024788402
187	0xbd43159c	-0.04762803
188	0xbdaf2c9b	-0.0855343
189	0xbbbbb4e1	-0.0057283496
190	0xbda59bc8	-0.080863535
191	0xbe120451	-0.14259459
192	0xbda8ff92	-0.08251871
193	0x3d6ac2fe	0.057314865
194	0x3da5000e	0.08056651
195	0xbce5820b	-0.02801611
196	0xbdd3c340	-0.10339975
197	0xbe4a4d4f	-0.19756053
198	0xbe978ef1	-0.29601243
199	0xbbd24292	-0.006416627
200	0xbe3a3cd5	-0.18187268
201	0xbc2be86c	-0.010492425
202	0x3d3c0b35	0.045909125
203	0x3d3bed0c	0.045880362
204	0xbdf40cea	-0.11916526
205	0xbe18850a	-0.148945
206	0xbe3053cc	-0.17219466
207	0x3cda7774	0.026668288
208	0x3d065a1c	0.03280078
209	0xbc8a1a0c	-0.016858123
210	0x3e08f894	0.13376075
211	0xbe14886f	-0.1450517
212	0xbd713353	-0.058886837
213	0xbd1c6db8	-0.038190573
214	0xbbab3668	-0.0052249916
215	0x3ddcf5bd	0.10789058
216	0xbd60eebe	-0.054915182
217	0xbe27f86f	-0.16403364
218	0xbe9842d3	-0.29738483
219	0xbdf9d5b5	-0.121989645
220	0x3d3ef99d	0.04662477
221	0x3e3da1de	0.18518779
222	0xbcc053ad	-0.0234774
223	0x3e4d7dae	0.20067474
224	0x3d991e7f	0.0747652
225	0x3de136d6	0.10996787
226	0xbdd1073b	-0.10206457
227	0x3ca2099a	0.019779969
228	0xbca83213	-0.02053169
229	0xbdedc6ff	-0.11610221
230	0x3d768106	0.06018164
231	0xbcf51296	-0.029916089
232	0x3d81da4e	0.063404664
233	0xbdc5d8d2	-0.09660496
234	0xbe3765ca	-0.17909923
235	0xbadc5aee	-0.0016811767
236	0x3ccdbd50	0.025114685
237	0x3dfb910a	0.122835234
238	0xbce333fd	-0.02773475
239	0x3d26d83f	0.040733572
240	0x3d18ab26	0.037272595
241	0xbce5e3aa	-0.02806266
242	0x3e21d40f	0.1580355
243	0x3d5f635a	0.05453811
244	0x3d91ce7e	0.071194634
245	0xbdbae2dd	-0.09125302
246	0x3da5709d	0.0807812
247	0x3dadb498	0.08481711
248	0xbe127d80	-0.14305687
249	0xbd900de2	-0.07033898
250	0x3d844fc8	0.064605296
251	0x3ba55281	0.0050452356
252	0xbd84fa0f	-0.064930074
253	0xbe05522f	-0.13019632
254	0xbe716043	-0.23571877
255	0x3ad11c23	0.001595382

policy_layer.bias f4 [7]
0	0x3d1c0a95	0.03809603
1	0x3d9e48e7	0.07728749
2	0xbccf52b6	-0.025307994
3	0x3e92e318	0.28688884
4	0xbd368695	-0.04456194
5	0xbe0f56c6	-0.13997945
6	0x3d5f1325	0.054461617
