logs/skrl/reach_franka/2024-12-18_21-11-53_ppo_torch/checkpoints/agent_19200.pt (torch, 96272 bytes, 38 tensors)

log_std_parameter f4 [7]
000000 81 05 2c c0 09 4c 24 c0 77 7d 32 c0 98 b7 2e c0
       -2.687836 -2.5671408 -2.7889078 -2.7299557
000010 a3 9e 28 c0 1d f2 32 c0 b7 0c 1e c0
       -2.6346824 -2.7960274 -2.469526

net_container.0.weight f4 [64, 32]
000000 d7 41 ce be ff b7 10 3e 3d 89 c3 be cc cc 0c be
       -0.40284607 0.14132689 -0.38190642 -0.13749999
000010 42 ee 51 3d 9b 6b 85 bd 55 cd 8e 3e 13 14 f1 bb
       0.05125261 -0.06514665 0.2789103 -0.0073571294
000020 40 dc 1b 3d 69 b3 1e be 22 36 2a 3e 2a 69 79 be
       0.038051844 -0.15498127 0.16622213 -0.24356523
000030 6b d2 d0 3c c6 82 42 3d 63 40 b9 bc 51 55 31 be
       0.02549096 0.047487997 -0.02261371 -0.17317702
000040 e8 8d 0e 3e 31 73 2d bd b2 3d a6 3e c1 78 19 3e
       0.1392132 -0.042346183 0.32468945 0.1498747
000050 12 c7 ba 3d a5 d2 b3 3e 55 56 71 be ee 93 82 be
       0.09120001 0.35121647 -0.2356809 -0.25503486
000060 b6 6e 2d be f2 54 20 bd 42 3c 99 3d 9a c2 06 3d
       -0.16936764 -0.03914351 0.074821964 0.03290043
000070 47 96 82 3d 18 c4 d4 bd cb 77 97 bd 74 85 1e be
       0.063763194 -0.103889644 -0.073958956 -0.15480596
000080 e3 26 ac bd 7e a2 7e be c4 87 82 be 5d 15 76 be
       -0.084058546 -0.24866673 -0.25494206 -0.24031587
000090 0e 00 1a bd 73 00 17 bd 17 6c 10 be 4c cb 8e 3b
       -0.03759771 -0.036865663 -0.14103733 0.004357731
0000a0 ce cb 5f 36 85 63 6b bc d2 86 f8 bd 69 86 8b 3c
       3.334822e-06 -0.014366989 -0.1213509 0.017031865
0000b0 38 1c 69 3d 69 b9 fb 3d f4 ff dc bd 8f c4 fe bd
       0.056911677 0.122912236 -0.10791007 -0.12439834
0000c0 c2 04 4c bd b8 85 ad bd 41 1b 02 be 1c 9d 80 3d
       -0.049809225 -0.084727705 -0.12705709 0.06279966
0000d0 16 3d b1 be 59 f9 c8 be e8 c9 10 bf 33 16 af 3e
       -0.34616917 -0.39252737 -0.56558084 0.34196624
0000e0 c3 49 27 bf 32 cc 8a 3e 46 4c 5a bd b6 b9 38 bd
       -0.65346926 0.27108914 -0.053295396 -0.045098983
0000f0 ef 6c bc bd 3b ac a2 bd ee 00 8d 3d 9b 25 cc bc
       -0.09200465 -0.079430066 0.06884943 -0.024920275
000100 ce 79 5c be 24 12 05 be 52 69 84 be b0 3d 7d 3e
       -0.2153084 -0.12995201 -0.25861603 0.24730563
000110 02 bd 18 bd 34 ca d6 3d 5f d9 24 3e 0f 83 04 3e
       -0.037289627 0.10487786 0.16098545 0.1294062
000120 f9 1a 12 bc 59 41 b8 bd 0f 74 3a be 61 f7 f5 3d
       -0.008917564 -0.08996839 -0.18208335 0.120100744
000130 85 35 12 3e ef 5a 44 bd a7 0e 60 bd 10 4c ea bb
       0.14278229 -0.047938284 -0.054701474 -0.0071501806
000140 b9 03 cc 3d c1 76 dd bc 02 ec 9a 3e c8 28 e4 3e
       0.099616475 -0.027034165 0.30258185 0.44562364
000150 5d b1 0c bf 11 df 86 be c2 ba 42 bc cc b5 04 3e
       -0.54958135 -0.2634206 -0.011885347 0.12959975
000160 c5 66 ae bd 2e 8a c5 bc 40 4a 44 bd 65 50 16 3d
       -0.085156955 -0.02411374 -0.047922373 0.036697764
000170 b8 10 46 bd a9 fb d8 3d c4 c6 ca bd 51 c6 a2 3c
       -0.048355788 0.10594875 -0.09901193 0.019869955
000180 19 f5 d8 3d fb aa 34 be 95 e7 d6 bd d9 9c 7e be
       0.10593624 -0.17643349 -0.104933895 -0.2486452
000190 bc a8 0e 3e 99 fc 30 3e 3a 0b d4 bd a3 7d 88 3c
       0.13931555 0.17283858 -0.10353704 0.01666147
0001a0 16 b8 04 3d 59 d7 2f bb f8 56 a0 3d c2 bd 07 3d
       0.03240212 -0.0026831238 0.07829088 0.03313995
0001b0 43 c2 74 bd a2 dd 89 bd b6 24 6e bc 94 5f 8c 3d
       -0.059755575 -0.06731726 -0.01453512 0.068541676
0001c0 88 4e ab 3d ef fa 0c bd cc 28 f7 be 63 70 43 be
       0.08364588 -0.034418996 -0.48273313 -0.19085841
0001d0 5d da 21 3f 84 86 ce be f1 88 95 3e 8d aa 9c 3e
       0.6322382 -0.40337002 0.2920604 0.3059887
0001e0 c4 59 a0 3e bd 8c da bd bd d4 4c be 72 06 18 be
       0.31318486 -0.10671375 -0.20003028 -0.14846209
0001f0 ee d2 bb bb cd 32 1a 3e 8b 47 85 bc f2 48 b0 bc
       -0.005731932 0.15058441 -0.016269466 -0.021519158
000200 4f 90 03 be 72 1c 53 be d2 1e 90 bc 07 f6 13 be
       -0.12848018 -0.2061632 -0.017592821 -0.1444932
000210 4f 4d 11 be c0 c6 96 3b 8f aa 44 bd e9 83 2a bd
       -0.14189647 0.0046013296 -0.04801422 -0.041629706
000220 0d 6d 5f 3d 7b 48 72 bd 5d ae e6 3a 33 0e 02 3c
       0.05454736 -0.059151154 0.0017599572 0.007937956
000230 1f 6b 47 be b2 fb 8b 3c 2a 7d 3c 3c b0 51 81 3c
       -0.19474457 0.017087791 0.011504451 0.015786022
000240 00 69 63 bd 9f e2 01 be 5e 06 c1 3e 35 f3 ce bd
       -0.055520058 -0.12684105 0.3770017 -0.10104982
000250 24 18 11 3f f3 ab d5 be e2 76 db be e8 aa 0a 3f
       0.5667746 -0.4173275 -0.42864138 0.5416703
000260 d6 68 04 bf dc d4 bb 3c 40 f5 ee 3c 33 19 25 3b
       -0.51722467 0.022928648 0.029169679 0.0025192022
000270 dc f3 26 3e fd bf 8e 3c 4d 15 1b bd 73 f0 57 be
       0.16303962 0.017425532 -0.03786211 -0.21087818
000280 58 bf 46 be 92 48 cc be 79 fd 98 3d 54 82 af 3a
       -0.1940893 -0.39899117 0.07470221 0.0013390281
000290 32 16 e8 3d 5a 0f 81 be 89 4b 47 be 06 9e 17 3d
       0.113323584 -0.25207025 -0.19462408 0.037015937
0002a0 73 39 c6 bc 10 87 01 bc a3 b7 17 be 90 74 8f 3d
       -0.024197316 -0.007905737 -0.14816146 0.070046544
0002b0 fc 76 bd 3d 92 ad 8f 3d b2 a5 07 bc 25 17 b9 bd
       0.0925121 0.07015528 -0.008279251 -0.090376176
0002c0 77 94 e3 3c c7 49 34 3d 57 6a 83 3e 2a a6 6d 3d
       0.027780754 0.044015672 0.25667068 0.058019795
0002d0 cc e2 80 bd cc 0c 0b 3e e7 49 00 3d 2b 4a 1c 3c
       -0.06293258 0.135791 0.03132048 0.009539167
0002e0 d2 07 d4 3c 1c 2d 04 3d 60 4e 80 3c c9 c1 47 3d
       0.025882635 0.032269582 0.015662372 0.048768792
0002f0 40 a5 e7 bd e8 f6 97 bd 1d 40 0a be ad 9c b6 3d
       -0.11310816 -0.074201405 -0.1350102 0.08916602
000300 08 62 b0 bb 1d a9 6c be 8c f5 71 3d dc 90 89 3d
       -0.00538278 -0.23111387 0.059072062 0.06717083
000310 4d ee dd 3a 75 a0 9d 3e 86 84 88 be 48 b7 b1 bd
       0.0016931981 0.30786481 -0.26663607 -0.08677536
000320 21 f4 fb 3c 04 65 14 be ab 79 0a 3e 0a 78 08 be
       0.030756058 -0.1449166 0.13522975 -0.13327041
000330 67 d9 11 be a1 3e c1 3d ed d1 9a 3d c5 a0 1e 3e
       -0.14243089 0.09435774 0.075595714 0.15491016
000340 0b 0f da bd 95 f3 28 bd 5c 59 7a bc 97 7f 1a 3e
       -0.106474005 -0.041247923 -0.015280094 0.15087734
000350 08 67 1f bf 60 44 93 be 33 09 1c bf e8 3f a5 3e
       -0.6226659 -0.28763103 -0.60951537 0.3227532
000360 61 72 d7 be c8 7e d1 bd 77 cc 44 3c 59 f4 3a bc
       -0.42079452 -0.1022926 0.012011639 -0.011410796
000370 63 0c cd 3c 3b c4 ae 3d fa 1e f4 bd 12 6d 0f 3d
       0.02503032 0.08533522 -0.11919971 0.035016127
000380 79 ba 9d be 1c 38 b5 be 80 0f 0a bf 38 21 9a bb
       -0.3080633 -0.3539437 -0.539299 -0.004703667
000390 fe c8 3b 3e 2c 85 16 3e 81 a1 ae 3e 64 4e f8 3b
       0.18338391 0.14699239 0.34107593 0.0075777043
0003a0 5a 0e c6 bc 40 6f 16 be b3 ad 86 be 20 3e 20 be
       -0.024176765 -0.14690876 -0.26304397 -0.15648699
0003b0 71 0c c2 bd e4 94 57 bc ff 78 ba 3c 06 e8 21 bc
       -0.09475029 -0.013158057 0.022762774 -0.009881979
0003c0 e9 bd 9b bd 6f 31 27 3e f1 76 9d 3e a5 c6 f8 3d
       -0.07604582 0.16327451 0.30754808 0.121472634
0003d0 d7 68 83 3d d4 67 21 bd 1c 00 6e bf a9 52 33 be
       0.06416481 -0.03940566 -0.92968917 -0.17512001
0003e0 7d 17 6b bf c3 49 c5 3d 9f 41 1c 3e 54 1f e0 3c
       -0.91832715 0.096332096 0.15259407 0.027358688
0003f0 72 86 d1 bd 80 0f e8 3d 1c f6 a4 bd 96 07 a6 3e
       -0.102307215 0.113310814 -0.08054754 0.32427663

net_container.0.bias f4 [64]
000000 8b aa 12 3e 18 a9 5b 3e f7 30 76 3e 34 3d 82 3e
       0.1432287 0.21451223 0.24042116 0.2543732
000010 76 2f 1b bb 8d 42 f3 3d 84 70 67 3e 66 2b 29 be
       -0.0023679412 0.11877928 0.22601515 -0.16520461
000020 e9 2e 29 3e 00 32 a8 be bf ce a0 bd 9c 77 5d 3e
       0.16521801 -0.32850647 -0.07851934 0.21627659
000030 d0 fc 80 be 40 74 a3 be 0b b3 34 3e 99 61 9b bd
       -0.2519288 -0.3192463 0.17646424 -0.07586975
000040 30 e0 1a be b7 cf 92 be ac 6e aa 3d 88 58 59 be
       -0.15124583 -0.286741 0.0832189 -0.21225178
000050 c0 b5 ae be 58 fb 29 be 77 57 04 3d b0 7a ac 3d
       -0.3412304 -0.16599786 0.032309975 0.08421838
000060 38 ca 16 3e 45 0a fc be 6e d5 36 3e 10 7c c9 3e
       0.14725578 -0.49226585 0.17854854 0.39352465
000070 bc 04 24 be 18 7e 02 bd 9f eb 43 3c 3f 13 6c be
       -0.16017431 -0.031858534 0.011958032 -0.23054217
000080 99 78 73 be 3a 33 49 be 51 90 5f be e2 74 70 be
       -0.23776473 -0.19648448 -0.21832396 -0.23482087
000090 90 22 f6 bd 68 f0 b6 be 54 3a 09 3d b7 d2 aa 3e
       -0.12018311 -0.3573029 0.03350289 0.33363888
0000a0 42 a4 85 3e 97 f1 a9 3e 7f fd da be 5a 36 8e be
       0.2610188 0.3319213 -0.42771527 -0.27775842
0000b0 1e 90 54 be b8 82 a0 be 24 3e e8 3d 76 fb 24 be
       -0.20758101 -0.3134973 0.113399774 -0.1611155
0000c0 e4 4c dc be 98 d8 95 bc 57 cd ef bd 76 ad b8 3d
       -0.43027413 -0.018291757 -0.11709087 0.0901746
0000d0 0b b9 80 be 32 65 fc bd f1 b5 8e be 9e de 8b bd
       -0.25141177 -0.12323989 -0.27873185 -0.0682957
0000e0 2a b0 4a bc 66 e7 8d be db 5c cd be c9 01 9e be
       -0.012371102 -0.27715605 -0.40109906 -0.30860737
0000f0 65 92 0d 3a d5 65 ba be db fc 5a 3b 30 d1 7b be
       0.00054005376 -0.36405817 0.0033414874 -0.24591517

net_container.2.weight f4 [64, 64]
000000 d4 2e 04 3e 27 14 44 be a6 1c a8 bc f2 e1 82 bd
       0.12908489 -0.19148313 -0.020521473 -0.06390752
000010 13 c1 3e be 93 68 44 bd 8a fc b2 bc 8a 7d 30 3e
       -0.1862834 -0.047951292 -0.021848936 0.1723539
000020 bf 5b 2c bd 07 d3 87 3e 99 87 c7 3d a9 57 63 3e
       -0.042079683 0.2652819 0.0974266 0.22201408
000030 5e 95 a4 3d bc 80 f0 bc 54 69 4b 3e b2 75 7f be
       0.08036302 -0.02935826 0.19864398 -0.24947241
000040 bb 1b a9 bc be 73 cd bd 3d fe 6b bd e6 dd 0d bd
       -0.020643106 -0.10031842 -0.057615507 -0.034635447
000050 15 fd 09 bd eb 6f e3 bb f7 79 09 be 84 9e 6f be
       -0.033688623 -0.006940832 -0.13425432 -0.23400313
000060 c2 36 97 3e e1 5f b0 3d e6 ea 9b be e4 ff 2b be
       0.29533964 0.086120375 -0.3045265 -0.16796833
000070 51 56 f2 bc b9 ea 5b be c4 3e f2 bd f8 e6 fa be
       -0.029582174 -0.21476258 -0.11828378 -0.4900434
000080 54 ad 48 be 82 d8 c5 3e 37 b1 1e 3d 5b 2b e6 3d
       -0.1959737 0.38641745 0.038743224 0.11238738
000090 d8 34 d2 3d 68 13 8d be de 76 0c 3d aa d2 33 bc
       0.102639854 -0.27553868 0.034293048 -0.010975519
0000a0 b6 80 87 bd 11 c3 4b 3d 67 70 6a 3e cf 40 48 3e
       -0.066163465 0.049746577 0.2289444 0.19555973
0000b0 93 31 06 bd 60 d0 05 3e a8 5b 83 be 1a 19 91 3e
       -0.03276212 0.1306777 -0.25655866 0.28339463
0000c0 37 a0 ff bd 3f 3f 77 bd 31 28 af 3d e5 e0 82 bd
       -0.124817304 -0.06036305 0.08552588 -0.063905515
0000d0 44 72 87 3c ce 23 25 be cc b9 8b bc 81 5b 19 3d
       0.016533978 -0.1612694 -0.017056368 0.03744078
0000e0 ff e2 04 be f8 85 93 3d 29 21 f9 3c fc cb 0d 3e
       -0.12977217 0.07203287 0.03041132 0.13847345
0000f0 cc 5e 9d be bc 11 8d bc e3 1f 57 be db e1 86 3d
       -0.30736387 -0.01722037 -0.21008258 0.06586047
000100 fc 4d 39 bd a3 f9 bb 3d 93 d9 cd 3c 86 9e fa 3d
       -0.045240387 0.09178474 0.025128162 0.12237267
000110 66 74 06 3e 5f d4 74 bd a7 8d 6c 3d 33 85 a5 be
       0.1313034 -0.059772845 0.057752278 -0.32328185
000120 a5 36 fc 3d df cd 92 3c 0a e6 f1 be ef 0e c3 3d
       0.1231511 0.017920433 -0.47245818 0.09524333
000130 a6 99 75 3d 9c ac fa bd 43 6c 39 3d 40 a0 8f 3c
       0.059960984 -0.12239954 0.045269262 0.017532468
000140 8c 80 34 be 86 67 2d 3d ae 5a d4 bc 1f 9e fe bd
       -0.17627162 0.042335056 -0.025922146 -0.12432503
000150 58 3c 25 be ec 81 68 3e dd d0 d8 bc 70 a0 7b bd
       -0.161363 0.22705811 -0.026466781 -0.061432302
000160 b4 72 c0 3d d0 05 95 3e db a9 03 3c 0c 80 89 3c
       0.09396878 0.29105997 0.008036102 0.01678469
000170 65 6c 23 3d 13 06 02 3e b8 f2 b9 be 76 5e 3c be
       0.039898295 0.1269763 -0.36317992 -0.18395409
000180 51 a8 86 3e 49 88 e0 bd 03 55 7b be 70 0d 80 3a
       0.2630029 -0.10963494 -0.24544148 0.000976963
000190 4d 7b 93 be 8c 8b 11 3d 6e 63 2a bd fb 62 17 3e
       -0.2880501 0.035533473 -0.04159873 0.14783852
0001a0 c1 69 1a 3e ff ed e6 3d 34 52 44 bc 2f ed 0e bd
       0.15079404 0.11275863 -0.011982489 -0.034894165
0001b0 7e 0d 53 3d c9 e3 2c be a0 cf 0f be ee cd 40 bd
       0.05152654 -0.16883768 -0.14044046 -0.04707139
0001c0 3e 7b 85 bd 06 22 e4 bd 55 10 a8 bc bd 6b 34 be
       -0.06517647 -0.11139302 -0.0205156 -0.17619224
0001d0 b6 2a 24 be 41 c2 82 be d9 bc 08 3d 3f d5 16 bd
       -0.16031918 -0.2553883 0.033383224 -0.03682446
0001e0 83 e3 bf 3d b1 c8 ab 3d 6c 4d 51 be 3a 4a 43 be
       0.09369566 0.08387888 -0.2043969 -0.19071284
0001f0 f8 92 ab bc 3b ba 8d be 2f a1 12 bd dd 9e 9d bd
       -0.020944104 -0.27681145 -0.035798248 -0.076963164
000200 4f 5e 7b bd 30 63 f7 bd cf af 51 be af 01 6a 3e
       -0.061369237 -0.120794654 -0.20477222 0.22852205
000210 fb bf 23 be 59 03 2a 3d e3 27 99 be 46 41 03 be
       -0.15991203 0.0415071 -0.29913244 -0.12817869
000220 9b 4a 81 be 14 05 c4 3d 3a 30 0d bc 07 e5 f8 bd
       -0.25252232 0.09571281 -0.008617455 -0.121530585
000230 6c 93 0b be bf f2 3b 3e 8a da 6f bd 78 cc d1 bd
       -0.13630456 0.18354319 -0.058558024 -0.102440774
000240 95 e5 a5 be eb 79 d5 bd 6d 32 3b 3d 7c ee ec bd
       -0.3240172 -0.10423645 0.045702387 -0.11568925
000250 32 7f d9 3d cd 2b 6e 3d ea ad 23 be 95 c0 00 3e
       0.10619964 0.05814724 -0.15984312 0.12573464
000260 1f d6 d3 bc 93 8e 15 3d 6f 64 3c bc 2b f0 19 3c
       -0.025858937 0.036512922 -0.011498555 0.009395639
000270 a4 d3 0e bd 46 5f b3 bd 0a 5d 0b 3e dd f4 9c bd
       -0.034869805 -0.08758406 0.1360971 -0.076638915
000280 6f 80 9c bd f6 10 4f be e5 cc 0b be ac 13 d2 3c
       -0.07641684 -0.20221314 -0.1365238 0.025644146
000290 e8 86 dd 3d 7d 1f 21 be ef 7f b8 bd 7b 84 e3 3d
       0.10816747 -0.15734668 -0.090087764 0.11109253
0002a0 7f 58 31 be 11 54 a0 3d 54 0e ac be d4 34 14 3d
       -0.17318915 0.078285344 -0.33604681 0.036183193
0002b0 f8 26 aa bd d2 82 54 3e 95 35 ba 3d 73 c9 b4 bb
       -0.08308214 0.20753029 0.09092251 -0.0055171787
0002c0 92 bb d4 bc 09 32 47 3d 45 c0 98 bd d9 c8 84 be
       -0.025968347 0.0486317 -0.074585475 -0.25934485
0002d0 55 c1 00 be aa e0 6a bd 73 bb a8 bd 92 da bc bd
       -0.1257375 -0.057343163 -0.08238878 -0.092213765
0002e0 96 c3 e5 bd 15 5a 98 3d 99 9c 0b 3d 89 79 d6 3d
       -0.11218946 0.07439057 0.03408489 0.104724
0002f0 82 de b7 bd a0 2d bf 3d 9d 3e 3c 3e 74 c7 83 3c
       -0.08977987 0.09334874 0.1838326 0.016086318
000300 9d 24 a0 be 50 39 16 3e 27 0c 68 be bc 26 89 3d
       -0.31277934 0.146703 -0.22660886 0.06696841
000310 42 aa ea bc 0c 4e 7e 3d 4e c1 d0 3d 92 01 9a be
       -0.028645638 0.06208615 0.1019312 -0.30079323
000320 8d 8f 09 be 25 b2 9d be bd d4 4b bd f3 e9 1c 3e
       -0.13433667 -0.30799976 -0.04976343 0.1532362
000330 6d 44 40 3b 87 cb cb 3c de 3b ba bd b4 d3 3d 3c
       0.002933766 0.024877323 -0.0909345 0.0115861185
000340 92 e8 bc be af 62 9b be 0b b6 81 3d 0a c5 99 3b
       -0.36896187 -0.30348727 0.0633355 0.0046926783
000350 a3 66 57 3d 03 77 ae be b6 f0 35 be 37 84 71 bc
       0.052588116 -0.34075174 -0.17767605 -0.014740995
000360 55 2f 14 bd 93 f6 38 be 4f e6 78 bd 83 12 ae 3c
       -0.03617795 -0.1806281 -0.060766514 0.021249061
000370 85 d7 e3 bc d0 54 5c 3d 53 06 81 bd ac 3e 26 be
       -0.027812729 0.05379182 -0.063000344 -0.16234845
000380 cb c4 31 3c 6b 57 63 be 3a 51 58 3d 5a d2 81 be
       0.010850142 -0.22201316 0.05281184 -0.25355798
000390 f4 f5 19 3e 10 52 94 3b 12 5a 15 3d a7 a0 04 3d
       0.1503523 0.004526384 0.03646285 0.032379773
0003a0 10 6a 2e be 2d 06 7e bd 28 be 77 be 44 f1 26 bd
       -0.17032647 -0.06201761 -0.24193633 -0.040757433
0003b0 a5 36 07 be ef 3c 3d bc 5b d6 69 3d 23 41 fb bd
       -0.13204439 -0.011550172 0.05708919 -0.12268283
0003c0 7b 57 94 bd 43 6e 70 bd 15 f2 87 3e b9 db b0 be
       -0.07243248 -0.058698904 0.2655188 -0.34542635
0003d0 74 49 4c 3d 53 88 96 be 7b 26 18 be e4 df ad be
       0.049874738 -0.29400882 -0.14858429 -0.33959877
0003e0 15 2e 89 bc 9a 41 b2 bd c3 19 bb 3b 91 07 8f be
       -0.016745606 -0.08703919 0.005709858 -0.2793546
0003f0 12 8e ae 3b bd 38 d0 3c 0d 63 73 3c 26 45 4e bd
       0.0053269947 0.02541768 0.0148551585 -0.050358914

net_container.2.bias f4 [64]
000000 07 47 bb be 23 4f 44 be ce 98 5c be ae 46 22 be
       -0.36577627 -0.19170813 -0.21542665 -0.15847275
000010 c1 b4 62 be b9 1f fb bd d8 dd 7d be f8 d4 14 3d
       -0.22139265 -0.1226191 -0.24791658 0.036335915
000020 27 e7 a4 be 47 36 0d 3e b9 ad f7 bd 2e 3c 84 3d
       -0.32207605 0.13790236 -0.12093682 0.06456791
000030 79 9c bf be ee fd e8 bd e6 f9 b9 be 02 f3 7c 3e
       -0.37424067 -0.11376558 -0.3632347 0.24702075
000040 96 b6 e9 3d 18 76 8e be f9 de d2 3c 2f e0 58 be
       0.11411779 -0.27824473 0.025741087 -0.21179269
000050 8e 62 93 be bf e7 81 be 98 88 9c bd 67 96 35 3e
       -0.2878613 -0.2537212 -0.07643241 0.17733155
000060 40 e6 aa 3d 25 02 cb 3d 23 48 1b be cc d6 49 bd
       0.08344698 0.099125184 -0.15164237 -0.049277112
000070 37 2d 41 3d 0e bb a2 3c b1 b7 93 bd be 23 78 be
       0.04716226 0.019864585 -0.07212771 -0.24232385
000080 a8 55 14 3e 19 0d 2e 3e 3f 9a bc 3d bd 9f d7 3d
       0.144858 0.16997184 0.092091076 0.105285145
000090 80 87 f1 be a3 a3 9f be ed 50 cb bd 5c 10 e4 bd
       -0.4717369 -0.31179532 -0.09927545 -0.11135933
0000a0 d9 c0 6d 3d 50 03 cc bd a3 82 83 be 05 79 46 3e
       0.058045242 -0.09961569 -0.25685605 0.19382103
0000b0 4a 6f c8 be dc b3 a8 ba 67 e0 3d be 2c 1c 87 3e
       -0.39147407 -0.0012870985 -0.18542634 0.2638868
0000c0 3d 7c 6a be 7c 92 49 3e 22 64 00 3d 2c 8d 2a bd
       -0.22898956 0.19684786 0.031345494 -0.04163854
0000d0 14 a5 7f 3e 7f ce 98 be 70 e6 61 be 2f 1e 0e 3e
       0.24965316 -0.29845044 -0.22060561 0.13878702
0000e0 89 92 d2 be c1 0f 76 bd 25 aa ae bd 1d 60 b1 bb
       -0.41127422 -0.060073618 -0.08528546 -0.005413069
0000f0 4a 87 19 be 7d 46 da be e6 0d cb be f8 9e cc bc
       -0.14993015 -0.42631903 -0.3965904 -0.024978146

policy_layer.weight f4 [7, 64]
000000 ae 98 84 3e f7 16 c7 bc 49 1e a0 bd 0d 00 06 be
       0.25897735 -0.024302943 -0.078182764 -0.13085957
000010 e2 a6 13 bd 3f de e2 bb 12 0d 3f bd 5a b5 48 3d
       -0.036047824 -0.0069234665 -0.046643324 0.049001075
000020 a8 85 6f bd ca a5 19 3e da 6f 46 3e 26 82 c4 3d
       -0.058477074 0.1500465 0.19378605 0.09595136
000030 d3 8d 2e bd 7e 30 66 be 8b d5 3c bc b2 e8 53 bd
       -0.042615723 -0.22479436 -0.011525522 -0.051735587
000040 c5 38 8a bd d6 7b 79 bd dd 2c 7e 3c fb 76 18 3e
       -0.06749109 -0.060909115 0.015513626 0.14889137
000050 5b 1e e2 bd 51 e8 c3 bd 87 2c 01 3e 63 e4 2c 3b
       -0.11040946 -0.09565795 0.12614642 0.0026381246
000060 db 93 46 3d c2 2c 8c be af 71 0f be fe 87 7b bb
       0.04848085 -0.27377898 -0.1400821 -0.0038380618
000070 1a 67 34 be ac d0 ab 3d bb 09 23 bc 50 31 fd bc
       -0.17617455 0.083894104 -0.00995105 -0.030907303
000080 39 2f c8 bc 49 c7 f8 3d 1e 59 09 3e ab a9 11 be
       -0.02443658 0.121473856 0.13412902 -0.1422488
000090 61 10 22 3d d6 df 0a 3d 98 1f 92 bd 19 a6 9c be
       0.0395664 0.033904873 -0.07134932 -0.30595472
0000a0 78 71 dc 3d 58 d9 e0 bd 71 27 e3 bc 74 4b 05 bd
       0.1076383 -0.10978955 -0.027728768 -0.03254266
0000b0 99 c7 1f be 04 75 f6 bd 46 c0 6b bd 15 ca ce 3d
       -0.15603484 -0.12034038 -0.057556413 0.10097138
0000c0 aa e8 af 3d 30 58 f4 bb 39 04 94 bd 16 b8 1d 3c
       0.08589299 -0.007456802 -0.07227368 0.009626409
0000d0 dd 9d 5e bd a6 65 69 3d a3 6c 87 3a d2 53 12 be
       -0.05434977 0.056981705 0.0010332059 -0.14289787
0000e0 ae 57 8c 3e 56 d4 da 3d 4e fa 26 3c e0 3d ae bd
       0.27410644 0.10685031 0.010191513 -0.085078955
0000f0 57 65 2a bc da 6a 28 bd 29 2e 90 3e ca 58 20 be
       -0.010400138 -0.041117527 0.28160217 -0.1565887
000100 74 6c 67 bd 7f aa b5 bc 5e 77 61 be 0a 79 f9 bd
       -0.056499913 -0.022176025 -0.22018191 -0.121812895
000110 0f 2e d7 bd d4 d7 5f 3c 9b 6c 66 3d 5d 62 84 bb
       -0.10506832 0.013662297 0.056255918 -0.004040046
000120 76 1e f6 bc 6e ee df 3d 8f 98 0a bd 9b 88 8f 3d
       -0.030043822 0.10934149 -0.033836897 0.07008477
000130 70 f5 69 bc dd c1 c1 3d f0 62 82 3d 41 96 54 bd
       -0.014279708 0.094608046 0.06366527 -0.051901106
000140 fd d8 30 bc 9b 2f 19 3d 9a 2b a3 bc f0 5c 31 bd
       -0.010793922 0.037398916 -0.019918252 -0.043301523
000150 3d e3 71 bd 22 54 53 be be 0f 93 3d 96 bc ba 3d
       -0.059054602 -0.20637563 0.07180737 0.09118001
000160 df 1c 50 3d a8 a5 7e bd e5 f0 38 bb bb e3 12 be
       0.050808784 -0.0621697 -0.0028219756 -0.14344685
000170 92 03 a1 3c eb aa 9c 3d b7 f0 65 be b0 ee 5e be
       0.019655023 0.076497875 -0.22455107 -0.2177074
000180 d3 56 6a 3d 43 61 cf 3d cc 02 eb 3d 90 1b 48 3d
       0.05721171 0.10125973 0.11475143 0.04885441
000190 d7 c6 02 bd 01 38 87 bd bd 77 64 3e 44 78 19 bc
       -0.03192791 -0.06602479 0.22311302 -0.0093670525
0001a0 15 ca 38 3e 80 a4 67 bb c6 87 f3 3d 5d 79 14 3e
       0.18045838 -0.0035345852 0.11891131 0.14499421
0001b0 bc 2b 84 3d b4 4e 0a 3e 96 e0 04 3e 9d 67 65 3b
       0.06453654 0.13506585 0.12976298 0.0035004385
0001c0 ac 7b 26 bc 2c 37 8e 3d a6 4e c4 3d e8 00 55 3c
       -0.010161322 0.06944117 0.095853135 0.013000704
0001d0 c2 c4 44 bd 0d bd ab bd 55 7f 12 bd a9 38 fb 3d
       -0.048039205 -0.08385668 -0.035765965 0.122666664
0001e0 cf 47 d8 bd f0 61 54 bd 16 c0 99 bc 92 b1 ed bc
       -0.105605714 -0.051851213 -0.018768352 -0.029015336
0001f0 4e 88 3b bd 00 b0 c4 3b f5 af 23 be 13 42 7a bd
       -0.045784287 0.006002426 -0.15985091 -0.06109817
000200 d7 62 87 3e 71 8e dd 3d e1 77 07 bc b7 a5 b8 bd
       0.26442596 0.10818184 -0.008268327 -0.090159826
000210 44 7f ee 3c e2 b0 5e bd 7a 32 85 bb 04 54 e3 3d
       0.02911342 -0.054367907 -0.004064855 0.11100009
000220 32 10 52 3d 65 15 39 3b 06 4c 17 3e 22 77 4d bc
       0.051284976 0.0028241512 0.14775094 -0.0125406105
000230 8d 01 ec bc 93 45 89 be d5 da 52 bd eb 80 0f be
       -0.028809333 -0.26810893 -0.051478226 -0.14014022
000240 e9 9f 54 3d fd 9c e9 bd 6a ff 1e be 18 31 09 3e
       0.051910315 -0.11406896 -0.1552712 0.13397634
000250 2c 90 2e bd 0c b8 a4 3c c8 59 f3 bd 78 02 14 3d
       -0.04261796 0.020107292 -0.11882359 0.036135167
000260 cf b4 04 bc ab e5 e1 bd 49 96 11 be 11 64 a6 3d
       -0.008099749 -0.11030134 -0.14217485 0.08124555
000270 e6 69 b9 3d b3 a7 1f be 54 9f 13 ba de 30 31 bd
       0.09053402 -0.15591316 -0.0005631347 -0.043259494
000280 5c 6b 17 bd f1 85 67 3d 6a d8 5f 3e 3d f7 8e 3d
       -0.03696762 0.05652422 0.21859899 0.06980751
000290 5f 57 72 3d b4 9f 33 3e 75 e3 3e bd c9 ec 7f be
       0.059165355 0.1754139 -0.04660364 -0.2499267
0002a0 2b 80 50 3e 4d d3 56 bd 8f 43 60 3b 0e 95 2b 3e
       0.20361392 -0.052447606 0.0034219956 0.16756079
0002b0 8d ba 01 be 03 e7 51 3d a1 60 80 3c 42 2d 6a bd
       -0.1266882 0.0512457 0.015671076 -0.057172067
0002c0 42 c6 18 be cc ed 93 bd 6e 7a 07 3d d0 eb ba bd
       -0.1491938 -0.072230905 0.033075742 -0.09127009
0002d0 ea d9 6a 3d 12 62 cd bd 8d 1d d6 bd 04 e8 aa bd
       0.057336725 -0.10028471 -0.10454855 -0.08345035
0002e0 ff 8c 22 3e 9a 9b 24 3e ae 9e be 3c 71 77 39 bd
       0.15874098 0.16074982 0.023269024 -0.045279924
0002f0 af 90 ac bd ce b2 e1 bb dd ea a5 bd 3d 02 16 be
       -0.08426034 -0.0068877703 -0.08101437 -0.14649291
000300 a4 45 a8 bd 3d d7 6b 3d f9 03 aa 3d b1 a3 e7 bc
       -0.08216408 0.057578314 0.08301539 -0.028276296
000310 c1 f1 d0 bd ef 2e 4c be 57 7e 97 be 15 93 f9 bb
       -0.10202361 -0.19939779 -0.29588577 -0.0076164105
000320 1b b7 3c be 8c c7 34 bc c7 8d 45 3d cc 1c 2c 3d
       -0.18429224 -0.011033904 0.048230913 0.04201965
000330 91 f7 f7 bd 28 69 16 be 7c 28 2f be f5 9b cd 3c
       -0.121077664 -0.14688551 -0.17105287 0.02509878
000340 a3 e6 0b 3d 3a 7b 83 bc 68 ab 0c 3e 5a 6d 19 be
       0.0341555 -0.01604997 0.13737261 -0.1498312
000350 a0 ae 70 bd 4c 67 28 bd 93 e5 b1 bb 55 50 dc 3d
       -0.058760285 -0.041114137 -0.0054289787 0.107575096
000360 40 c3 60 bd 6f b4 29 be ca 08 99 be cf 01 f6 bd
       -0.054873705 -0.16572736 -0.29889518 -0.12012064
000370 54 7e 30 3d fc 7c 3d 3e e5 45 b6 bc af dc 4b 3e
       0.043089226 0.18504709 -0.022250125 0.19908403
000380 95 1d 99 3d bd 66 e7 3d 98 e3 d4 bd a3 78 b2 3c
       0.074763454 0.11298893 -0.103949726 0.02178604
000390 7d fa 97 bc 0d 76 ec bd 8a fa 80 3d 90 77 02 bd
       -0.01855206 -0.11545954 0.062977865 -0.031852305
0003a0 28 7d 82 3d eb 16 c8 bd db 92 38 be e9 b8 aa ba
       0.06371528 -0.09769996 -0.18024771 -0.0013025078
0003b0 47 42 c6 3c da ee fc 3d dd 6b 07 bd 25 13 28 3d
       0.024201525 0.12350245 -0.03306185 0.041033883
0003c0 dd 47 1a 3d 7b 40 f6 bc 56 f5 24 3e 69 52 66 3d
       0.03766619 -0.030060044 0.16109213 0.056230936
0003d0 bd 5a 90 3d 42 f6 b8 bd 31 0e a6 3d cf 53 aa 3d
       0.07048557 -0.09031345 0.081081755 0.083167665
0003e0 ae cb 12 be 36 40 91 bd 9c 7c 7c 3d cc e5 74 3b
       -0.1433551 -0.070923254 0.061642274 0.0037368415
0003f0 6c 76 85 bd e3 d0 05 be 43 b8 6d be fb b7 0e bb
       -0.06516728 -0.13067965 -0.23214822 -0.0021777141

policy_layer.bias f4 [7]
000000 6f 4f 27 3d 2d be 99 3d 82 40 e0 bc 5d e5 92 3e
       0.04084724 0.07506976 -0.02737451 0.28690615
000010 02 57 3a bd a7 ff 0a be 35 74 59 3d
       -0.045493133 -0.13574086 0.05308934

value_layer.weight f4 [1, 64]
000000 24 a0 97 3b d0 53 30 3c 81 b5 a6 3b ed 08 a4 bd
       0.0046272445 0.01076217 0.005087555 -0.08009515
000010 ac aa 3d 3d 48 52 5f bd 2d 8b 9a 3d ef f4 89 bd
       0.046305344 -0.05452183 0.07546077 -0.067361705
000020 f0 68 b5 bd 28 38 17 bd cb bf c1 3d 10 34 72 bd
       -0.08857906 -0.03691879 0.0946041 -0.059131682
000030 05 96 e8 bd 62 7a cb 3d 63 e0 01 3d 71 72 b9 bc
       -0.11356739 0.09935452 0.031708132 -0.022637578
000040 bd 07 d9 bd 3f 31 4a bc 44 c4 d6 bc 5e 10 c5 bc
       -0.10597179 -0.012340843 -0.026216634 -0.024055656
000050 a6 13 01 3e 92 a6 b9 3d be f5 59 3d 82 ad 26 bd
       0.12605152 0.09064974 0.053212874 -0.040692814
000060 58 99 3e bd e2 a7 e7 bc 07 21 13 bd 3d 50 4f 3d
       -0.04653296 -0.028278295 -0.03592017 0.05061363
000070 51 f2 4c bb 66 37 e2 bc 8d 9f 9e bd 0c 54 e4 3c
       -0.0031272362 -0.027614307 -0.07745276 0.027872108
000080 7d 85 19 bd 39 f9 c2 3c 24 5f e1 3c 44 2a 2c 3d
       -0.03748082 0.02380048 0.027511187 0.042032495
000090 82 1d 51 3d 7b e0 0b be 54 55 b7 3c da af a8 bd
       0.05105353 -0.13659851 0.022379555 -0.08236666
0000a0 ce f4 32 3d aa f0 28 3d e0 cb 91 bd cd d5 fa 3d
       0.043690495 0.04124514 -0.07118964 0.122478105
0000b0 36 db 94 bb c8 bb 44 3c dc 8b e3 bd 93 70 ca bb
       -0.0045427335 0.012007661 -0.111106604 -0.0061779707
0000c0 3e e7 f8 3d 1a 51 71 3c 54 4f 5b bd 83 e7 b8 bc
       0.12153481 0.014728809 -0.05354245 -0.02257133
0000d0 eb 81 9f 3d 75 d9 30 bd c0 2b a9 bc 7a 6a 1c bc
       0.07788452 -0.043176133 -0.020650744 -0.00954687
0000e0 dd 8d 49 bd c0 ee 3d bd 40 ad a2 bd b7 0e 04 bd
       -0.049207557 -0.046370268 -0.07943201 -0.032240596
0000f0 c7 41 05 3c 64 d3 31 bd be 8b 34 bd 3e fc 34 bd
       0.008133358 -0.04341449 -0.04407858 -0.04418587

log_std_parameter f4 [7]
000000 81 05 2c c0 09 4c 24 c0 77 7d 32 c0 98 b7 2e c0
       -2.687836 -2.5671408 -2.7889078 -2.7299557
000010 a3 9e 28 c0 1d f2 32 c0 b7 0c 1e c0
       -2.6346824 -2.7960274 -2.469526

net_container.0.weight f4 [64, 32]
000000 d7 41 ce be ff b7 10 3e 3d 89 c3 be cc cc 0c be
       -0.40284607 0.14132689 -0.38190642 -0.13749999
000010 42 ee 51 3d 9b 6b 85 bd 55 cd 8e 3e 13 14 f1 bb
       0.05125261 -0.06514665 0.2789103 -0.0073571294
000020 40 dc 1b 3d 69 b3 1e be 22 36 2a 3e 2a 69 79 be
       0.038051844 -0.15498127 0.16622213 -0.24356523
000030 6b d2 d0 3c c6 82 42 3d 63 40 b9 bc 51 55 31 be
       0.02549096 0.047487997 -0.02261371 -0.17317702
000040 e8 8d 0e 3e 31 73 2d bd b2 3d a6 3e c1 78 19 3e
       0.1392132 -0.042346183 0.32468945 0.1498747
000050 12 c7 ba 3d a5 d2 b3 3e 55 56 71 be ee 93 82 be
       0.09120001 0.35121647 -0.2356809 -0.25503486
000060 b6 6e 2d be f2 54 20 bd 42 3c 99 3d 9a c2 06 3d
       -0.16936764 -0.03914351 0.074821964 0.03290043
000070 47 96 82 3d 18 c4 d4 bd cb 77 97 bd 74 85 1e be
       0.063763194 -0.103889644 -0.073958956 -0.15480596
000080 e3 26 ac bd 7e a2 7e be c4 87 82 be 5d 15 76 be
       -0.084058546 -0.24866673 -0.25494206 -0.24031587
000090 0e 00 1a bd 73 00 17 bd 17 6c 10 be 4c cb 8e 3b
       -0.03759771 -0.036865663 -0.14103733 0.004357731
0000a0 ce cb 5f 36 85 63 6b bc d2 86 f8 bd 69 86 8b 3c
       3.334822e-06 -0.014366989 -0.1213509 0.017031865
0000b0 38 1c 69 3d 69 b9 fb 3d f4 ff dc bd 8f c4 fe bd
       0.056911677 0.122912236 -0.10791007 -0.12439834
0000c0 c2 04 4c bd b8 85 ad bd 41 1b 02 be 1c 9d 80 3d
       -0.049809225 -0.084727705 -0.12705709 0.06279966
0000d0 16 3d b1 be 59 f9 c8 be e8 c9 10 bf 33 16 af 3e
       -0.34616917 -0.39252737 -0.56558084 0.34196624
0000e0 c3 49 27 bf 32 cc 8a 3e 46 4c 5a bd b6 b9 38 bd
       -0.65346926 0.27108914 -0.053295396 -0.045098983
0000f0 ef 6c bc bd 3b ac a2 bd ee 00 8d 3d 9b 25 cc bc
       -0.09200465 -0.079430066 0.06884943 -0.024920275
000100 ce 79 5c be 24 12 05 be 52 69 84 be b0 3d 7d 3e
       -0.2153084 -0.12995201 -0.25861603 0.24730563
000110 02 bd 18 bd 34 ca d6 3d 5f d9 24 3e 0f 83 04 3e
       -0.037289627 0.10487786 0.16098545 0.1294062
000120 f9 1a 12 bc 59 41 b8 bd 0f 74 3a be 61 f7 f5 3d
       -0.008917564 -0.08996839 -0.18208335 0.120100744
000130 85 35 12 3e ef 5a 44 bd a7 0e 60 bd 10 4c ea bb
       0.14278229 -0.047938284 -0.054701474 -0.0071501806
000140 b9 03 cc 3d c1 76 dd bc 02 ec 9a 3e c8 28 e4 3e
       0.099616475 -0.027034165 0.30258185 0.44562364
000150 5d b1 0c bf 11 df 86 be c2 ba 42 bc cc b5 04 3e
       -0.54958135 -0.2634206 -0.011885347 0.12959975
000160 c5 66 ae bd 2e 8a c5 bc 40 4a 44 bd 65 50 16 3d
       -0.085156955 -0.02411374 -0.047922373 0.036697764
000170 b8 10 46 bd a9 fb d8 3d c4 c6 ca bd 51 c6 a2 3c
       -0.048355788 0.10594875 -0.09901193 0.019869955
000180 19 f5 d8 3d fb aa 34 be 95 e7 d6 bd d9 9c 7e be
       0.10593624 -0.17643349 -0.104933895 -0.2486452
000190 bc a8 0e 3e 99 fc 30 3e 3a 0b d4 bd a3 7d 88 3c
       0.13931555 0.17283858 -0.10353704 0.01666147
0001a0 16 b8 04 3d 59 d7 2f bb f8 56 a0 3d c2 bd 07 3d
       0.03240212 -0.0026831238 0.07829088 0.03313995
0001b0 43 c2 74 bd a2 dd 89 bd b6 24 6e bc 94 5f 8c 3d
       -0.059755575 -0.06731726 -0.01453512 0.068541676
0001c0 88 4e ab 3d ef fa 0c bd cc 28 f7 be 63 70 43 be
       0.08364588 -0.034418996 -0.48273313 -0.19085841
0001d0 5d da 21 3f 84 86 ce be f1 88 95 3e 8d aa 9c 3e
       0.6322382 -0.40337002 0.2920604 0.3059887
0001e0 c4 59 a0 3e bd 8c da bd bd d4 4c be 72 06 18 be
       0.31318486 -0.10671375 -0.20003028 -0.14846209
0001f0 ee d2 bb bb cd 32 1a 3e 8b 47 85 bc f2 48 b0 bc
       -0.005731932 0.15058441 -0.016269466 -0.021519158
000200 4f 90 03 be 72 1c 53 be d2 1e 90 bc 07 f6 13 be
       -0.12848018 -0.2061632 -0.017592821 -0.1444932
000210 4f 4d 11 be c0 c6 96 3b 8f aa 44 bd e9 83 2a bd
       -0.14189647 0.0046013296 -0.04801422 -0.041629706
000220 0d 6d 5f 3d 7b 48 72 bd 5d ae e6 3a 33 0e 02 3c
       0.05454736 -0.059151154 0.0017599572 0.007937956
000230 1f 6b 47 be b2 fb 8b 3c 2a 7d 3c 3c b0 51 81 3c
       -0.19474457 0.017087791 0.011504451 0.015786022
000240 00 69 63 bd 9f e2 01 be 5e 06 c1 3e 35 f3 ce bd
       -0.055520058 -0.12684105 0.3770017 -0.10104982
000250 24 18 11 3f f3 ab d5 be e2 76 db be e8 aa 0a 3f
       0.5667746 -0.4173275 -0.42864138 0.5416703
000260 d6 68 04 bf dc d4 bb 3c 40 f5 ee 3c 33 19 25 3b
       -0.51722467 0.022928648 0.029169679 0.0025192022
000270 dc f3 26 3e fd bf 8e 3c 4d 15 1b bd 73 f0 57 be
       0.16303962 0.017425532 -0.03786211 -0.21087818
000280 58 bf 46 be 92 48 cc be 79 fd 98 3d 54 82 af 3a
       -0.1940893 -0.39899117 0.07470221 0.0013390281
000290 32 16 e8 3d 5a 0f 81 be 89 4b 47 be 06 9e 17 3d
       0.113323584 -0.25207025 -0.19462408 0.037015937
0002a0 73 39 c6 bc 10 87 01 bc a3 b7 17 be 90 74 8f 3d
       -0.024197316 -0.007905737 -0.14816146 0.070046544
0002b0 fc 76 bd 3d 92 ad 8f 3d b2 a5 07 bc 25 17 b9 bd
       0.0925121 0.07015528 -0.008279251 -0.090376176
0002c0 77 94 e3 3c c7 49 34 3d 57 6a 83 3e 2a a6 6d 3d
       0.027780754 0.044015672 0.25667068 0.058019795
0002d0 cc e2 80 bd cc 0c 0b 3e e7 49 00 3d 2b 4a 1c 3c
       -0.06293258 0.135791 0.03132048 0.009539167
0002e0 d2 07 d4 3c 1c 2d 04 3d 60 4e 80 3c c9 c1 47 3d
       0.025882635 0.032269582 0.015662372 0.048768792
0002f0 40 a5 e7 bd e8 f6 97 bd 1d 40 0a be ad 9c b6 3d
       -0.11310816 -0.074201405 -0.1350102 0.08916602
000300 08 62 b0 bb 1d a9 6c be 8c f5 71 3d dc 90 89 3d
       -0.00538278 -0.23111387 0.059072062 0.06717083
000310 4d ee dd 3a 75 a0 9d 3e 86 84 88 be 48 b7 b1 bd
       0.0016931981 0.30786481 -0.26663607 -0.08677536
000320 21 f4 fb 3c 04 65 14 be ab 79 0a 3e 0a 78 08 be
       0.030756058 -0.1449166 0.13522975 -0.13327041
000330 67 d9 11 be a1 3e c1 3d ed d1 9a 3d c5 a0 1e 3e
       -0.14243089 0.09435774 0.075595714 0.15491016
000340 0b 0f da bd 95 f3 28 bd 5c 59 7a bc 97 7f 1a 3e
       -0.106474005 -0.041247923 -0.015280094 0.15087734
000350 08 67 1f bf 60 44 93 be 33 09 1c bf e8 3f a5 3e
       -0.6226659 -0.28763103 -0.60951537 0.3227532
000360 61 72 d7 be c8 7e d1 bd 77 cc 44 3c 59 f4 3a bc
       -0.42079452 -0.1022926 0.012011639 -0.011410796
000370 63 0c cd 3c 3b c4 ae 3d fa 1e f4 bd 12 6d 0f 3d
       0.02503032 0.08533522 -0.11919971 0.035016127
000380 79 ba 9d be 1c 38 b5 be 80 0f 0a bf 38 21 9a bb
       -0.3080633 -0.3539437 -0.539299 -0.004703667
000390 fe c8 3b 3e 2c 85 16 3e 81 a1 ae 3e 64 4e f8 3b
       0.18338391 0.14699239 0.34107593 0.0075777043
0003a0 5a 0e c6 bc 40 6f 16 be b3 ad 86 be 20 3e 20 be
       -0.024176765 -0.14690876 -0.26304397 -0.15648699
0003b0 71 0c c2 bd e4 94 57 bc ff 78 ba 3c 06 e8 21 bc
       -0.09475029 -0.013158057 0.022762774 -0.009881979
0003c0 e9 bd 9b bd 6f 31 27 3e f1 76 9d 3e a5 c6 f8 3d
       -0.07604582 0.16327451 0.30754808 0.121472634
0003d0 d7 68 83 3d d4 67 21 bd 1c 00 6e bf a9 52 33 be
       0.06416481 -0.03940566 -0.92968917 -0.17512001
0003e0 7d 17 6b bf c3 49 c5 3d 9f 41 1c 3e 54 1f e0 3c
       -0.91832715 0.096332096 0.15259407 0.027358688
0003f0 72 86 d1 bd 80 0f e8 3d 1c f6 a4 bd 96 07 a6 3e
       -0.102307215 0.113310814 -0.08054754 0.32427663

net_container.0.bias f4 [64]
000000 8b aa 12 3e 18 a9 5b 3e f7 30 76 3e 34 3d 82 3e
       0.1432287 0.21451223 0.24042116 0.2543732
000010 76 2f 1b bb 8d 42 f3 3d 84 70 67 3e 66 2b 29 be
       -0.0023679412 0.11877928 0.22601515 -0.16520461
000020 e9 2e 29 3e 00 32 a8 be bf ce a0 bd 9c 77 5d 3e
       0.16521801 -0.32850647 -0.07851934 0.21627659
000030 d0 fc 80 be 40 74 a3 be 0b b3 34 3e 99 61 9b bd
       -0.2519288 -0.3192463 0.17646424 -0.07586975
000040 30 e0 1a be b7 cf 92 be ac 6e aa 3d 88 58 59 be
       -0.15124583 -0.286741 0.0832189 -0.21225178
000050 c0 b5 ae be 58 fb 29 be 77 57 04 3d b0 7a ac 3d
       -0.3412304 -0.16599786 0.032309975 0.08421838
000060 38 ca 16 3e 45 0a fc be 6e d5 36 3e 10 7c c9 3e
       0.14725578 -0.49226585 0.17854854 0.39352465
000070 bc 04 24 be 18 7e 02 bd 9f eb 43 3c 3f 13 6c be
       -0.16017431 -0.031858534 0.011958032 -0.23054217
000080 99 78 73 be 3a 33 49 be 51 90 5f be e2 74 70 be
       -0.23776473 -0.19648448 -0.21832396 -0.23482087
000090 90 22 f6 bd 68 f0 b6 be 54 3a 09 3d b7 d2 aa 3e
       -0.12018311 -0.3573029 0.03350289 0.33363888
0000a0 42 a4 85 3e 97 f1 a9 3e 7f fd da be 5a 36 8e be
       0.2610188 0.3319213 -0.42771527 -0.27775842
0000b0 1e 90 54 be b8 82 a0 be 24 3e e8 3d 76 fb 24 be
       -0.20758101 -0.3134973 0.113399774 -0.1611155
0000c0 e4 4c dc be 98 d8 95 bc 57 cd ef bd 76 ad b8 3d
       -0.43027413 -0.018291757 -0.11709087 0.0901746
0000d0 0b b9 80 be 32 65 fc bd f1 b5 8e be 9e de 8b bd
       -0.25141177 -0.12323989 -0.27873185 -0.0682957
0000e0 2a b0 4a bc 66 e7 8d be db 5c cd be c9 01 9e be
       -0.012371102 -0.27715605 -0.40109906 -0.30860737
0000f0 65 92 0d 3a d5 65 ba be db fc 5a 3b 30 d1 7b be
       0.00054005376 -0.36405817 0.0033414874 -0.24591517

net_container.2.weight f4 [64, 64]
000000 d4 2e 04 3e 27 14 44 be a6 1c a8 bc f2 e1 82 bd
       0.12908489 -0.19148313 -0.020521473 -0.06390752
000010 13 c1 3e be 93 68 44 bd 8a fc b2 bc 8a 7d 30 3e
       -0.1862834 -0.047951292 -0.021848936 0.1723539
000020 bf 5b 2c bd 07 d3 87 3e 99 87 c7 3d a9 57 63 3e
       -0.042079683 0.2652819 0.0974266 0.22201408
000030 5e 95 a4 3d bc 80 f0 bc 54 69 4b 3e b2 75 7f be
       0.08036302 -0.02935826 0.19864398 -0.24947241
000040 bb 1b a9 bc be 73 cd bd 3d fe 6b bd e6 dd 0d bd
       -0.020643106 -0.10031842 -0.057615507 -0.034635447
000050 15 fd 09 bd eb 6f e3 bb f7 79 09 be 84 9e 6f be
       -0.033688623 -0.006940832 -0.13425432 -0.23400313
000060 c2 36 97 3e e1 5f b0 3d e6 ea 9b be e4 ff 2b be
       0.29533964 0.086120375 -0.3045265 -0.16796833
000070 51 56 f2 bc b9 ea 5b be c4 3e f2 bd f8 e6 fa be
       -0.029582174 -0.21476258 -0.11828378 -0.4900434
000080 54 ad 48 be 82 d8 c5 3e 37 b1 1e 3d 5b 2b e6 3d
       -0.1959737 0.38641745 0.038743224 0.11238738
000090 d8 34 d2 3d 68 13 8d be de 76 0c 3d aa d2 33 bc
       0.102639854 -0.27553868 0.034293048 -0.010975519
0000a0 b6 80 87 bd 11 c3 4b 3d 67 70 6a 3e cf 40 48 3e
       -0.066163465 0.049746577 0.2289444 0.19555973
0000b0 93 31 06 bd 60 d0 05 3e a8 5b 83 be 1a 19 91 3e
       -0.03276212 0.1306777 -0.25655866 0.28339463
0000c0 37 a0 ff bd 3f 3f 77 bd 31 28 af 3d e5 e0 82 bd
       -0.124817304 -0.06036305 0.08552588 -0.063905515
0000d0 44 72 87 3c ce 23 25 be cc b9 8b bc 81 5b 19 3d
       0.016533978 -0.1612694 -0.017056368 0.03744078
0000e0 ff e2 04 be f8 85 93 3d 29 21 f9 3c fc cb 0d 3e
       -0.12977217 0.07203287 0.03041132 0.13847345
0000f0 cc 5e 9d be bc 11 8d bc e3 1f 57 be db e1 86 3d
       -0.30736387 -0.01722037 -0.21008258 0.06586047
000100 fc 4d 39 bd a3 f9 bb 3d 93 d9 cd 3c 86 9e fa 3d
       -0.045240387 0.09178474 0.025128162 0.12237267
000110 66 74 06 3e 5f d4 74 bd a7 8d 6c 3d 33 85 a5 be
       0.1313034 -0.059772845 0.057752278 -0.32328185
000120 a5 36 fc 3d df cd 92 3c 0a e6 f1 be ef 0e c3 3d
       0.1231511 0.017920433 -0.47245818 0.09524333
000130 a6 99 75 3d 9c ac fa bd 43 6c 39 3d 40 a0 8f 3c
       0.059960984 -0.12239954 0.045269262 0.017532468
000140 8c 80 34 be 86 67 2d 3d ae 5a d4 bc 1f 9e fe bd
       -0.17627162 0.042335056 -0.025922146 -0.12432503
000150 58 3c 25 be ec 81 68 3e dd d0 d8 bc 70 a0 7b bd
       -0.161363 0.22705811 -0.026466781 -0.061432302
000160 b4 72 c0 3d d0 05 95 3e db a9 03 3c 0c 80 89 3c
       0.09396878 0.29105997 0.008036102 0.01678469
000170 65 6c 23 3d 13 06 02 3e b8 f2 b9 be 76 5e 3c be
       0.039898295 0.1269763 -0.36317992 -0.18395409
000180 51 a8 86 3e 49 88 e0 bd 03 55 7b be 70 0d 80 3a
       0.2630029 -0.10963494 -0.24544148 0.000976963
000190 4d 7b 93 be 8c 8b 11 3d 6e 63 2a bd fb 62 17 3e
       -0.2880501 0.035533473 -0.04159873 0.14783852
0001a0 c1 69 1a 3e ff ed e6 3d 34 52 44 bc 2f ed 0e bd
       0.15079404 0.11275863 -0.011982489 -0.034894165
0001b0 7e 0d 53 3d c9 e3 2c be a0 cf 0f be ee cd 40 bd
       0.05152654 -0.16883768 -0.14044046 -0.04707139
0001c0 3e 7b 85 bd 06 22 e4 bd 55 10 a8 bc bd 6b 34 be
       -0.06517647 -0.11139302 -0.0205156 -0.17619224
0001d0 b6 2a 24 be 41 c2 82 be d9 bc 08 3d 3f d5 16 bd
       -0.16031918 -0.2553883 0.033383224 -0.03682446
0001e0 83 e3 bf 3d b1 c8 ab 3d 6c 4d 51 be 3a 4a 43 be
       0.09369566 0.08387888 -0.2043969 -0.19071284
0001f0 f8 92 ab bc 3b ba 8d be 2f a1 12 bd dd 9e 9d bd
       -0.020944104 -0.27681145 -0.035798248 -0.076963164
000200 4f 5e 7b bd 30 63 f7 bd cf af 51 be af 01 6a 3e
       -0.061369237 -0.120794654 -0.20477222 0.22852205
000210 fb bf 23 be 59 03 2a 3d e3 27 99 be 46 41 03 be
       -0.15991203 0.0415071 -0.29913244 -0.12817869
000220 9b 4a 81 be 14 05 c4 3d 3a 30 0d bc 07 e5 f8 bd
       -0.25252232 0.09571281 -0.008617455 -0.121530585
000230 6c 93 0b be bf f2 3b 3e 8a da 6f bd 78 cc d1 bd
       -0.13630456 0.18354319 -0.058558024 -0.102440774
000240 95 e5 a5 be eb 79 d5 bd 6d 32 3b 3d 7c ee ec bd
       -0.3240172 -0.10423645 0.045702387 -0.11568925
000250 32 7f d9 3d cd 2b 6e 3d ea ad 23 be 95 c0 00 3e
       0.10619964 0.05814724 -0.15984312 0.12573464
000260 1f d6 d3 bc 93 8e 15 3d 6f 64 3c bc 2b f0 19 3c
       -0.025858937 0.036512922 -0.011498555 0.009395639
000270 a4 d3 0e bd 46 5f b3 bd 0a 5d 0b 3e dd f4 9c bd
       -0.034869805 -0.08758406 0.1360971 -0.076638915
000280 6f 80 9c bd f6 10 4f be e5 cc 0b be ac 13 d2 3c
       -0.07641684 -0.20221314 -0.1365238 0.025644146
000290 e8 86 dd 3d 7d 1f 21 be ef 7f b8 bd 7b 84 e3 3d
       0.10816747 -0.15734668 -0.090087764 0.11109253
0002a0 7f 58 31 be 11 54 a0 3d 54 0e ac be d4 34 14 3d
       -0.17318915 0.078285344 -0.33604681 0.036183193
0002b0 f8 26 aa bd d2 82 54 3e 95 35 ba 3d 73 c9 b4 bb
       -0.08308214 0.20753029 0.09092251 -0.0055171787
0002c0 92 bb d4 bc 09 32 47 3d 45 c0 98 bd d9 c8 84 be
       -0.025968347 0.0486317 -0.074585475 -0.25934485
0002d0 55 c1 00 be aa e0 6a bd 73 bb a8 bd 92 da bc bd
       -0.1257375 -0.057343163 -0.08238878 -0.092213765
0002e0 96 c3 e5 bd 15 5a 98 3d 99 9c 0b 3d 89 79 d6 3d
       -0.11218946 0.07439057 0.03408489 0.104724
0002f0 82 de b7 bd a0 2d bf 3d 9d 3e 3c 3e 74 c7 83 3c
       -0.08977987 0.09334874 0.1838326 0.016086318
000300 9d 24 a0 be 50 39 16 3e 27 0c 68 be bc 26 89 3d
       -0.31277934 0.146703 -0.22660886 0.06696841
000310 42 aa ea bc 0c 4e 7e 3d 4e c1 d0 3d 92 01 9a be
       -0.028645638 0.06208615 0.1019312 -0.30079323
000320 8d 8f 09 be 25 b2 9d be bd d4 4b bd f3 e9 1c 3e
       -0.13433667 -0.30799976 -0.04976343 0.1532362
000330 6d 44 40 3b 87 cb cb 3c de 3b ba bd b4 d3 3d 3c
       0.002933766 0.024877323 -0.0909345 0.0115861185
000340 92 e8 bc be af 62 9b be 0b b6 81 3d 0a c5 99 3b
       -0.36896187 -0.30348727 0.0633355 0.0046926783
000350 a3 66 57 3d 03 77 ae be b6 f0 35 be 37 84 71 bc
       0.052588116 -0.34075174 -0.17767605 -0.014740995
000360 55 2f 14 bd 93 f6 38 be 4f e6 78 bd 83 12 ae 3c
       -0.03617795 -0.1806281 -0.060766514 0.021249061
000370 85 d7 e3 bc d0 54 5c 3d 53 06 81 bd ac 3e 26 be
       -0.027812729 0.05379182 -0.063000344 -0.16234845
000380 cb c4 31 3c 6b 57 63 be 3a 51 58 3d 5a d2 81 be
       0.010850142 -0.22201316 0.05281184 -0.25355798
000390 f4 f5 19 3e 10 52 94 3b 12 5a 15 3d a7 a0 04 3d
       0.1503523 0.004526384 0.03646285 0.032379773
0003a0 10 6a 2e be 2d 06 7e bd 28 be 77 be 44 f1 26 bd
       -0.17032647 -0.06201761 -0.24193633 -0.040757433
0003b0 a5 36 07 be ef 3c 3d bc 5b d6 69 3d 23 41 fb bd
       -0.13204439 -0.011550172 0.05708919 -0.12268283
0003c0 7b 57 94 bd 43 6e 70 bd 15 f2 87 3e b9 db b0 be
       -0.07243248 -0.058698904 0.2655188 -0.34542635
0003d0 74 49 4c 3d 53 88 96 be 7b 26 18 be e4 df ad be
       0.049874738 -0.29400882 -0.14858429 -0.33959877
0003e0 15 2e 89 bc 9a 41 b2 bd c3 19 bb 3b 91 07 8f be
       -0.016745606 -0.08703919 0.005709858 -0.2793546
0003f0 12 8e ae 3b bd 38 d0 3c 0d 63 73 3c 26 45 4e bd
       0.0053269947 0.02541768 0.0148551585 -0.050358914

net_container.2.bias f4 [64]
000000 07 47 bb be 23 4f 44 be ce 98 5c be ae 46 22 be
       -0.36577627 -0.19170813 -0.21542665 -0.15847275
000010 c1 b4 62 be b9 1f fb bd d8 dd 7d be f8 d4 14 3d
       -0.22139265 -0.1226191 -0.24791658 0.036335915
000020 27 e7 a4 be 47 36 0d 3e b9 ad f7 bd 2e 3c 84 3d
       -0.32207605 0.13790236 -0.12093682 0.06456791
000030 79 9c bf be ee fd e8 bd e6 f9 b9 be 02 f3 7c 3e
       -0.37424067 -0.11376558 -0.3632347 0.24702075
000040 96 b6 e9 3d 18 76 8e be f9 de d2 3c 2f e0 58 be
       0.11411779 -0.27824473 0.025741087 -0.21179269
000050 8e 62 93 be bf e7 81 be 98 88 9c bd 67 96 35 3e
       -0.2878613 -0.2537212 -0.07643241 0.17733155
000060 40 e6 aa 3d 25 02 cb 3d 23 48 1b be cc d6 49 bd
       0.08344698 0.099125184 -0.15164237 -0.049277112
000070 37 2d 41 3d 0e bb a2 3c b1 b7 93 bd be 23 78 be
       0.04716226 0.019864585 -0.07212771 -0.24232385
000080 a8 55 14 3e 19 0d 2e 3e 3f 9a bc 3d bd 9f d7 3d
       0.144858 0.16997184 0.092091076 0.105285145
000090 80 87 f1 be a3 a3 9f be ed 50 cb bd 5c 10 e4 bd
       -0.4717369 -0.31179532 -0.09927545 -0.11135933
0000a0 d9 c0 6d 3d 50 03 cc bd a3 82 83 be 05 79 46 3e
       0.058045242 -0.09961569 -0.25685605 0.19382103
0000b0 4a 6f c8 be dc b3 a8 ba 67 e0 3d be 2c 1c 87 3e
       -0.39147407 -0.0012870985 -0.18542634 0.2638868
0000c0 3d 7c 6a be 7c 92 49 3e 22 64 00 3d 2c 8d 2a bd
       -0.22898956 0.19684786 0.031345494 -0.04163854
0000d0 14 a5 7f 3e 7f ce 98 be 70 e6 61 be 2f 1e 0e 3e
       0.24965316 -0.29845044 -0.22060561 0.13878702
0000e0 89 92 d2 be c1 0f 76 bd 25 aa ae bd 1d 60 b1 bb
       -0.41127422 -0.060073618 -0.08528546 -0.005413069
0000f0 4a 87 19 be 7d 46 da be e6 0d cb be f8 9e cc bc
       -0.14993015 -0.42631903 -0.3965904 -0.024978146
