logs/skrl/reach_franka/2024-12-18_21-11-53_ppo_torch/checkpoints/agent_14400.pt (torch, 96272 bytes, 38 tensors)

log_std_parameter f4 [7]
000000 4a 26 1d c0 47 85 1d c0 51 7a 26 c0 04 22 23 c0
       -2.455462 -2.4612596 -2.6012156 -2.5489511
000010 d6 70 20 c0 73 fe 26 c0 34 39 15 c0
       -2.506887 -2.6092803 -2.3316164

net_container.0.weight f4 [64, 32]
000000 a6 79 ce be 0c 40 1c 3e bc 7e c0 be 81 6f 0a be
       -0.40327185 0.15258807 -0.3759669 -0.13519098
000010 7c 70 61 3d 18 21 75 bd c9 d0 8d 3e 82 f6 a5 bc
       0.055038914 -0.059846014 0.27698353 -0.020259146
000020 ea 59 17 3d 28 db 20 be 29 c8 1f 3e 1b 03 83 be
       0.036950983 -0.15708601 0.15603699 -0.25588307
000030 b5 00 9b 3c 86 3f 2b 3d 38 eb 53 bc a4 8b 2d be
       0.018921236 0.041808628 -0.0129344985 -0.169478
000040 b4 dd 09 3e 90 44 19 bd 8c 39 a9 3e 9c d4 20 3e
       0.1346348 -0.037418902 0.33051717 0.15706104
000050 4c 14 aa 3d 78 a3 b4 3e 5f 23 72 be 6d 5f 83 be
       0.083046526 0.35280967 -0.23646306 -0.25658742
000060 79 44 2e be 53 c7 2c bd d9 b7 a7 3d a4 71 00 3d
       -0.17018308 -0.042182278 0.08189363 0.031358376
000070 e8 c2 82 3d ec e9 d7 bd 24 3f 89 bd e7 eb 22 be
       0.06384832 -0.10542664 -0.06701496 -0.15910302
000080 11 83 b6 bd c4 73 7a be df 65 7b be 8c 2b 7b be
       -0.08911718 -0.24458224 -0.2455058 -0.2452833
000090 e0 81 28 bd e8 1a 01 bd 31 87 15 be ab df 93 3b
       -0.041139483 -0.0315198 -0.14602353 0.0045127473
0000a0 e7 18 09 3c 82 82 5c bc 0d 0f fc bd 43 85 b9 3b
       0.008367754 -0.01345885 -0.12307558 0.005661638
0000b0 f0 7d 4f 3d 10 1c d3 3d 13 ca ba bd fb 95 04 be
       0.050657213 0.10308087 -0.09120574 -0.12947838
0000c0 1d 13 6b bd 52 d3 b8 bd 50 52 08 be 3a f7 8b 3d
       -0.057391275 -0.09024681 -0.1331265 0.06834264
0000d0 53 12 b9 be 5b 16 cc be 4e f0 0e bf 07 20 b2 3e
       -0.36146793 -0.39860806 -0.55835426 0.3479006
0000e0 f1 61 25 bf 26 ee 86 3e 15 e8 5b bd 38 b8 20 bd
       -0.6460257 0.26353568 -0.053688128 -0.039238185
0000f0 45 40 c5 bd 42 6c b3 bd 86 b3 96 3d ee 6b 04 bd
       -0.09631399 -0.08760883 0.0735846 -0.032329492
000100 cd 4a 5a be 4d 26 08 be 0c e4 83 be 06 8c 74 3e
       -0.21317597 -0.1329586 -0.25759923 0.2388154
000110 ca d8 15 bd 9c 2e e6 3d cd 4b 28 3e 1f d6 00 3e
       -0.0365837 0.11239359 0.16435166 0.1258168
000120 e5 e2 b5 bb e8 93 bb bd 23 86 4a be b5 1f f7 3d
       -0.0055507296 -0.0915907 -0.19777732 0.120665945
000130 5d 74 0d 3e f2 cb 16 bd 7a c4 4e bd f3 c1 ef bb
       0.1381392 -0.03681559 -0.050480343 -0.0073168217
000140 35 c8 c5 3d dd 85 a0 bc 85 4a 93 3e 86 a0 e9 3e
       0.09657327 -0.019595081 0.2876779 0.45630282
000150 a9 79 0d bf 8b c8 87 be 55 31 3f bc f5 7b 06 3e
       -0.55263764 -0.2652019 -0.0116694765 0.13133223
000160 2e f6 ad bd e2 6e a2 bc 51 2a 5f bd 30 e4 12 3d
       -0.08494221 -0.019828264 -0.054483715 0.035862148
000170 e1 1e 6d bd a3 a4 d6 3d 02 90 ba bd d1 fa b0 3c
       -0.057890777 0.10480621 -0.091094986 0.021603974
000180 b3 ec d2 3d 85 cb 27 be eb db cb bd 54 6f 72 be
       0.10299053 -0.1638623 -0.099540554 -0.23675281
000190 a6 77 11 3e ea 71 31 3e f4 97 d9 bd b7 0d 83 3c
       0.14205799 0.17328611 -0.10624686 0.01599775
0001a0 3b c3 c2 3c e6 76 7f 3b a8 c3 9f 3d a2 95 5b 3c
       0.023774734 0.003898078 0.0780099 0.013402374
0001b0 66 80 78 bd 38 fa a8 bd 43 87 e5 bc da a8 97 3d
       -0.060669325 -0.082508504 -0.0280186 0.07405253
0001c0 05 47 92 3d d7 c3 ee bc 4d f5 ef be 2d d6 42 be
       0.07142452 -0.029146118 -0.46866837 -0.19027014
0001d0 6c f2 22 3f f0 fd ca be 77 91 96 3e d2 35 99 3e
       0.63651156 -0.39646864 0.29407856 0.29923874
0001e0 14 6b a1 3e c3 84 e6 bd 9f ce 3f be 3e 42 16 be
       0.31527007 -0.11255791 -0.18731163 -0.14673707
0001f0 e1 77 a4 b8 28 8e 1c 3e b0 85 96 bc d4 de cc bc
       -7.8424586e-05 0.15288603 -0.018374294 -0.025008596
000200 65 7b 03 be eb d9 4b be 31 56 90 bc a3 0d 12 be
       -0.1284004 -0.19907348 -0.017619224 -0.14263014
000210 49 3f 09 be 56 5a 3e 3c 02 9b 35 bd cc 3e 42 bd
       -0.13403048 0.011618217 -0.04433728 -0.04742317
000220 96 55 57 3d b8 e1 77 bd 28 46 6f bc b6 92 24 3c
       0.052571855 -0.060517997 -0.014604129 0.010044744
000230 2c ca 4a be 09 1b ab 3c 0f d8 49 b9 b8 d5 84 3c
       -0.19803685 0.020886915 -0.00019249342 0.01621519
000240 0d f8 8a bd 76 25 0b be 3f 8f c3 3e 74 69 e1 bd
       -0.06785593 -0.13588509 0.38195226 -0.11006442
000250 14 ae 10 3f 63 f9 d3 be fc 93 d8 be 25 d7 09 3f
       0.5651562 -0.41401204 -0.42300403 0.5384391
000260 65 eb 02 bf fa eb be 3c a0 45 01 3d 5a bb e9 3a
       -0.51140434 0.023305882 0.03156054 0.0017832324
000270 f3 64 2a 3e 55 d5 cc 3c f9 e7 09 bd 58 85 57 be
       0.16640072 0.025004068 -0.033668492 -0.2104696
000280 d6 20 44 be fd ad c9 be 51 dc 93 3d a1 40 5c 3b
       -0.19153151 -0.39390555 0.072197564 0.0033607858
000290 db 9f da 3d dc 86 80 be a2 55 44 be e0 17 65 3d
       0.10675021 -0.2510289 -0.19173291 0.055930972
0002a0 e5 4c f3 bc 8c f2 4a bb d5 27 22 be 46 0e 83 3d
       -0.029699752 -0.0030967323 -0.15835507 0.06399207
0002b0 68 70 b0 3d 30 b6 97 3d de 08 67 bc ce ed b8 bd
       0.0861519 0.074077964 -0.014101235 -0.09029733
0002c0 ab 3c 2e 3d 42 85 58 3d 9b 67 86 3e 11 25 70 3d
       0.042538326 0.05286146 0.2625092 0.0586291
0002d0 12 f0 7f bd 12 34 09 3e e4 43 09 3d dd 3f 39 3c
       -0.06248481 0.1339877 0.03351201 0.01130673
0002e0 42 9a e6 3c c4 59 09 3d e3 13 cb 3b c8 48 41 3d
       0.028149728 0.033532873 0.006197439 0.04718855
0002f0 b4 d6 de bd 9e d6 a6 bd 4c 17 07 be 61 7f b5 3d
       -0.10880795 -0.08146404 -0.13192481 0.08862186
000300 9a 57 66 bb b9 15 6f be 96 ea 6e 3d 99 f1 88 3d
       -0.003514743 -0.2334813 0.058329187 0.06686706
000310 9a 48 36 bb 24 d3 9c 3e c4 7d 87 be af ae c5 bd
       -0.002781427 0.30629838 -0.2646314 -0.09652459
000320 e2 86 24 3d f4 59 14 be 6a aa 09 3e e4 7d 06 be
       0.040167697 -0.1448744 0.13443914 -0.13133961
000330 a4 cd 13 be 3b 90 db 3d 78 22 ba 3d 02 0e 28 3e
       -0.14433914 0.10720869 0.09088606 0.16411594
000340 55 41 de bd 75 fa 51 bd 8e 8f 8d bc 04 0b 1d 3e
       -0.10852305 -0.051264245 -0.017280366 0.15336233
000350 7a 28 22 bf d8 13 98 be bd 55 1a bf c9 ec a9 3e
       -0.6334301 -0.2970264 -0.60287076 0.33188465
000360 08 ef d3 be 59 af ce bd 3a 46 61 3c d1 f3 33 bc
       -0.41393304 -0.10092039 0.0137496535 -0.010983423
000370 bb 07 e7 3c 1b b9 a6 3d 0f fc ed bd a1 61 16 3d
       0.028201928 0.08140775 -0.11620342 0.0367142
000380 11 44 9e be 16 7d b1 be f6 b7 08 bf a1 1b 28 3c
       -0.30911306 -0.34665745 -0.534057 0.0102604935
000390 aa c3 3f 3e 5c 46 18 3e 79 6c ae 3e 2f 5b b6 3b
       0.18726984 0.1487059 0.34067133 0.005565069
0003a0 2e 43 18 bd 61 5c 20 be cc a7 8c be 17 b2 22 be
       -0.037173443 -0.1566024 -0.2747177 -0.15888248
0003b0 18 e8 ca bd 10 a6 26 bd 03 9f ab 3c 26 33 4d bc
       -0.099075496 -0.040685713 0.020949846 -0.012524402
0003c0 84 35 a2 bd 66 24 27 3e 4c 5a 9f 3e cc 96 04 3e
       -0.079203635 0.16322479 0.3112358 0.1294815
0003d0 a4 f8 9d 3d f8 e3 2a bd cd aa 6c bf 68 03 31 be
       0.0771344 -0.041721314 -0.9244812 -0.17286456
0003e0 11 b8 69 bf 9a 36 ba 3d 9d 34 12 3e 6a eb f8 3c
       -0.9129649 0.09092446 0.14277883 0.030385692
0003f0 f7 d7 bd bd 15 de e3 3d f8 40 a6 bd 31 d9 a3 3e
       -0.09269708 0.11126343 -0.081178606 0.3200164

net_container.0.bias f4 [64]
000000 52 c0 11 3e 9d 59 56 3e 16 29 73 3e 73 f6 82 3e
       0.1423352 0.20932622 0.23746142 0.2557865
000010 02 bc 2e bb 1a 1a ed 3d f6 a2 63 3e 67 20 28 be
       -0.0026662354 0.11577244 0.22230133 -0.1641861
000020 a7 91 27 3e 31 2e a7 be f8 7f 91 bd 33 dc 5b 3e
       0.16364156 -0.3265243 -0.07104486 0.21470718
000030 de 9d 7f be 2a 75 9f be 2d 35 35 3e 9e 80 91 bd
       -0.24962565 -0.31144077 0.17696066 -0.0710461
000040 2e c4 18 be 62 d7 92 be c1 ae 9c 3d 41 56 55 be
       -0.14918587 -0.2867995 0.07650519 -0.20833685
000050 ea 11 b1 be 84 0d 2a be eb 88 15 3d 4c c6 ac 3d
       -0.3458398 -0.16606718 0.03650753 0.084362596
000060 5f 95 13 3e c5 a1 fc be 28 79 31 3e 92 e6 c7 3e
       0.1441245 -0.4934217 0.17331374 0.390431
000070 2c 17 28 be 73 08 17 bd 14 7c 5d 3c b8 8d 6c be
       -0.1641509 -0.036873292 0.013518352 -0.23100936
000080 aa 0e 7d be a3 8b 49 be 89 97 5d be 3f 01 6e be
       -0.24712625 -0.19682173 -0.21639837 -0.23242663
000090 a2 1a e8 bd d7 17 b6 be e7 75 07 3d 25 36 a9 3e
       -0.11333205 -0.35565063 0.033071425 0.33049121
0000a0 b6 fa 84 3e 9c 50 a6 3e 47 7a de be e7 62 8f be
       0.25972527 0.32483375 -0.43452665 -0.28005144
0000b0 c7 99 48 be 8a 0f a0 be ac e3 e7 3d 16 8f 20 be
       -0.19589911 -0.31261855 0.11322722 -0.15679583
0000c0 ea 5e dd be 53 27 b4 bc 76 11 f2 bd 24 ad b9 3d
       -0.43236476 -0.021991407 -0.11819737 0.09066227
0000d0 64 ad 7a be 78 c4 01 be 9e 41 91 be d7 4c a0 bd
       -0.24480206 -0.12672603 -0.28370374 -0.07827156
0000e0 a1 12 bb bc 88 a1 8b be 63 c4 cb be 67 15 9e be
       -0.022836031 -0.27271676 -0.3979827 -0.30875704
0000f0 1f 25 85 3a 7d 62 b7 be 3c 6e 32 3c 2b 43 7e be
       0.0010158158 -0.35817328 0.01089054 -0.2483031

net_container.2.weight f4 [64, 64]
000000 7a 4e 07 3e c7 70 45 be ae a4 7d bc 95 94 80 bd
       0.1321353 -0.19281302 -0.015481157 -0.0627834
000010 a6 c1 3c be f4 72 41 bd 61 f4 e6 bc 95 da 35 3e
       -0.18433246 -0.04722877 -0.0281927 0.17759164
000020 40 3c 36 bd 97 18 88 3e a6 26 d3 3d a8 46 60 3e
       -0.044491053 0.2658126 0.10310106 0.21901953
000030 3e 74 ab 3d 46 04 d5 bc ed af 4e 3e 47 db 7f be
       0.08371781 -0.026003014 0.20184298 -0.24985991
000040 d5 05 61 bc ed a1 c3 bd 6c 23 61 bd 46 08 07 bd
       -0.013734301 -0.09552369 -0.05496542 -0.032966875
000050 b2 b9 03 bd 6e a9 9b b8 f3 ff 0d be 7e 4a 69 be
       -0.032159515 -7.422535e-05 -0.13867168 -0.22782323
000060 f5 4b 94 3e c0 d3 b8 3d 88 8a 9e be dc 2b 1f be
       0.289642 0.09024763 -0.30965066 -0.15544075
000070 bb aa 01 bd 18 53 5d be 7f 59 e9 bd c0 35 fe be
       -0.031656962 -0.21613729 -0.11394023 -0.49650383
000080 93 0d 45 be 73 2a c7 3e b5 6b 24 3d 7f 98 ec 3d
       -0.1924346 0.38899574 0.04014178 0.11552524
000090 60 7b d7 3d 8c 7f 91 be dd d1 2b 3d f6 21 34 bc
       0.10521579 -0.28417623 0.041948188 -0.010994425
0000a0 64 ed 8a bd 54 48 56 3d f5 32 72 3e c5 25 44 3e
       -0.0678356 0.05231507 0.23652251 0.19155033
0000b0 7e 9e 0c bd 5b a8 07 3e 01 31 7b be 5a 6b 90 3e
       -0.034330837 0.13247816 -0.24530412 0.28206903
0000c0 79 52 f8 bd 2b 12 7a bd eb 08 a8 3d 1b b0 57 bd
       -0.121251054 -0.061052483 0.08204826 -0.05265818
0000d0 92 32 88 3c d6 b1 21 be b2 93 a7 bc 1a d6 01 3d
       0.016625676 -0.15790495 -0.020456169 0.031698324
0000e0 de 2a 0b be f9 06 8c 3d cf 58 f6 3c b3 42 09 3e
       -0.13590571 0.068372674 0.030071644 0.1340435
0000f0 60 c6 9d be fb b4 7a bc 33 61 52 be fb 2d 95 3d
       -0.3081541 -0.015301938 -0.20544891 0.07284161
000100 b7 ca 64 bd f8 20 c7 3d 34 a1 bb 3c f2 7d f6 3d
       -0.055857386 0.09723085 0.022904016 0.12035741
000110 90 92 09 3e da a3 78 bd 47 05 82 3d 69 2b a5 be
       0.13434815 -0.060703136 0.06348663 -0.32259682
000120 9b 0a fa 3d 1e 1e a9 3c 83 e3 f0 be 00 ce b8 3d
       0.12209054 0.020644244 -0.47048578 0.090236664
000130 51 44 76 3d 7b e3 fd bd 59 c0 33 3d 69 a3 f0 3b
       0.060123745 -0.12396904 0.04388461 0.0073436988
000140 7b 6f 33 be 88 0b 32 3d 9e c0 c8 bc 02 27 04 be
       -0.17522995 0.04346803 -0.02450591 -0.12905505
000150 2a e4 21 be 6d 36 6c 3e 41 c2 c7 bc fa 37 83 bd
       -0.15809694 0.23067637 -0.02438462 -0.06407161
000160 d6 15 c3 3d b7 a2 91 3e c7 44 d0 3c 1f 6b 4e 3c
       0.09525649 0.28444454 0.02542342 0.012598782
000170 66 aa 3d 3d f1 aa 0a 3e 5c af b9 be 27 4c 3b be
       0.046305083 0.13541771 -0.362666 -0.18290769
000180 a6 90 8b 3e ee 2a f0 bd d2 a9 7d be 9d 3b 78 bb
       0.27258795 -0.11726938 -0.24771813 -0.003787733
000190 7e 2d 93 be 8e be ec 3c 6e 74 0f bd 0d 1e 0f 3e
       -0.28745645 0.028899457 -0.035023145 0.13976307
0001a0 6b 68 1d 3e 89 36 e0 3d 0c 07 9b bc 15 f5 03 bd
       0.15371864 0.10947902 -0.018924259 -0.03221615
0001b0 ba 39 74 3d 87 7f 2b be 6b 11 11 be ee a6 31 bd
       0.059625365 -0.16747867 -0.141668 -0.043372087
0001c0 ee 89 6c bd 56 fb e2 bd 25 5b 91 bc 87 b9 37 be
       -0.057748728 -0.11083095 -0.017743656 -0.17941867
0001d0 b1 6c 27 be f0 89 82 be 1b 3d 13 3d 85 b5 0d bd
       -0.16350056 -0.25495863 0.035946947 -0.03459694
0001e0 02 e6 c4 3d b1 3a b1 3d 91 d6 54 be f1 0a 40 be
       0.09614183 0.086537726 -0.20784976 -0.18754174
0001f0 ee e0 cf bc 80 fe 8c be dc 24 11 bd d2 8d a5 bd
       -0.02537581 -0.27537918 -0.035435542 -0.08083691
000200 c7 5f 43 bd 6a 70 00 be 09 51 54 be de fc 69 3e
       -0.047698762 -0.12542883 -0.20734037 0.22850367
000210 29 c1 1f be df f0 1f 3d 85 eb 97 be 44 a8 03 be
       -0.15601029 0.039048072 -0.29671875 -0.12857157
000220 e6 2a 83 be c6 6b c3 3d 66 10 1b bc 6f ef f6 bd
       -0.25618666 0.095420405 -0.009464359 -0.12057387
000230 3d fb fa bd 91 6e 3c 3e 08 66 89 bd 08 f0 e2 bd
       -0.12254951 0.18401553 -0.06708914 -0.110809386
000240 2d b8 aa be 6c de e4 bd a3 fe 4f 3d 5d 3f 04 be
       -0.3334364 -0.11175236 0.05077995 -0.12914796
000250 ca c3 d5 3d db 76 56 3d 65 02 19 be 24 73 f8 3d
       0.104377344 0.052359443 -0.1494232 0.12131336
000260 18 90 f3 bc d5 c9 0f 3d df 2f 8e bb a8 a0 ed 3b
       -0.029731795 0.03510459 -0.004339203 0.0072518177
000270 64 b1 1a bd e5 04 a9 bd 9a 31 09 3e 43 69 a1 bd
       -0.03776683 -0.08252887 0.13397828 -0.07881405
000280 44 4d 9d bd 07 d8 59 be 47 7b 12 be 34 26 91 3c
       -0.07680753 -0.21273814 -0.14304839 0.017718412
000290 c5 e1 d9 3d ce 84 1e be 5f b0 c4 bd 57 18 da 3d
       0.10638765 -0.15480348 -0.096039526 0.10649174
0002a0 e5 c2 3b be 22 b8 91 3d 37 a6 a7 be 7b 17 05 3d
       -0.18336065 0.07115199 -0.32744 0.032493096
0002b0 f2 d0 8f bd 3d 98 51 3e 7d 2f c0 3d 58 36 34 3c
       -0.07022275 0.2046823 0.09384058 0.010999285
0002c0 87 7d f1 bc 15 ee 4f 3d 2a 0b 9e bd d0 a5 8a be
       -0.029478801 0.050764162 -0.07716973 -0.2707963
0002d0 ff 5b 04 be f0 63 43 bd 54 99 ac bd f6 55 cd bd
       -0.12925719 -0.04770273 -0.084276825 -0.100261614
0002e0 16 16 f1 bd ca 3c a9 3d aa e5 14 3d 63 48 ef 3d
       -0.11771791 0.08263548 0.036351837 0.116837285
0002f0 e7 74 a7 bd 03 a1 bf 3d 16 78 3a 3e b6 26 7c 3c
       -0.08176594 0.093568824 0.18209872 0.015390089
000300 8f e1 9b be 2b 47 19 3e d7 e2 74 be 59 c1 7b 3d
       -0.30445525 0.14968555 -0.23914658 0.061463688
000310 30 0d b3 bc 18 56 72 3d dc 0c cd 3d df 88 9b be
       -0.021856874 0.059164137 0.10012218 -0.30377862
000320 18 25 18 be 14 4e 9b be 7f 7c 5c bd 4f d5 1d 3e
       -0.148579 -0.30333006 -0.053829666 0.15413402
000330 64 d2 8e 3c 73 de 9f 3c a7 4a cb bd 57 f7 10 bb
       0.017434306 0.019515252 -0.09926348 -0.0022120082
000340 5b a2 c0 be e7 40 a0 be 3d 25 84 3d cb a6 0a 3c
       -0.37623867 -0.31299517 0.06452415 0.008462618
000350 83 29 69 3d 94 a4 b6 be 7c 23 3c be f8 57 3d bc
       0.056924354 -0.35672438 -0.18372911 -0.011556618
000360 1f c9 06 bd bd ef 38 be 8c 1d 72 bd 23 74 a0 3c
       -0.032906648 -0.18060203 -0.05911021 0.019586628
000370 8a 51 c2 bc e4 6c 72 3d 4c 64 86 bd e5 f1 10 be
       -0.023720521 0.059185877 -0.06562099 -0.14154775
000380 91 c6 42 3c 37 8b 5f be 7c c4 63 3d c9 3b 80 be
       0.011888162 -0.2183045 0.055607304 -0.25045612
000390 03 b7 15 3e 55 20 cd 3c d4 8b b7 3c 0f 0e e0 3c
       0.14620595 0.025039831 0.022405542 0.027350454
0003a0 81 4e 2e be 68 62 8d bd 66 7e 66 be e3 e5 1d bd
       -0.17022134 -0.06903535 -0.22509155 -0.038549315
0003b0 46 3e 06 be ed fe 40 bc 4f 72 6c 3d b6 31 ec bd
       -0.13109693 -0.011779529 0.0577262 -0.11532919
0003c0 bb d5 93 bd 9c 4e 7e bd ff b9 87 3e e3 29 ab be
       -0.072185 -0.062086686 0.2650909 -0.33430395
0003d0 0e d9 31 3d fd 9d 91 be ec 0a 19 be da 69 b0 be
       0.04341989 -0.28440848 -0.14945573 -0.34455758
0003e0 cc 31 bb bc 29 ce a5 bd 1c 23 88 3b 60 a6 86 be
       -0.022850893 -0.080959626 0.004154576 -0.2629881
0003f0 d7 29 37 3b 73 3b bc 3c d8 45 c9 3c 22 84 47 bd
       0.0027948522 0.022977566 0.024569437 -0.048709996

net_container.2.bias f4 [64]
000000 a8 3f bb be 3e d1 44 be 47 9b 5c be 1e 83 26 be
       -0.36572003 -0.19220445 -0.21543609 -0.16260955
000010 79 26 62 be b4 30 06 be a9 1a 78 be 51 e2 ed 3c
       -0.22084989 -0.13104516 -0.2422892 0.02903858
000020 6c 00 aa be 94 9e 08 3e a9 62 d6 bd 81 58 81 3d
       -0.33203447 0.13341743 -0.10468037 0.06315709
000030 ee 36 bd be ef 29 cd bd f2 73 b8 be d7 33 7f 3e
       -0.3695597 -0.10017764 -0.3602596 0.24922119
000040 84 a9 d4 3d f1 5a 8e be 1c ee d6 3c c2 23 59 be
       0.10383895 -0.27803758 0.026236586 -0.21205047
000050 8a f7 8c be f1 7c 7e be 9f 68 7e bd 9e 4e 32 3e
       -0.27532607 -0.24852349 -0.062111493 0.17412803
000060 bc 43 a2 3d 80 dc b8 3d 32 54 1c be 6c 35 35 bd
       0.079230756 0.09026432 -0.15266493 -0.0442404
000070 04 ff 2c 3d 05 6e d8 3c 85 88 9b bd 1a 17 6c be
       0.04223539 0.026419649 -0.075943984 -0.23055688
000080 74 9a 12 3e f7 91 2c 3e d2 b4 b5 3d 2a b6 e3 3d
       0.14316732 0.16852556 0.08872379 0.111187294
000090 cd 7e ef be 39 1b 9f be e0 f8 d0 bd 9e 96 eb bd
       -0.4677643 -0.31075457 -0.10203719 -0.11503337
0000a0 ec 79 6e 3d 2c 3e d5 bd 47 75 85 be 66 94 44 3e
       0.058221743 -0.10412249 -0.26066038 0.19197235
0000b0 a2 f3 c6 be 98 e7 f4 bb bd 66 44 be f7 75 87 3e
       -0.38857752 -0.007473897 -0.19179817 0.26457188
0000c0 fa 7b 65 be 2e 54 48 3e f8 bd e6 3c 62 76 20 bd
       -0.22410575 0.19563362 0.028166756 -0.0391754
0000d0 e6 29 82 3e bd 01 99 be 4d b1 5c be bd e7 0b 3e
       0.2542259 -0.2988414 -0.2155201 0.1366262
0000e0 c9 c6 d1 be 6d 51 6c bd 10 46 b1 bd 26 90 00 bc
       -0.40971974 -0.05769484 -0.086559415 -0.007846868
0000f0 03 ca 17 be 8b bb e0 be dd c3 c9 be c9 ec a8 bc
       -0.14823155 -0.43893084 -0.39407244 -0.02062072

policy_layer.weight f4 [7, 64]
000000 3c 10 87 3e b7 da a4 bc 7c 82 ad bd 78 c8 04 be
       0.26379573 -0.020123823 -0.084721535 -0.12967098
000010 04 b9 1f bd 4b 0b 72 bc 48 12 69 bd 8a 32 55 3d
       -0.038994804 -0.0147732 -0.0569022 0.05205015
000020 50 a1 61 bd e4 9b 18 3e 58 2a 4d 3e 2b 79 c7 3d
       -0.05508548 0.14903218 0.20035684 0.09739908
000030 69 a2 3f bd a4 0c 69 be 78 07 39 3b 51 0c 4b bd
       -0.046785746 -0.22758728 0.0028233211 -0.049572293
000040 40 70 8f bd cb 86 8a bd 8e 38 ce 3c 12 e6 14 3e
       -0.07003832 -0.06763991 0.025173452 0.1454089
000050 d3 f2 d6 bd 06 4e b3 bd c4 44 f5 3d 56 8a ff 3b
       -0.10495534 -0.08755116 0.119760066 0.0077984734
000060 f8 94 6d 3d 8d 9c 8d be 07 85 18 be 6e ff 08 bb
       0.058003396 -0.276585 -0.14894496 -0.00209042
000070 10 73 3b be 46 6a ab 3d b2 78 4a bc 4d 05 dc bc
       -0.18305612 0.083698794 -0.012357878 -0.026857996
000080 dd 10 ce bc a9 f9 03 3e 34 75 12 3e 13 78 12 be
       -0.025154525 0.12888207 0.14302522 -0.14303617
000090 46 cc 23 3d 68 6c 0f 3d 8d 8a a3 bd 89 0a 9a be
       0.039989732 0.035015494 -0.07985411 -0.30086163
0000a0 d3 d2 ef 3d 02 17 f0 bd c8 4a 19 bd ba b6 e7 bc
       0.117101334 -0.117231384 -0.037424833 -0.028285373
0000b0 6e c3 17 be 53 ef 00 be 5f 25 7e bd 75 b4 cc 3d
       -0.14820644 -0.12591295 -0.06204736 0.09995357
0000c0 44 a9 ae 3d ee 5d 5c bc 5b a4 80 bd a7 1f 1c 3c
       0.085283786 -0.013450129 -0.06281348 0.009529031
0000d0 34 1b 47 bd e1 13 63 3d 9c 8b 5c bb 4a 7a 11 be
       -0.048609927 0.05543888 -0.003365255 -0.14206806
0000e0 24 9b 8e 3e ce 32 f5 3d a9 c7 38 3c 11 1d ba bd
       0.27852738 0.11972581 0.011278071 -0.09087575
0000f0 2f 69 85 bc 50 43 2e bd 32 27 8e 3e 6c 68 28 be
       -0.016285507 -0.042544663 0.2776428 -0.16446084
000100 82 d6 5c bd 42 63 c1 bc 84 6f 63 be 48 2a 00 be
       -0.053915508 -0.0236069 -0.22210509 -0.12516129
000110 b4 81 d9 bd 92 17 94 3c bf 90 7a 3d 3e ec fb bb
       -0.10620442 0.018077645 0.061173197 -0.0076880744
000120 8d f2 0e bd 08 60 dc 3d a1 48 08 bd 5f ec 93 3d
       -0.034899283 0.10760504 -0.03327239 0.072228186
000130 48 cc 76 bc 23 08 cc 3d cc 32 96 3d 8a 68 4f bd
       -0.015063353 0.099624895 0.073339075 -0.050636806
000140 9e 91 72 bc 13 4a 1a 3d 2c 39 c0 bc 19 ad 2c bd
       -0.014805226 0.0376683 -0.023464762 -0.042157266
000150 96 6f 65 bd 65 34 4d be a2 7c 9a 3d 78 03 b4 3d
       -0.05601462 -0.20039518 0.07543303 0.08789724
000160 da 05 5b 3d 04 99 87 bd 77 de a1 3c c6 dc 0c be
       0.053472377 -0.06620982 0.0197594 -0.13756093
000170 a3 b0 8d 3c 9b f5 94 3d 11 cc 6a be 0e ec 5a be
       0.017296141 0.07273408 -0.22929408 -0.2137911
000180 aa a8 65 3d 32 1b d3 3d a6 3e fb 3d 2b 33 29 3d
       0.056069054 0.103079215 0.122678086 0.041308563
000190 0e 38 0a bd ad 7b 8a bd 59 d0 5e 3e 5c 82 44 bc
       -0.033744864 -0.067618705 0.21759166 -0.011993971
0001a0 39 04 3d 3e bd 75 06 bc d2 46 f1 3d de cf 13 3e
       0.18458642 -0.008206782 0.11781086 0.14434764
0001b0 7c 10 85 3d 5d 66 10 3e 0f f7 06 3e a3 5f 02 3b
       0.06497285 0.14101548 0.13180183 0.001989343
0001c0 14 86 18 bc 51 e9 8f 3d 7c 9e ca 3d cd 94 5c 3c
       -0.0093093105 0.070269234 0.0989351 0.013463211
0001d0 6f df 42 bd 87 9d ae bd cf d4 e8 bc 74 1f 00 3e
       -0.047576364 -0.0852614 -0.028421788 0.12511998
0001e0 da 5e e6 bd 45 69 6b bd 17 00 b8 bc 41 97 58 bc
       -0.1124856 -0.05747344 -0.02246098 -0.0132196555
0001f0 83 70 1d bd c4 5e 38 3c 47 7b 2a be 4b da 61 bd
       -0.038437378 0.011253063 -0.16648589 -0.05513982
000200 0b a5 89 3e d4 e4 d5 3d 7a 4b f8 bb 6e f3 c6 bd
       0.2688373 0.10444036 -0.007577357 -0.09714399
000210 ea 4f dd 3c bc 14 49 bd 18 4e 01 3b 49 bd dc 3d
       0.027015645 -0.04909204 0.0019730385 0.10778291
000220 4e f9 48 3d ce 1f d1 3b a4 60 1d 3e b5 ed 74 bc
       0.04906588 0.0063819652 0.15368897 -0.014949252
000230 ff ac b5 bc 11 8f 8b be 0a 64 64 bd db 46 14 be
       -0.022177218 -0.27257589 -0.055759467 -0.14480154
000240 d4 e5 52 3d f4 7b dc bd d1 3b 23 be 89 ee 0c 3e
       0.051488712 -0.1076583 -0.15940787 0.13762869
000250 d4 07 29 bd 26 ac 7c 3c 24 40 de bd 2f 06 f8 3c
       -0.04126723 0.015421903 -0.108520776 0.030276386
000260 e4 c8 09 bc 1e a4 de bd e5 ec 0e be 84 c6 a8 3d
       -0.008409712 -0.108711466 -0.13957556 0.08240989
000270 00 cc bd 3d d0 df 14 be af 1e d9 38 18 f6 4f bd
       0.092674255 -0.14538503 0.000103530816 -0.050771803
000280 c9 fd 07 bd 58 41 7e 3d 18 1c 55 3e 0c 4b 80 3d
       -0.033201013 0.062074035 0.20811498 0.06264314
000290 27 04 72 3d 5e ee 30 3e f9 17 29 bd f5 0c 86 be
       0.05908599 0.1727843 -0.041282628 -0.2618176
0002a0 a0 6e 51 3e a1 35 57 bd ea 26 7d b8 82 41 28 3e
       0.20452356 -0.05254138 -6.0356142e-05 0.16431239
0002b0 26 5e 0c be 02 0d 44 3d 6e 20 a0 3c b6 95 5d bd
       -0.1370779 0.047863968 0.019546714 -0.054097854
0002c0 73 17 15 be 78 8e 84 bd 93 87 ef 3c a0 18 b4 bd
       -0.14559726 -0.06472486 0.029239452 -0.08793759
0002d0 16 86 5d 3d 56 f3 c3 bd 34 65 c1 bd cb e4 b5 bd
       0.054082952 -0.09567897 -0.09443131 -0.088815294
0002e0 0c a9 25 3e 76 26 20 3e de 4c cb 3c ff 00 0e bd
       0.16177768 0.15639672 0.024816927 -0.03466892
0002f0 85 e8 a5 bd f6 65 8f bb 72 58 a1 bd 30 31 11 be
       -0.0810099 -0.0043761684 -0.07878198 -0.1417892
000300 7e 92 92 bd 9b 72 73 3d bb 9f b1 3d a4 84 d2 bc
       -0.071568474 0.05943547 0.08673044 -0.025698014
000310 47 7b c7 bd 3c b6 49 be e7 b2 96 be f1 3f b9 bb
       -0.0974031 -0.19698423 -0.29433367 -0.0056533744
000320 26 fb 33 be 25 cd 21 bc 5e 36 55 3d 20 ac 19 3d
       -0.17576274 -0.00987557 0.0520538 0.037517667
000330 30 5e e5 bd df cd 18 be 0e de 2c be 7c 1a c3 3c
       -0.111996055 -0.14922284 -0.16881582 0.02381634
000340 5f e9 00 3d ca c1 91 bc 9f 6e 11 3e 1a cb 1e be
       0.03147256 -0.017792601 0.14202355 -0.15507165
000350 45 f5 76 bd ef 1d 34 bd 3b d6 81 bb 65 db da 3d
       -0.0602925 -0.04397386 -0.003962306 0.106863774
000360 25 dc 81 bd 64 b5 28 be 0f 30 9f be 80 7a f9 bd
       -0.06340817 -0.16475445 -0.31091353 -0.12181568
000370 70 ae 2b 3d d9 04 44 3e e6 5a ab bc 49 fa 48 3e
       0.041914403 0.19142474 -0.020917367 0.19626726
000380 c1 df 9a 3d 6f c6 df 3d fc c5 e5 bd 29 e2 d5 3c
       0.07562209 0.1092652 -0.11219403 0.026108818
000390 fc 5f 79 bc 6e 6d de bd ae a7 6e 3d 2a c6 ea bc
       -0.015220638 -0.10860716 0.05826538 -0.028658945
0003a0 70 f5 81 3d 76 b7 c5 bd 25 c2 3a be 23 63 d1 ba
       0.063456416 -0.09654133 -0.18238123 -0.001597498
0003b0 a4 5f cf 3c 9b 0a f8 3d 57 32 1c bd 58 52 2f 3d
       0.02531416 0.12111398 -0.038133945 0.04280314
0003c0 60 96 1e 3d 91 c0 02 bd 14 07 2c 3e 9a b1 81 3d
       0.038717628 -0.031921927 0.16799575 0.06332703
0003d0 f2 33 8f 3d 01 98 af bd 25 b6 a5 3d 78 d4 9f 3d
       0.0699233 -0.08573914 0.08091382 0.07804197
0003e0 a6 f1 0e be 5a fd 90 bd 74 ff 7f 3d c9 fc bc bb
       -0.13959369 -0.07079573 0.06249948 -0.005767439
0003f0 a8 19 7d bd 26 c3 03 be a9 99 64 be 9c c5 cc bb
       -0.061792046 -0.12867412 -0.22324242 -0.006249143

policy_layer.bias f4 [7]
000000 8a 26 43 3d 96 6f 8b 3d 0a 1c 06 bd cb 42 92 3e
       0.047644176 0.06808393 -0.032741584 0.28566584
000010 38 1d 37 bd 6d f6 00 be 97 d8 52 3d
       -0.0447056 -0.12594004 0.051476087

value_layer.weight f4 [1, 64]
000000 28 5f 03 bc a9 98 7b 3b 63 9d a0 bb 9f 51 87 bd
       -0.0080182925 0.0038390553 -0.0049015745 -0.06607365
000010 17 f7 29 3d 91 93 8d bd 8f 7c 6d 3d e8 46 52 bd
       0.04149541 -0.06912912 0.057980116 -0.051337153
000020 9f 9e d9 bd 57 05 f4 bc 54 b3 b6 3d e8 4a 28 bd
       -0.10625958 -0.029787702 0.08920923 -0.04108706
000030 77 17 d5 bd eb 9e a1 3d 96 02 9a 3c 2b 34 ba bc
       -0.10404866 0.07891639 0.018800061 -0.022729954
000040 85 4a db bd cb bb 85 bc 25 0f 92 bc 18 9e b2 bc
       -0.10707573 -0.016324898 -0.017829487 -0.0218039
000050 51 de a9 3d 0f 3c a0 3d 86 46 1b 3d 8c f7 e2 bc
       0.082943566 0.07823955 0.037909053 -0.02770593
000060 21 70 8a bc 86 d3 dc bc 4c c4 e2 bc 40 a4 19 3d
       -0.01689917 -0.026956331 -0.027681492 0.037510157
000070 c1 90 41 3b 43 50 69 bc 29 e2 5e bd f5 f1 ec 3c
       0.0029535743 -0.014240327 -0.054414902 0.028923968
000080 c7 c4 19 bd da 24 4e 3c cf d3 03 3d 7a 29 04 3d
       -0.037541177 0.012582028 0.03218442 0.032266118
000090 66 4f 01 3d e3 73 13 be 91 e0 16 3b 43 3f a2 bd
       0.03156986 -0.14399676 0.0023022036 -0.079222225
0000a0 2c 0d 09 3d 59 0c 13 3d e7 09 c0 bd e0 17 00 3e
       0.033459827 0.035900448 -0.09376889 0.12509108
0000b0 c3 cf 5f 3b a3 a7 ab 3b b1 9b 8f bd e4 38 91 bb
       0.0034150935 0.0052384897 -0.07012118 -0.0044318307
0000c0 17 a4 e8 3d 8d 2d c8 3c 19 f5 1f bd 1d f0 8b bc
       0.11359423 0.024435783 -0.039052103 -0.017082268
0000d0 ac b2 99 3d a0 b6 1a bd 13 58 04 bd a0 2d 1c bb
       0.07504782 -0.03777182 -0.032310557 -0.0023830906
0000e0 61 18 2c bd fd f4 5c bd 20 af 5b bd 10 04 09 bd
       -0.042015437 -0.053944577 -0.05363381 -0.03345114
0000f0 5f fe 75 3b eb 5d 7d bd 1e 29 04 bd 7c a3 b1 bc
       0.003753565 -0.061857145 -0.032265775 -0.0216844

log_std_parameter f4 [7]
000000 4a 26 1d c0 47 85 1d c0 51 7a 26 c0 04 22 23 c0
       -2.455462 -2.4612596 -2.6012156 -2.5489511
000010 d6 70 20 c0 73 fe 26 c0 34 39 15 c0
       -2.506887 -2.6092803 -2.3316164

net_container.0.weight f4 [64, 32]
000000 a6 79 ce be 0c 40 1c 3e bc 7e c0 be 81 6f 0a be
       -0.40327185 0.15258807 -0.3759669 -0.13519098
000010 7c 70 61 3d 18 21 75 bd c9 d0 8d 3e 82 f6 a5 bc
       0.055038914 -0.059846014 0.27698353 -0.020259146
000020 ea 59 17 3d 28 db 20 be 29 c8 1f 3e 1b 03 83 be
       0.036950983 -0.15708601 0.15603699 -0.25588307
000030 b5 00 9b 3c 86 3f 2b 3d 38 eb 53 bc a4 8b 2d be
       0.018921236 0.041808628 -0.0129344985 -0.169478
000040 b4 dd 09 3e 90 44 19 bd 8c 39 a9 3e 9c d4 20 3e
       0.1346348 -0.037418902 0.33051717 0.15706104
000050 4c 14 aa 3d 78 a3 b4 3e 5f 23 72 be 6d 5f 83 be
       0.083046526 0.35280967 -0.23646306 -0.25658742
000060 79 44 2e be 53 c7 2c bd d9 b7 a7 3d a4 71 00 3d
       -0.17018308 -0.042182278 0.08189363 0.031358376
000070 e8 c2 82 3d ec e9 d7 bd 24 3f 89 bd e7 eb 22 be
       0.06384832 -0.10542664 -0.06701496 -0.15910302
000080 11 83 b6 bd c4 73 7a be df 65 7b be 8c 2b 7b be
       -0.08911718 -0.24458224 -0.2455058 -0.2452833
000090 e0 81 28 bd e8 1a 01 bd 31 87 15 be ab df 93 3b
       -0.041139483 -0.0315198 -0.14602353 0.0045127473
0000a0 e7 18 09 3c 82 82 5c bc 0d 0f fc bd 43 85 b9 3b
       0.008367754 -0.01345885 -0.12307558 0.005661638
0000b0 f0 7d 4f 3d 10 1c d3 3d 13 ca ba bd fb 95 04 be
       0.050657213 0.10308087 -0.09120574 -0.12947838
0000c0 1d 13 6b bd 52 d3 b8 bd 50 52 08 be 3a f7 8b 3d
       -0.057391275 -0.09024681 -0.1331265 0.06834264
0000d0 53 12 b9 be 5b 16 cc be 4e f0 0e bf 07 20 b2 3e
       -0.36146793 -0.39860806 -0.55835426 0.3479006
0000e0 f1 61 25 bf 26 ee 86 3e 15 e8 5b bd 38 b8 20 bd
       -0.6460257 0.26353568 -0.053688128 -0.039238185
0000f0 45 40 c5 bd 42 6c b3 bd 86 b3 96 3d ee 6b 04 bd
       -0.09631399 -0.08760883 0.0735846 -0.032329492
000100 cd 4a 5a be 4d 26 08 be 0c e4 83 be 06 8c 74 3e
       -0.21317597 -0.1329586 -0.25759923 0.2388154
000110 ca d8 15 bd 9c 2e e6 3d cd 4b 28 3e 1f d6 00 3e
       -0.0365837 0.11239359 0.16435166 0.1258168
000120 e5 e2 b5 bb e8 93 bb bd 23 86 4a be b5 1f f7 3d
       -0.0055507296 -0.0915907 -0.19777732 0.120665945
000130 5d 74 0d 3e f2 cb 16 bd 7a c4 4e bd f3 c1 ef bb
       0.1381392 -0.03681559 -0.050480343 -0.0073168217
000140 35 c8 c5 3d dd 85 a0 bc 85 4a 93 3e 86 a0 e9 3e
       0.09657327 -0.019595081 0.2876779 0.45630282
000150 a9 79 0d bf 8b c8 87 be 55 31 3f bc f5 7b 06 3e
       -0.55263764 -0.2652019 -0.0116694765 0.13133223
000160 2e f6 ad bd e2 6e a2 bc 51 2a 5f bd 30 e4 12 3d
       -0.08494221 -0.019828264 -0.054483715 0.035862148
000170 e1 1e 6d bd a3 a4 d6 3d 02 90 ba bd d1 fa b0 3c
       -0.057890777 0.10480621 -0.091094986 0.021603974
000180 b3 ec d2 3d 85 cb 27 be eb db cb bd 54 6f 72 be
       0.10299053 -0.1638623 -0.099540554 -0.23675281
000190 a6 77 11 3e ea 71 31 3e f4 97 d9 bd b7 0d 83 3c
       0.14205799 0.17328611 -0.10624686 0.01599775
0001a0 3b c3 c2 3c e6 76 7f 3b a8 c3 9f 3d a2 95 5b 3c
       0.023774734 0.003898078 0.0780099 0.013402374
0001b0 66 80 78 bd 38 fa a8 bd 43 87 e5 bc da a8 97 3d
       -0.060669325 -0.082508504 -0.0280186 0.07405253
0001c0 05 47 92 3d d7 c3 ee bc 4d f5 ef be 2d d6 42 be
       0.07142452 -0.029146118 -0.46866837 -0.19027014
0001d0 6c f2 22 3f f0 fd ca be 77 91 96 3e d2 35 99 3e
       0.63651156 -0.39646864 0.29407856 0.29923874
0001e0 14 6b a1 3e c3 84 e6 bd 9f ce 3f be 3e 42 16 be
       0.31527007 -0.11255791 -0.18731163 -0.14673707
0001f0 e1 77 a4 b8 28 8e 1c 3e b0 85 96 bc d4 de cc bc
       -7.8424586e-05 0.15288603 -0.018374294 -0.025008596
000200 65 7b 03 be eb d9 4b be 31 56 90 bc a3 0d 12 be
       -0.1284004 -0.19907348 -0.017619224 -0.14263014
000210 49 3f 09 be 56 5a 3e 3c 02 9b 35 bd cc 3e 42 bd
       -0.13403048 0.011618217 -0.04433728 -0.04742317
000220 96 55 57 3d b8 e1 77 bd 28 46 6f bc b6 92 24 3c
       0.052571855 -0.060517997 -0.014604129 0.010044744
000230 2c ca 4a be 09 1b ab 3c 0f d8 49 b9 b8 d5 84 3c
       -0.19803685 0.020886915 -0.00019249342 0.01621519
000240 0d f8 8a bd 76 25 0b be 3f 8f c3 3e 74 69 e1 bd
       -0.06785593 -0.13588509 0.38195226 -0.11006442
000250 14 ae 10 3f 63 f9 d3 be fc 93 d8 be 25 d7 09 3f
       0.5651562 -0.41401204 -0.42300403 0.5384391
000260 65 eb 02 bf fa eb be 3c a0 45 01 3d 5a bb e9 3a
       -0.51140434 0.023305882 0.03156054 0.0017832324
000270 f3 64 2a 3e 55 d5 cc 3c f9 e7 09 bd 58 85 57 be
       0.16640072 0.025004068 -0.033668492 -0.2104696
000280 d6 20 44 be fd ad c9 be 51 dc 93 3d a1 40 5c 3b
       -0.19153151 -0.39390555 0.072197564 0.0033607858
000290 db 9f da 3d dc 86 80 be a2 55 44 be e0 17 65 3d
       0.10675021 -0.2510289 -0.19173291 0.055930972
0002a0 e5 4c f3 bc 8c f2 4a bb d5 27 22 be 46 0e 83 3d
       -0.029699752 -0.0030967323 -0.15835507 0.06399207
0002b0 68 70 b0 3d 30 b6 97 3d de 08 67 bc ce ed b8 bd
       0.0861519 0.074077964 -0.014101235 -0.09029733
0002c0 ab 3c 2e 3d 42 85 58 3d 9b 67 86 3e 11 25 70 3d
       0.042538326 0.05286146 0.2625092 0.0586291
0002d0 12 f0 7f bd 12 34 09 3e e4 43 09 3d dd 3f 39 3c
       -0.06248481 0.1339877 0.03351201 0.01130673
0002e0 42 9a e6 3c c4 59 09 3d e3 13 cb 3b c8 48 41 3d
       0.028149728 0.033532873 0.006197439 0.04718855
0002f0 b4 d6 de bd 9e d6 a6 bd 4c 17 07 be 61 7f b5 3d
       -0.10880795 -0.08146404 -0.13192481 0.08862186
000300 9a 57 66 bb b9 15 6f be 96 ea 6e 3d 99 f1 88 3d
       -0.003514743 -0.2334813 0.058329187 0.06686706
000310 9a 48 36 bb 24 d3 9c 3e c4 7d 87 be af ae c5 bd
       -0.002781427 0.30629838 -0.2646314 -0.09652459
000320 e2 86 24 3d f4 59 14 be 6a aa 09 3e e4 7d 06 be
       0.040167697 -0.1448744 0.13443914 -0.13133961
000330 a4 cd 13 be 3b 90 db 3d 78 22 ba 3d 02 0e 28 3e
       -0.14433914 0.10720869 0.09088606 0.16411594
000340 55 41 de bd 75 fa 51 bd 8e 8f 8d bc 04 0b 1d 3e
       -0.10852305 -0.051264245 -0.017280366 0.15336233
000350 7a 28 22 bf d8 13 98 be bd 55 1a bf c9 ec a9 3e
       -0.6334301 -0.2970264 -0.60287076 0.33188465
000360 08 ef d3 be 59 af ce bd 3a 46 61 3c d1 f3 33 bc
       -0.41393304 -0.10092039 0.0137496535 -0.010983423
000370 bb 07 e7 3c 1b b9 a6 3d 0f fc ed bd a1 61 16 3d
       0.028201928 0.08140775 -0.11620342 0.0367142
000380 11 44 9e be 16 7d b1 be f6 b7 08 bf a1 1b 28 3c
       -0.30911306 -0.34665745 -0.534057 0.0102604935
000390 aa c3 3f 3e 5c 46 18 3e 79 6c ae 3e 2f 5b b6 3b
       0.18726984 0.1487059 0.34067133 0.005565069
0003a0 2e 43 18 bd 61 5c 20 be cc a7 8c be 17 b2 22 be
       -0.037173443 -0.1566024 -0.2747177 -0.15888248
0003b0 18 e8 ca bd 10 a6 26 bd 03 9f ab 3c 26 33 4d bc
       -0.099075496 -0.040685713 0.020949846 -0.012524402
0003c0 84 35 a2 bd 66 24 27 3e 4c 5a 9f 3e cc 96 04 3e
       -0.079203635 0.16322479 0.3112358 0.1294815
0003d0 a4 f8 9d 3d f8 e3 2a bd cd aa 6c bf 68 03 31 be
       0.0771344 -0.041721314 -0.9244812 -0.17286456
0003e0 11 b8 69 bf 9a 36 ba 3d 9d 34 12 3e 6a eb f8 3c
       -0.9129649 0.09092446 0.14277883 0.030385692
0003f0 f7 d7 bd bd 15 de e3 3d f8 40 a6 bd 31 d9 a3 3e
       -0.09269708 0.11126343 -0.081178606 0.3200164

net_container.0.bias f4 [64]
000000 52 c0 11 3e 9d 59 56 3e 16 29 73 3e 73 f6 82 3e
       0.1423352 0.20932622 0.23746142 0.2557865
000010 02 bc 2e bb 1a 1a ed 3d f6 a2 63 3e 67 20 28 be
       -0.0026662354 0.11577244 0.22230133 -0.1641861
000020 a7 91 27 3e 31 2e a7 be f8 7f 91 bd 33 dc 5b 3e
       0.16364156 -0.3265243 -0.07104486 0.21470718
000030 de 9d 7f be 2a 75 9f be 2d 35 35 3e 9e 80 91 bd
       -0.24962565 -0.31144077 0.17696066 -0.0710461
000040 2e c4 18 be 62 d7 92 be c1 ae 9c 3d 41 56 55 be
       -0.14918587 -0.2867995 0.07650519 -0.20833685
000050 ea 11 b1 be 84 0d 2a be eb 88 15 3d 4c c6 ac 3d
       -0.3458398 -0.16606718 0.03650753 0.084362596
000060 5f 95 13 3e c5 a1 fc be 28 79 31 3e 92 e6 c7 3e
       0.1441245 -0.4934217 0.17331374 0.390431
000070 2c 17 28 be 73 08 17 bd 14 7c 5d 3c b8 8d 6c be
       -0.1641509 -0.036873292 0.013518352 -0.23100936
000080 aa 0e 7d be a3 8b 49 be 89 97 5d be 3f 01 6e be
       -0.24712625 -0.19682173 -0.21639837 -0.23242663
000090 a2 1a e8 bd d7 17 b6 be e7 75 07 3d 25 36 a9 3e
       -0.11333205 -0.35565063 0.033071425 0.33049121
0000a0 b6 fa 84 3e 9c 50 a6 3e 47 7a de be e7 62 8f be
       0.25972527 0.32483375 -0.43452665 -0.28005144
0000b0 c7 99 48 be 8a 0f a0 be ac e3 e7 3d 16 8f 20 be
       -0.19589911 -0.31261855 0.11322722 -0.15679583
0000c0 ea 5e dd be 53 27 b4 bc 76 11 f2 bd 24 ad b9 3d
       -0.43236476 -0.021991407 -0.11819737 0.09066227
0000d0 64 ad 7a be 78 c4 01 be 9e 41 91 be d7 4c a0 bd
       -0.24480206 -0.12672603 -0.28370374 -0.07827156
0000e0 a1 12 bb bc 88 a1 8b be 63 c4 cb be 67 15 9e be
       -0.022836031 -0.27271676 -0.3979827 -0.30875704
0000f0 1f 25 85 3a 7d 62 b7 be 3c 6e 32 3c 2b 43 7e be
       0.0010158158 -0.35817328 0.01089054 -0.2483031

net_container.2.weight f4 [64, 64]
000000 7a 4e 07 3e c7 70 45 be ae a4 7d bc 95 94 80 bd
       0.1321353 -0.19281302 -0.015481157 -0.0627834
000010 a6 c1 3c be f4 72 41 bd 61 f4 e6 bc 95 da 35 3e
       -0.18433246 -0.04722877 -0.0281927 0.17759164
000020 40 3c 36 bd 97 18 88 3e a6 26 d3 3d a8 46 60 3e
       -0.044491053 0.2658126 0.10310106 0.21901953
000030 3e 74 ab 3d 46 04 d5 bc ed af 4e 3e 47 db 7f be
       0.08371781 -0.026003014 0.20184298 -0.24985991
000040 d5 05 61 bc ed a1 c3 bd 6c 23 61 bd 46 08 07 bd
       -0.013734301 -0.09552369 -0.05496542 -0.032966875
000050 b2 b9 03 bd 6e a9 9b b8 f3 ff 0d be 7e 4a 69 be
       -0.032159515 -7.422535e-05 -0.13867168 -0.22782323
000060 f5 4b 94 3e c0 d3 b8 3d 88 8a 9e be dc 2b 1f be
       0.289642 0.09024763 -0.30965066 -0.15544075
000070 bb aa 01 bd 18 53 5d be 7f 59 e9 bd c0 35 fe be
       -0.031656962 -0.21613729 -0.11394023 -0.49650383
000080 93 0d 45 be 73 2a c7 3e b5 6b 24 3d 7f 98 ec 3d
       -0.1924346 0.38899574 0.04014178 0.11552524
000090 60 7b d7 3d 8c 7f 91 be dd d1 2b 3d f6 21 34 bc
       0.10521579 -0.28417623 0.041948188 -0.010994425
0000a0 64 ed 8a bd 54 48 56 3d f5 32 72 3e c5 25 44 3e
       -0.0678356 0.05231507 0.23652251 0.19155033
0000b0 7e 9e 0c bd 5b a8 07 3e 01 31 7b be 5a 6b 90 3e
       -0.034330837 0.13247816 -0.24530412 0.28206903
0000c0 79 52 f8 bd 2b 12 7a bd eb 08 a8 3d 1b b0 57 bd
       -0.121251054 -0.061052483 0.08204826 -0.05265818
0000d0 92 32 88 3c d6 b1 21 be b2 93 a7 bc 1a d6 01 3d
       0.016625676 -0.15790495 -0.020456169 0.031698324
0000e0 de 2a 0b be f9 06 8c 3d cf 58 f6 3c b3 42 09 3e
       -0.13590571 0.068372674 0.030071644 0.1340435
0000f0 60 c6 9d be fb b4 7a bc 33 61 52 be fb 2d 95 3d
       -0.3081541 -0.015301938 -0.20544891 0.07284161
000100 b7 ca 64 bd f8 20 c7 3d 34 a1 bb 3c f2 7d f6 3d
       -0.055857386 0.09723085 0.022904016 0.12035741
000110 90 92 09 3e da a3 78 bd 47 05 82 3d 69 2b a5 be
       0.13434815 -0.060703136 0.06348663 -0.32259682
000120 9b 0a fa 3d 1e 1e a9 3c 83 e3 f0 be 00 ce b8 3d
       0.12209054 0.020644244 -0.47048578 0.090236664
000130 51 44 76 3d 7b e3 fd bd 59 c0 33 3d 69 a3 f0 3b
       0.060123745 -0.12396904 0.04388461 0.0073436988
000140 7b 6f 33 be 88 0b 32 3d 9e c0 c8 bc 02 27 04 be
       -0.17522995 0.04346803 -0.02450591 -0.12905505
000150 2a e4 21 be 6d 36 6c 3e 41 c2 c7 bc fa 37 83 bd
       -0.15809694 0.23067637 -0.02438462 -0.06407161
000160 d6 15 c3 3d b7 a2 91 3e c7 44 d0 3c 1f 6b 4e 3c
       0.09525649 0.28444454 0.02542342 0.012598782
000170 66 aa 3d 3d f1 aa 0a 3e 5c af b9 be 27 4c 3b be
       0.046305083 0.13541771 -0.362666 -0.18290769
000180 a6 90 8b 3e ee 2a f0 bd d2 a9 7d be 9d 3b 78 bb
       0.27258795 -0.11726938 -0.24771813 -0.003787733
000190 7e 2d 93 be 8e be ec 3c 6e 74 0f bd 0d 1e 0f 3e
       -0.28745645 0.028899457 -0.035023145 0.13976307
0001a0 6b 68 1d 3e 89 36 e0 3d 0c 07 9b bc 15 f5 03 bd
       0.15371864 0.10947902 -0.018924259 -0.03221615
0001b0 ba 39 74 3d 87 7f 2b be 6b 11 11 be ee a6 31 bd
       0.059625365 -0.16747867 -0.141668 -0.043372087
0001c0 ee 89 6c bd 56 fb e2 bd 25 5b 91 bc 87 b9 37 be
       -0.057748728 -0.11083095 -0.017743656 -0.17941867
0001d0 b1 6c 27 be f0 89 82 be 1b 3d 13 3d 85 b5 0d bd
       -0.16350056 -0.25495863 0.035946947 -0.03459694
0001e0 02 e6 c4 3d b1 3a b1 3d 91 d6 54 be f1 0a 40 be
       0.09614183 0.086537726 -0.20784976 -0.18754174
0001f0 ee e0 cf bc 80 fe 8c be dc 24 11 bd d2 8d a5 bd
       -0.02537581 -0.27537918 -0.035435542 -0.08083691
000200 c7 5f 43 bd 6a 70 00 be 09 51 54 be de fc 69 3e
       -0.047698762 -0.12542883 -0.20734037 0.22850367
000210 29 c1 1f be df f0 1f 3d 85 eb 97 be 44 a8 03 be
       -0.15601029 0.039048072 -0.29671875 -0.12857157
000220 e6 2a 83 be c6 6b c3 3d 66 10 1b bc 6f ef f6 bd
       -0.25618666 0.095420405 -0.009464359 -0.12057387
000230 3d fb fa bd 91 6e 3c 3e 08 66 89 bd 08 f0 e2 bd
       -0.12254951 0.18401553 -0.06708914 -0.110809386
000240 2d b8 aa be 6c de e4 bd a3 fe 4f 3d 5d 3f 04 be
       -0.3334364 -0.11175236 0.05077995 -0.12914796
000250 ca c3 d5 3d db 76 56 3d 65 02 19 be 24 73 f8 3d
       0.104377344 0.052359443 -0.1494232 0.12131336
000260 18 90 f3 bc d5 c9 0f 3d df 2f 8e bb a8 a0 ed 3b
       -0.029731795 0.03510459 -0.004339203 0.0072518177
000270 64 b1 1a bd e5 04 a9 bd 9a 31 09 3e 43 69 a1 bd
       -0.03776683 -0.08252887 0.13397828 -0.07881405
000280 44 4d 9d bd 07 d8 59 be 47 7b 12 be 34 26 91 3c
       -0.07680753 -0.21273814 -0.14304839 0.017718412
000290 c5 e1 d9 3d ce 84 1e be 5f b0 c4 bd 57 18 da 3d
       0.10638765 -0.15480348 -0.096039526 0.10649174
0002a0 e5 c2 3b be 22 b8 91 3d 37 a6 a7 be 7b 17 05 3d
       -0.18336065 0.07115199 -0.32744 0.032493096
0002b0 f2 d0 8f bd 3d 98 51 3e 7d 2f c0 3d 58 36 34 3c
       -0.07022275 0.2046823 0.09384058 0.010999285
0002c0 87 7d f1 bc 15 ee 4f 3d 2a 0b 9e bd d0 a5 8a be
       -0.029478801 0.050764162 -0.07716973 -0.2707963
0002d0 ff 5b 04 be f0 63 43 bd 54 99 ac bd f6 55 cd bd
       -0.12925719 -0.04770273 -0.084276825 -0.100261614
0002e0 16 16 f1 bd ca 3c a9 3d aa e5 14 3d 63 48 ef 3d
       -0.11771791 0.08263548 0.036351837 0.116837285
0002f0 e7 74 a7 bd 03 a1 bf 3d 16 78 3a 3e b6 26 7c 3c
       -0.08176594 0.093568824 0.18209872 0.015390089
000300 8f e1 9b be 2b 47 19 3e d7 e2 74 be 59 c1 7b 3d
       -0.30445525 0.14968555 -0.23914658 0.061463688
000310 30 0d b3 bc 18 56 72 3d dc 0c cd 3d df 88 9b be
       -0.021856874 0.059164137 0.10012218 -0.30377862
000320 18 25 18 be 14 4e 9b be 7f 7c 5c bd 4f d5 1d 3e
       -0.148579 -0.30333006 -0.053829666 0.15413402
000330 64 d2 8e 3c 73 de 9f 3c a7 4a cb bd 57 f7 10 bb
       0.017434306 0.019515252 -0.09926348 -0.0022120082
000340 5b a2 c0 be e7 40 a0 be 3d 25 84 3d cb a6 0a 3c
       -0.37623867 -0.31299517 0.06452415 0.008462618
000350 83 29 69 3d 94 a4 b6 be 7c 23 3c be f8 57 3d bc
       0.056924354 -0.35672438 -0.18372911 -0.011556618
000360 1f c9 06 bd bd ef 38 be 8c 1d 72 bd 23 74 a0 3c
       -0.032906648 -0.18060203 -0.05911021 0.019586628
000370 8a 51 c2 bc e4 6c 72 3d 4c 64 86 bd e5 f1 10 be
       -0.023720521 0.059185877 -0.06562099 -0.14154775
000380 91 c6 42 3c 37 8b 5f be 7c c4 63 3d c9 3b 80 be
       0.011888162 -0.2183045 0.055607304 -0.25045612
000390 03 b7 15 3e 55 20 cd 3c d4 8b b7 3c 0f 0e e0 3c
       0.14620595 0.025039831 0.022405542 0.027350454
0003a0 81 4e 2e be 68 62 8d bd 66 7e 66 be e3 e5 1d bd
       -0.17022134 -0.06903535 -0.22509155 -0.038549315
0003b0 46 3e 06 be ed fe 40 bc 4f 72 6c 3d b6 31 ec bd
       -0.13109693 -0.011779529 0.0577262 -0.11532919
0003c0 bb d5 93 bd 9c 4e 7e bd ff b9 87 3e e3 29 ab be
       -0.072185 -0.062086686 0.2650909 -0.33430395
0003d0 0e d9 31 3d fd 9d 91 be ec 0a 19 be da 69 b0 be
       0.04341989 -0.28440848 -0.14945573 -0.34455758
0003e0 cc 31 bb bc 29 ce a5 bd 1c 23 88 3b 60 a6 86 be
       -0.022850893 -0.080959626 0.004154576 -0.2629881
0003f0 d7 29 37 3b 73 3b bc 3c d8 45 c9 3c 22 84 47 bd
       0.0027948522 0.022977566 0.024569437 -0.048709996

net_container.2.bias f4 [64]
000000 a8 3f bb be 3e d1 44 be 47 9b 5c be 1e 83 26 be
       -0.36572003 -0.19220445 -0.21543609 -0.16260955
000010 79 26 62 be b4 30 06 be a9 1a 78 be 51 e2 ed 3c
       -0.22084989 -0.13104516 -0.2422892 0.02903858
000020 6c 00 aa be 94 9e 08 3e a9 62 d6 bd 81 58 81 3d
       -0.33203447 0.13341743 -0.10468037 0.06315709
000030 ee 36 bd be ef 29 cd bd f2 73 b8 be d7 33 7f 3e
       -0.3695597 -0.10017764 -0.3602596 0.24922119
000040 84 a9 d4 3d f1 5a 8e be 1c ee d6 3c c2 23 59 be
       0.10383895 -0.27803758 0.026236586 -0.21205047
000050 8a f7 8c be f1 7c 7e be 9f 68 7e bd 9e 4e 32 3e
       -0.27532607 -0.24852349 -0.062111493 0.17412803
000060 bc 43 a2 3d 80 dc b8 3d 32 54 1c be 6c 35 35 bd
       0.079230756 0.09026432 -0.15266493 -0.0442404
000070 04 ff 2c 3d 05 6e d8 3c 85 88 9b bd 1a 17 6c be
       0.04223539 0.026419649 -0.075943984 -0.23055688
000080 74 9a 12 3e f7 91 2c 3e d2 b4 b5 3d 2a b6 e3 3d
       0.14316732 0.16852556 0.08872379 0.111187294
000090 cd 7e ef be 39 1b 9f be e0 f8 d0 bd 9e 96 eb bd
       -0.4677643 -0.31075457 -0.10203719 -0.11503337
0000a0 ec 79 6e 3d 2c 3e d5 bd 47 75 85 be 66 94 44 3e
       0.058221743 -0.10412249 -0.26066038 0.19197235
0000b0 a2 f3 c6 be 98 e7 f4 bb bd 66 44 be f7 75 87 3e
       -0.38857752 -0.007473897 -0.19179817 0.26457188
0000c0 fa 7b 65 be 2e 54 48 3e f8 bd e6 3c 62 76 20 bd
       -0.22410575 0.19563362 0.028166756 -0.0391754
0000d0 e6 29 82 3e bd 01 99 be 4d b1 5c be bd e7 0b 3e
       0.2542259 -0.2988414 -0.2155201 0.1366262
0000e0 c9 c6 d1 be 6d 51 6c bd 10 46 b1 bd 26 90 00 bc
       -0.40971974 -0.05769484 -0.086559415 -0.007846868
0000f0 03 ca 17 be 8b bb e0 be dd c3 c9 be c9 ec a8 bc
       -0.14823155 -0.43893084 -0.39407244 -0.02062072
