logs/skrl/reach_franka/2024-12-18_21-11-53_ppo_torch/checkpoints/agent_2400.pt (torch, 96162 bytes, 38 tensors)

log_std_parameter f4 [7]
000000 50 0d d3 be cf d8 25 bf 90 f5 e2 be 6b e9 26 bf
       -0.41221094 -0.6478395 -0.44327974 -0.6519992
000010 00 57 e6 be 59 fe db be 06 99 01 bf
       -0.4498825 -0.4296749 -0.5062412

net_container.0.weight f4 [64, 32]
000000 ed 0b 8d be 33 bc 13 3e 39 3a c8 be 7f 3a 08 be
       -0.2754816 0.14427261 -0.3910692 -0.13303564
000010 48 42 ca 3d e1 18 48 bd 56 d7 7b 3e 4e 34 8e bd
       0.098759234 -0.04885185 0.24593863 -0.0694357
000020 8e 55 dc bc d3 97 4c be 1e 90 3a 3e 4b 29 61 be
       -0.026896264 -0.19979791 0.18219039 -0.21988408
000030 4c 6d e7 3b b9 9f 72 3d d9 f6 8b 3d a0 62 53 be
       0.0070625897 0.059234355 0.06834192 -0.20643091
000040 7f 90 e5 3d 78 ae 16 bd 54 ff a8 3e 22 72 7f 3e
       0.11209201 -0.03678748 0.330073 0.24945882
000050 aa 0f 2c 3d 8c 33 d2 3e 1f f0 88 be c8 e1 9e be
       0.042007126 0.41054952 -0.26745698 -0.31031632
000060 ed 65 50 be b5 b3 9b bc 3a 13 cc 3d f7 10 66 bd
       -0.20351382 -0.01900659 0.09964605 -0.056168523
000070 22 e1 6a 3d fa 0d cc bd 30 71 e8 bc af 57 26 be
       0.05734361 -0.09963603 -0.028374285 -0.16244386
000080 74 33 29 bd d8 52 3b be a9 4d 53 be b9 d5 2b be
       -0.041308835 -0.18293321 -0.20635094 -0.16780747
000090 74 18 24 bc 46 c0 89 3c cb 13 fe bd 4e af 36 bd
       -0.010015596 0.016815316 -0.12406119 -0.044600777
0000a0 90 a9 74 3d 94 8e 68 bd 23 a8 df bd 11 2d 6e 3c
       0.05973202 -0.056776598 -0.109207414 0.014537112
0000b0 a6 17 00 3e a7 8e 1f 3b f3 a1 3a be 14 a9 6c be
       0.12509021 0.0024346502 -0.18225841 -0.23111373
0000c0 40 1c 59 bd d3 09 d1 bd 83 fb 97 bd fa 30 d4 3d
       -0.053005457 -0.10206952 -0.07421019 0.10360904
0000d0 aa 58 b5 be c1 28 06 bf df ec f6 be 33 d5 ed 3e
       -0.35419208 -0.52405936 -0.48227593 0.4645172
0000e0 6a 4f 10 bf 77 98 6c 3e 32 f6 a8 3c 98 4b 74 bd
       -0.56371176 0.23105036 0.020625208 -0.059642404
0000f0 70 fd 87 bd 92 0a b5 bd 91 20 47 3d 0c 80 a7 bc
       -0.06640136 -0.08839907 0.048615042 -0.0204468
000100 6b 5a 34 be 5e 64 4d be b6 79 7c be e1 dc 29 3e
       -0.17612617 -0.20057818 -0.24655804 0.16588165
000110 4f 75 9e bc f2 e1 ed 3d e3 14 17 3e f1 33 17 3e
       -0.019343046 0.11615361 0.14754061 0.14765908
000120 56 9d 31 39 a5 13 a5 bc d1 d1 3f be 75 c5 04 3e
       0.00016938648 -0.020150969 -0.18732382 0.12965949
000130 81 79 5a 3e f6 c6 f5 bd 02 a2 fc bc 3b 0e 54 bd
       0.21335413 -0.120008394 -0.03083897 -0.051771384
000140 5f e7 fd 3d 91 1f c2 bc 0c 2b 80 3e 8d fe e5 3e
       0.12397646 -0.023696693 0.25032842 0.4492077
000150 07 c2 e9 be 93 8b a5 be 45 c9 8d bc 81 6a 3e 3e
       -0.45655844 -0.3233305 -0.017307887 0.18595316
000160 e3 1a bb bd a2 17 57 bb 6a de fe bd ae bc c0 3c
       -0.091359876 -0.0032820483 -0.12444766 0.02352747
000170 98 bb b3 bd 51 1d e7 3d db 42 08 bd 92 56 ee 3b
       -0.08776015 0.112848885 -0.033266883 0.0072735036
000180 0f f9 97 3d 32 92 66 bc e1 b1 a9 bd 23 f1 b3 bd
       0.07420551 -0.014072942 -0.08285881 -0.087862276
000190 e3 0a 0e 3e ad 2c 15 3e 53 d3 cc bd dc 8d 33 bc
       0.1387134 0.14567824 -0.100012444 -0.010959115
0001a0 00 4b 07 3d fe c3 b9 39 56 60 02 3e c1 eb 9c bc
       0.03303051 0.00035431975 0.12732062 -0.019155385
0001b0 e0 46 12 bd ce a1 03 be 49 49 13 3d d6 59 98 3d
       -0.035712123 -0.12854692 0.035958562 0.0743901
0001c0 4b a0 65 3d 59 79 23 bd a5 96 bd be 37 a0 31 be
       0.05606107 -0.039910648 -0.37028995 -0.17346273
0001d0 cd d8 08 3f dc f0 b7 be 41 9c aa 3e eb 38 87 3e
       0.5345581 -0.3592595 0.33322337 0.26410612
0001e0 5f d4 b6 3e 2a 90 1c be 96 10 82 bd f5 8e 0e be
       0.357089 -0.15289369 -0.0635082 -0.13921721
0001f0 d3 f9 f5 3d b6 fb 0a 3e 00 04 f6 3b d2 0c 47 bd
       0.12010541 0.13572583 0.007507801 -0.04859621
000200 14 4e 0d be ca 11 3f be b1 e1 13 3a a1 67 0f be
       -0.13799316 -0.1865913 0.00056412356 -0.14004375
000210 d4 6e 17 bd e4 c5 08 3d 26 c3 60 bd 2a 5a 4e bc
       -0.03697093 0.03339185 -0.054873608 -0.012594739
000220 e5 61 02 3d a7 38 45 bd 65 62 cd bc 49 87 10 bd
       0.03183164 -0.04814973 -0.025071332 -0.035285268
000230 c3 e6 48 be f6 0b 03 3e fb c1 50 bd 69 ca 50 3d
       -0.19619279 0.12797531 -0.050966244 0.050974283
000240 ef 45 9f bd 6a e8 2e be 43 53 a8 3e e4 88 74 be
       -0.07777011 -0.17080846 0.32876024 -0.23880345
000250 23 98 e4 3e 20 b1 11 bf c0 9f aa be c2 b8 2d 3f
       0.4464732 -0.56910896 -0.33325005 0.67860043
000260 a4 8e d3 be 7b 44 a3 3c de 18 70 3d 42 c3 82 3b
       -0.41319764 0.019930115 0.058617465 0.0039905617
000270 bc dd 19 3e 11 20 00 3e 25 c8 23 bd ef 6f 51 be
       0.15025991 0.12512232 -0.039985795 -0.20452856
000280 77 fc 18 be 62 11 94 be 14 5d 93 3d 73 56 ac 3c
       -0.14940058 -0.28919512 0.071954876 0.021037316
000290 3a c8 f5 3d 5f 56 54 be 4a 6c 1a be 61 8d f6 3d
       0.12001081 -0.20736073 -0.15080371 0.12038685
0002a0 6e aa 48 bd e4 3f b1 bd 23 ff 5b be ce 94 0f 3d
       -0.04899066 -0.08654764 -0.21484046 0.03505402
0002b0 d6 19 3c bd 6c 5a 92 bc 19 44 67 3d 1b d7 9d bd
       -0.045923077 -0.017865382 0.056461427 -0.07707044
0002c0 8d 0f cc ba a6 f4 c4 3d 0b ca 92 3e 40 9b 67 3d
       -0.0015568599 0.096169755 0.28669772 0.056544542
0002d0 1d 7c 23 be e7 11 22 3e af ce 18 3d 62 9b 40 bc
       -0.15965314 0.15827142 0.037306484 -0.011755796
0002e0 3f 6b 03 3d ea e6 b4 bb 97 35 9b 3c 9f fb da bc
       0.0320847 -0.005520691 0.018946452 -0.02673131
0002f0 df e9 06 be b3 6e b8 bd 63 9c b8 bd 4e f3 d5 3d
       -0.13175152 -0.09005489 -0.090142034 0.10446797
000300 5c 1a 74 3c ee df 95 be d4 17 a2 3d aa 45 b0 3c
       0.014898863 -0.29272407 0.07914701 0.021517593
000310 a9 27 d3 3a 3e aa 85 3e e9 48 5e be 7a 50 c2 bd
       0.0016109842 0.26106447 -0.217075 -0.09488006
000320 e7 39 07 3e 31 d9 e2 bd 05 ef cd 3d c0 64 0e be
       0.13205682 -0.11076582 0.10055355 -0.1390562
000330 7f 19 7c bd b9 2e 76 3b 2c ab 8b 3d 8e 5a 19 3e
       -0.061547752 0.003756447 0.06819758 0.1497595
000340 6e c1 fe bd 8a cb c5 bd ac b7 6a bb 76 a3 d5 3d
       -0.124392375 -0.096579626 -0.0035815043 0.10431568
000350 dd 8a 09 bf 9c be dc be ec dc 01 bf a4 d5 e8 3e
       -0.53727514 -0.43114173 -0.50727725 0.45475495
000360 32 c1 9e be f6 a6 f0 bd b3 f8 f1 bc 68 b2 02 bc
       -0.3100677 -0.11750595 -0.029537534 -0.007977106
000370 f8 7e b0 3c 58 ef bd 3d 94 2f 17 be f8 c2 91 3d
       0.021544918 0.09274167 -0.14764243 0.071172655
000380 83 bf 83 be 55 75 b2 be fa b8 04 bf 7c b6 fd 3c
       -0.2573205 -0.34855142 -0.5184475 0.030970804
000390 45 c9 93 3e 02 a7 16 3e 6d 40 9d 3e 3c 1f 99 3c
       0.28864494 0.14712146 0.30713215 0.018691652
0003a0 52 c4 8c bd f7 9e 62 be 77 27 24 be 5b a6 84 bd
       -0.06873383 -0.22130953 -0.1603068 -0.06477042
0003b0 8d 1e b6 bc a8 bc 26 bd 1e 76 6f 3d c4 f4 53 bd
       -0.022231365 -0.04070726 0.058462255 -0.0517471
0003c0 85 b7 8e bd 04 6b 1c 3e 94 a3 b0 3e 47 68 44 3e
       -0.06968597 0.15275198 0.344998 0.19180404
0003d0 1c 53 1b 3e 74 74 b9 bd e8 c0 5c bf 0f ef 01 be
       0.15168422 -0.09055415 -0.8623185 -0.1268885
0003e0 d3 52 58 bf 3b 80 c5 3d f5 35 2e 3e 2c ae e2 b8
       -0.8450138 0.09643599 0.1701277 -0.00010808962
0003f0 a6 d1 7c bd 5c e3 4b 3e d1 c2 9a bc a3 50 a9 3e
       -0.061723374 0.1991095 -0.018891724 0.33069333

net_container.0.bias f4 [64]
000000 9a 08 f3 3d 39 38 55 3e 15 1b 86 3e 6f bd 85 3e
       0.11866875 0.20822228 0.26192537 0.2612109
000010 04 fd af bb c4 9f f8 3d ee e6 7c 3e 99 99 09 be
       -0.005370738 0.12139848 0.24697468 -0.13437499
000020 e1 9d 48 3e 11 c9 ba be c1 f4 ce bc 40 41 40 3e
       0.19591476 -0.36481526 -0.025263192 0.18774891
000030 7e 19 97 be e7 8b 95 be 5d f5 04 3e 43 e6 40 3d
       -0.29511636 -0.292083 0.12984224 0.047094595
000040 7c 13 20 be 4c d4 9b be 53 2f e1 3c aa 56 39 be
       -0.15632433 -0.30435407 0.027488386 -0.18099466
000050 b2 68 87 be 8c df 18 be 0b 72 bc 3d 05 db cf 3d
       -0.26447064 -0.14929026 0.092014395 0.101491965
000060 0e 4a a7 3d 65 0e f7 be 7d 8c 4a 3e ab 1e af 3e
       0.08168422 -0.4825317 0.19780155 0.34203085
000070 df f3 07 be 68 c5 1a bd e3 36 d0 3c 45 da 57 be
       -0.13276623 -0.037785918 0.025416797 -0.21079357
000080 d7 1f 60 be 7a 2b 3f be 56 c7 46 be 09 bb 7b be
       -0.21887146 -0.18668929 -0.19411978 -0.24583067
000090 c3 f8 18 bd 6d 78 b9 be fc a5 ab 3c 29 50 88 3e
       -0.037346613 -0.3622469 0.020953171 0.26623657
0000a0 15 83 89 3e 67 5a 95 3e 4b d3 ee be f4 19 a1 be
       0.2685782 0.29170534 -0.4664558 -0.31465113
0000b0 bf dc 33 be 3e 9b 80 be 26 6f 03 3e cd 93 0c be
       -0.17564677 -0.2511844 0.12835369 -0.13728257
0000c0 26 f3 d7 be 8c 20 60 bc ae bd e9 bd 53 d7 c8 3d
       -0.42177695 -0.013679635 -0.11413132 0.09806695
0000d0 87 7e 40 be e4 17 1c be 83 6a 6d be 5e bb 1c 3d
       -0.18798266 -0.15243489 -0.23185162 0.038264625
0000e0 48 6a 6d 3d a0 9d 88 be 1a 7c bc be 78 a4 89 be
       0.057962686 -0.26682758 -0.36813432 -0.26883292
0000f0 80 ea 0f 3d b6 d4 a8 be 5c 7b 21 3d 30 f5 83 be
       0.035135746 -0.32974786 0.039424285 -0.25773

net_container.2.weight f4 [64, 64]
000000 47 36 c6 3d fb d2 30 be 65 f0 52 bd ca 73 98 bc
       0.09678321 -0.17267983 -0.05149879 -0.0186099
000010 c1 2f 36 be 0b 7e 3c bd 56 26 d5 bd 74 4e 48 3e
       -0.17791654 -0.04601864 -0.104077026 0.19561177
000020 1e 8a ca bd 55 f5 47 3e b8 4c 08 3e de d7 8a 3e
       -0.09889625 0.1952718 0.13310516 0.2711782
000030 7c 15 17 3e f7 65 a5 3b 99 26 68 3e 9e 76 43 be
       0.1475429 0.0050475555 0.22670974 -0.19088218
000040 6f 1e 42 3d 02 ec 99 bc 9f fa 56 bd fb c7 79 3d
       0.047392305 -0.018789295 -0.052485105 0.06098173
000050 88 9d ee bc ea c2 87 3d af d5 4c be 54 6c 30 be
       -0.029127851 0.06628974 -0.20003389 -0.17228824
000060 b1 76 8a 3e 62 13 03 3e b3 e4 8e be e2 4d ad bd
       0.2704368 0.12800363 -0.2790886 -0.084621206
000070 f3 54 81 bc 00 b9 77 be 01 b9 de bd 74 53 f4 be
       -0.015787577 -0.24191666 -0.108751304 -0.4771992
000080 8a 5b 4d be 8d cf 98 3e ac 7e 83 3d ad 30 0c 3e
       -0.2005445 0.2984585 0.06420645 0.13690443
000090 2c 26 e8 3d 08 d8 6a be a3 89 93 3d 21 84 3c bd
       0.11335406 -0.22933972 0.072039865 -0.046024445
0000a0 7e a8 69 bd d8 76 f4 3b 2f b7 45 3e f0 f4 23 3e
       -0.057045452 0.0074604563 0.1930816 0.16011405
0000b0 1c cd d3 3c 3a 51 0d 3e 1d 64 6c be e7 f6 7f 3e
       0.02585464 0.13800517 -0.23085065 0.2499653
0000c0 6c 30 45 bd 2e e8 0d bd 94 2c ac 3d 21 10 8e bc
       -0.04814188 -0.034645252 0.0840694 -0.017341675
0000d0 78 08 22 3d 51 fa 03 be 83 59 6e 3c a6 3d 22 3d
       0.039558858 -0.12888457 0.014547708 0.039609574
0000e0 6d 95 20 be 6e 05 15 3d 5e 2d 83 3d cd 7a ca 3d
       -0.15682001 0.03638213 0.064051375 0.09886704
0000f0 d8 c0 83 be f5 74 81 bc 2b c0 1e bd a4 88 c6 3d
       -0.25733066 -0.01580284 -0.038757484 0.09694031
000100 a7 ba e2 bd 3c 7b ba 3d ee 4e 81 3d 8c 30 a7 3d
       -0.11070757 0.09105536 0.06313883 0.081635565
000110 67 0c 43 3e bd f9 a9 bd eb 76 0e 3d ab 00 92 be
       0.190477 -0.08299587 0.034781378 -0.28516135
000120 4c 8f 2b 3e c6 7b 5e 3d 70 36 cc be 55 f3 7a 3d
       0.16753882 0.05431726 -0.39885283 0.061267216
000130 e6 39 44 3c 72 df fb bd b6 6e 69 3d b1 65 14 bd
       0.011976695 -0.12298478 0.056990348 -0.036229793
000140 12 ac b9 bd ff 80 d5 3c eb ec 6c 3d 34 96 6a bc
       -0.09066023 0.026062487 0.05784313 -0.014318038
000150 6e 7e 0a be ff de 5c 3e 6a 4b 73 bd bf c0 bd bd
       -0.13524792 0.21569441 -0.059398092 -0.09265279
000160 2a 18 08 3e b5 41 62 3e ab dc 96 3d b0 a4 20 bd
       0.13290468 0.22095378 0.07366308 -0.03921956
000170 f7 5c c7 3d 3d da 21 3e c3 40 b0 be bd 42 3d be
       0.097345285 0.15805908 -0.3442441 -0.1848249
000180 f4 bd 96 3e 87 08 48 bd a9 29 74 be 23 1a 6b 3d
       0.29441798 -0.048836257 -0.23844017 0.057397973
000190 ec 1e 84 be e8 16 89 bd ae ce d8 bb ce 57 0a 3e
       -0.25804842 -0.06693822 -0.006616435 0.13510057
0001a0 d6 eb 18 3e dc c2 41 3e bb ed c0 3c ce a6 30 3c
       0.14933714 0.18921989 0.023550859 0.010781957
0001b0 92 ef fb 3d 2d 53 0e be 76 83 1c be 3e 1e 85 bb
       0.12301554 -0.13898917 -0.15284523 -0.004062443
0001c0 53 db 14 3d c6 46 51 bd 2b ef 26 3c 0a a0 fc bd
       0.036341976 -0.051092885 0.010188858 -0.123352125
0001d0 c0 8f f5 bd e1 56 91 be 54 c3 bd 3d 02 b4 03 3d
       -0.11990309 -0.28386596 0.092657715 0.03215409
0001e0 77 8a 7c 3d aa 4e de 3d f7 e0 37 be 88 4e 7c bd
       0.061655488 0.10854848 -0.17956911 -0.06159833
0001f0 44 59 e4 bc ce 08 80 be c1 f4 42 bd a0 a0 f9 bd
       -0.027874596 -0.25006717 -0.047596697 -0.1218884
000200 8c dd 20 bd c0 f6 42 be e3 73 4d be 6f 4b 43 3e
       -0.039273784 -0.1903944 -0.20063739 0.19071744
000210 73 f0 69 be fc 51 12 bc 82 e9 8e be 0d 18 1e be
       -0.2284563 -0.008930679 -0.27912527 -0.15438862
000220 06 8e 0c be a3 57 f3 3d c5 1f fb bc 66 26 08 be
       -0.13726053 0.1188195 -0.030654797 -0.13295898
000230 68 12 4e bd f4 aa 79 3e 33 c7 ca bd 10 3c 93 bd
       -0.050310522 0.2438162 -0.099012755 -0.071891904
000240 7a 3d 9d be 5d 6e 66 bd 24 ff 9a 3d 89 e0 24 be
       -0.30710965 -0.056257594 0.075681955 -0.16101278
000250 dd c3 8c 3d c4 1f 42 3d c9 a9 3b bd ba fe 50 3d
       0.068732955 0.047393575 -0.045816217 0.051024176
000260 b4 ef 61 bd c4 d5 2a 3d 3b 07 07 3c 12 96 0e bd
       -0.05516024 0.04170777 0.00824147 -0.034811087
000270 03 86 9d bd 4a ab d3 bd e5 04 f2 3d 31 97 50 bd
       -0.07691576 -0.10335405 0.1181734 -0.050925437
000280 5f 11 e8 bd 4e a4 3b be 55 78 32 be f5 30 92 3d
       -0.11331438 -0.18324396 -0.17428716 0.07138244
000290 5b 51 c5 3d 74 d1 07 be 09 e3 f4 bd 3a 69 48 3d
       0.09634658 -0.13263494 -0.11957366 0.048928477
0002a0 85 87 76 be 93 30 f9 3c b6 a6 67 be 5e c5 8b bc
       -0.24075134 0.03041867 -0.22622189 -0.017061885
0002b0 a6 81 5e 3b 95 b6 29 3e c0 eb 8b 3d 06 b7 84 3d
       0.0033951788 0.16573556 0.06832075 0.064802215
0002c0 68 47 05 bd 63 89 1e 3d 4a b6 cd bd 0a ab a1 be
       -0.0325388 0.03870524 -0.100445345 -0.31575805
0002d0 17 8c e9 bd e6 94 36 bb 8f 2f ad bd 0d 74 cb bd
       -0.11403673 -0.0027859746 -0.08456337 -0.09934244
0002e0 31 23 d5 bd 04 9e d8 3d 35 34 83 3d 7e 53 e2 3d
       -0.10407103 0.10577014 0.06406442 0.11051081
0002f0 be 0b b9 bd 9b 19 b6 3d fd f0 10 3e 64 c4 0b 3d
       -0.09035443 0.088916026 0.1415443 0.03412284
000300 68 9a 99 be e8 2c 13 3e 4b 3f 4a be 24 ad 36 3d
       -0.30000615 0.14372599 -0.19750707 0.044598714
000310 1f 2d 41 bd db 9e 6e 3c 83 64 e5 3d cc fe 9a be
       -0.04716217 0.014564241 0.11200812 -0.3027252
000320 97 f0 bf bd e1 61 63 be 7f a0 30 bd b5 91 fd 3d
       -0.09372061 -0.22205307 -0.04312181 0.12381307
000330 9e 90 69 3d e7 75 df bb 21 30 d0 bd fb b1 b7 bd
       0.057022683 -0.006819475 -0.1016543 -0.08969494
000340 23 33 97 be 1c a2 8f be 94 72 a0 3d ba 59 86 bd
       -0.29531202 -0.28053367 0.07834354 -0.06560083
000350 46 78 a7 3d 1d 5a ae be e2 a5 fd bd cc 3f b5 3d
       0.08177237 -0.34053126 -0.12385155 0.08850059
000360 71 9b 10 bd 5e 90 23 be a7 59 32 bd 16 20 7c bc
       -0.03530449 -0.1597304 -0.04354253 -0.015388509
000370 d0 87 1e bd 63 8e 2c 3e 5d c5 44 bd a7 0d ef bd
       -0.03870374 0.16851191 -0.048039783 -0.11672526
000380 22 76 40 bd e7 ef 5b be 3f 8f 54 3d f7 a1 7e be
       -0.04698766 -0.21478234 0.051894423 -0.24866472
000390 38 dc 1b 3e 06 cc 33 bd 9b 75 2d bd 33 c5 2f bd
       0.15220726 -0.043895744 -0.042348485 -0.042912673
0003a0 61 f0 0d be 7a ec 87 bd 65 68 c3 bd e5 37 65 bd
       -0.13861229 -0.06636901 -0.09541396 -0.05596151
0003b0 d6 d9 95 bd 61 2c e3 3c ea 7a 9f 3c a5 b1 fc ba
       -0.073169395 0.027731122 0.01946779 -0.0019279016
0003c0 fa 22 8d bd 23 c4 ac 3c 62 77 84 3e 59 d2 89 be
       -0.06891437 0.021089619 0.25872332 -0.26918295
0003d0 20 35 13 3d 24 ce 4e be 02 e7 17 be 1c 61 85 be
       0.035939336 -0.20195824 -0.14834216 -0.2605065
0003e0 8d 5f 65 bb a6 63 70 bc 7f 8c 39 bd 10 9c 42 be
       -0.003499958 -0.014672196 -0.045300003 -0.19004846
0003f0 f6 a4 15 be 31 35 9b 3c ad da 8a 3b 45 b3 02 bc
       -0.14613709 0.018946262 0.004237494 -0.0079773115

net_container.2.bias f4 [64]
000000 3c a0 c2 be 3a 20 75 be 8c 77 7e be c6 d0 2c be
       -0.38012874 -0.23938075 -0.24850291 -0.16876516
000010 a0 6f 57 be 96 d7 c0 bd ae c1 59 be 2f fe 02 3d
       -0.21038675 -0.0941612 -0.21265289 0.03198069
000020 61 87 ba be 8a d6 df 3d 49 47 0f bd 1e 6d 5d 3d
       -0.3643141 0.10929592 -0.034980092 0.05405914
000030 08 ef 9b be 88 32 01 bd 97 9b bc be f4 9b 91 3e
       -0.30455804 -0.03154233 -0.36837456 0.28439295
000040 af 49 36 3d 5e 9e 76 be 0e 24 b4 3c c2 72 76 be
       0.044503864 -0.2408385 0.021989848 -0.24067214
000050 41 6c 7f be 75 1e 57 be c6 d2 ee b9 56 7d 1c 3e
       -0.2494364 -0.21007712 -0.00045551936 0.15282187
000060 73 15 cc 3d 77 20 62 3d bb 84 0e be fc 10 79 bd
       0.099650286 0.055206742 -0.1391782 -0.060807213
000070 2b 28 60 3d 19 48 5f 3d a9 69 9c bd 1a b7 39 be
       0.054725807 0.054512117 -0.076373406 -0.18136254
000080 fd 0b f1 3d 6c e1 3b 3e 98 97 dc 3d 95 fd 1b 3e
       0.11769865 0.1834771 0.10771102 0.15233453
000090 4a dc de be c9 56 a1 be ea dd 74 bd 7a a1 10 be
       -0.43527442 -0.31511524 -0.059781946 -0.14124098
0000a0 e5 62 b9 3d 89 83 8e bd 43 6c 73 be b1 2b 36 3e
       0.09052066 -0.06958682 -0.23771767 0.17790104
0000b0 09 04 ad be fa 08 22 bc f5 30 1b be 1f f3 73 3e
       -0.3379214 -0.0098898355 -0.15155394 0.23823212
0000c0 40 04 44 be 93 01 88 3e 2c ba 12 3d 5b d1 77 bd
       -0.19142246 0.265637 0.03582208 -0.06050239
0000d0 16 a0 95 3e d4 9d ab be 06 37 69 be 58 56 22 3e
       0.29223698 -0.3351885 -0.22774896 0.1585325
0000e0 f0 cc e4 be c3 e5 fb bd 34 23 92 bd a8 ff 54 bc
       -0.44687605 -0.12299683 -0.07135621 -0.013000406
0000f0 17 d2 13 be 81 17 f0 be d0 b6 d3 be 81 8a 52 3d
       -0.14435612 -0.46892932 -0.41350412 0.05140162

policy_layer.weight f4 [7, 64]
000000 a2 fb 7f 3e c1 88 86 3c 53 f7 8d bd 0f a4 e4 bd
       0.24998334 0.016422631 -0.06931939 -0.11164104
000010 53 44 67 bd 5c db 49 bc c9 ee 08 bc c5 bb b3 3c
       -0.056461643 -0.012320366 -0.008357712 0.021940121
000020 28 35 8e bc c1 dc da 3d 27 82 cd 3d b6 af 6c 3d
       -0.017359331 0.10686637 0.1003459 0.05778476
000030 11 15 99 bd e4 f8 79 be 1c 5a 8d 3d 6b 13 01 bd
       -0.07474721 -0.2441135 0.069019526 -0.03151266
000040 85 14 47 bd f6 0e ae bd 4f 22 f3 ba 51 01 f3 3d
       -0.048603553 -0.08498947 -0.0018549653 0.118654855
000050 c0 49 c8 bd b9 06 0f bd 7c 9b 82 3c 1c 6a 01 3d
       -0.09779692 -0.03491852 0.015943281 0.031595334
000060 15 03 a7 38 47 06 49 be 61 cb 0a be b2 b6 ac b9
       7.9637546e-05 -0.19631301 -0.13554145 -0.00032942515
000070 99 b7 2e be 7a f0 7f 3d 6e 88 97 bd d5 66 23 3d
       -0.17062224 0.062485196 -0.07399069 0.03989299
000080 6c 53 65 bd 49 e4 ee 3d d2 d7 e2 3d 88 59 84 bd
       -0.05598776 0.11664636 0.11076321 -0.06462389
000090 90 5e 70 3c 34 06 88 3d d8 40 85 bd fd fd ec bd
       0.014670983 0.06641808 -0.065065086 -0.11571882
0000a0 40 19 dd 3d 8b f1 10 be e3 98 e7 bc 6b 23 71 3a
       0.10795832 -0.14154641 -0.028271144 0.0009198698
0000b0 ea 82 e7 bd ec 89 29 be 28 39 03 bd 45 91 50 3d
       -0.11304267 -0.1655652 -0.03203693 0.05091979
0000c0 58 8a 22 3d 59 e8 8d 3c 23 b3 d1 bc b2 87 7e bc
       0.039682716 0.017322706 -0.025598114 -0.015535282
0000d0 0a 2f 08 bd 81 d0 89 3d 09 41 45 3c 1d 54 ea bc
       -0.033247985 0.06729222 0.012039431 -0.028604561
0000e0 18 e4 83 3e 2b a0 dd 3d dd 3f 57 bc 37 9e dc bc
       0.2575996 0.10821565 -0.013137785 -0.026930911
0000f0 64 c8 ec 3b e3 50 c0 3c 3d 2d 6c 3e 53 72 80 bd
       0.007226037 0.02347607 0.23064132 -0.062718056
000100 6d 51 b3 bd 95 24 13 bd a0 ab 83 be cf bd 9f bd
       -0.08755765 -0.03592356 -0.25716877 -0.07799875
000110 df 2d 10 be d2 e0 17 3d 6a 10 b4 3d b7 96 43 bd
       -0.14079998 0.03707964 0.08792193 -0.047751155
000120 6f 98 07 bd e9 77 f1 3d 5a f4 eb bb 2e ef 96 3d
       -0.033104356 0.11790449 -0.00720076 0.07369839
000130 a8 f1 31 bc 2e 2b c5 3d 49 7d a9 3d a9 6e 42 bd
       -0.010860838 0.096273765 0.08275849 -0.047468815
000140 96 24 c0 bc fe d5 ea 3b 62 f9 a6 bd 90 58 04 3d
       -0.023454946 0.007166623 -0.08153035 0.032311022
000150 bb f2 83 bd c4 4f 0c be f6 77 27 3d 58 ed bc 3d
       -0.064427815 -0.13702303 0.040885888 0.09224957
000160 91 07 98 3d bd a6 88 bd 4f 2d c6 3d 02 96 b5 bd
       0.07423318 -0.06672428 0.09676611 -0.08866502
000170 2d b5 c2 3c 4d 25 91 3a 6b 02 81 be 10 b2 1d be
       0.023768032 0.0011073739 -0.25197157 -0.15399957
000180 06 c6 48 3d e8 48 93 3d da e9 1c 3e ea 3b 83 bb
       0.049016975 0.0719164 0.15323582 -0.004004945
000190 a0 6b 87 bd d8 f1 90 bd 98 cf 11 3e 70 b8 7a bc
       -0.06612325 -0.07077378 0.14239347 -0.015302762
0001a0 4e ca 38 3e d9 45 8f bc 16 5c f6 3d 26 31 13 3e
       0.18045923 -0.01748936 0.12029283 0.14374217
0001b0 c5 26 80 3d 0e 67 9d 3d 1c 16 f2 3d 5b 81 f4 3b
       0.06257395 0.07685672 0.11820623 0.0074617094
0001c0 78 d1 16 bc 69 1b ab 3d 54 3f ee 3b b4 d1 fd bc
       -0.009205215 0.083548374 0.007270733 -0.030983783
0001d0 19 79 17 bd 60 bb 98 bd 3f cf ae bc 15 6a 10 3e
       -0.036980722 -0.07457614 -0.021339057 0.14102967
0001e0 14 ad 24 be ae 87 14 bd 5f 67 1f bc 39 dd 2e 3d
       -0.16081649 -0.036262207 -0.009729235 0.042691443
0001f0 23 d7 36 bd 6a ea 29 3c 1c 0e 41 be e5 9c e1 bc
       -0.044638764 0.01037083 -0.18853039 -0.027540633
000200 42 64 5b 3e 26 f3 a9 3d 58 ee b1 bd aa e3 09 be
       0.21424964 0.0829833 -0.086880386 -0.13465753
000210 ed 7c 1d 3d 4b b4 82 bd 87 f6 64 3d bb 91 b3 3d
       0.038449217 -0.063820444 0.05589917 0.0876803
000220 bb ad ca 3c 31 0f 40 3d 9e 20 5b 3e 25 ba 29 3d
       0.024741044 0.046889488 0.21399161 0.041437287
000230 c7 78 62 bc 64 36 8d be f3 45 84 bd 36 ca 08 be
       -0.013822741 -0.2758056 -0.06458654 -0.13358387
000240 9c e0 46 3d f1 4b 84 bd da 97 06 be e7 04 e0 3d
       0.048554048 -0.06459797 -0.13143864 0.10938435
000250 8b 89 a5 bd a7 af 0e 3d ce 48 fd 3c 76 3f 13 3d
       -0.08082875 0.034835484 0.030918505 0.035949193
000260 7b a4 0e 3d 7d a7 19 be c0 40 1c be 41 5a 14 3c
       0.03482483 -0.15005298 -0.15259075 0.009054721
000270 a6 2c ab 3d fe 2e 98 bd 1e 24 2e 3d 5d 9f 7a bd
       0.083581254 -0.07430838 0.042514913 -0.061187137
000280 75 fd 3d bc cb 38 27 3d 91 e3 1c 3e d2 16 85 3b
       -0.011596073 0.040825646 0.15321185 0.0040615583
000290 13 7d 83 3d 85 b1 4d 3e 6c 0a 29 bd 90 bd 07 be
       0.064203404 0.2008725 -0.041269705 -0.13255906
0002a0 57 a7 5e 3e fa ae a1 bd fe 9b dd 3c 4c 09 11 3e
       0.21743523 -0.07894702 0.027051922 0.14163703
0002b0 4f a6 4d be f2 e3 ea bc d4 06 25 bc 2a c2 ed bc
       -0.20082973 -0.028673146 -0.010072429 -0.029023249
0002c0 2f 06 ac bd 05 8e b5 3c 59 44 cb 3b 20 f1 6d bd
       -0.08399617 0.022162447 0.006203216 -0.058091283
0002d0 e2 8b 30 3d 49 aa 66 bd 40 3f c7 bd 43 0d da bd
       0.043102153 -0.05631474 -0.09728861 -0.10647061
0002e0 f1 6b 4c 3e 70 ca 87 3d 8a 19 f6 bc 49 29 3e bd
       0.19963051 0.06630409 -0.030041475 -0.04642609
0002f0 1a 82 10 be be bc 3f bc 00 8d 23 bd ee f2 f6 bd
       -0.1411213 -0.0117027145 -0.03992939 -0.12058054
000300 d5 8a 92 bd 77 b1 8f 3d 63 36 b5 3d ac 8c 50 bd
       -0.07155386 0.070162706 0.08848264 -0.050915405
000310 62 77 8d bd 45 1e 4e be 70 db 9a be 84 d8 b2 3c
       -0.06907536 -0.20128734 -0.30245543 0.021831758
000320 65 e4 1f be 32 a9 55 bc b0 37 0e 3e cf c1 df bc
       -0.1561447 -0.013040828 0.1388843 -0.027314095
000330 76 b3 0d be 21 3f 9f bd 7d b0 2e be a3 25 b2 3c
       -0.1383799 -0.07775713 -0.17059512 0.021746462
000340 8f 1c 4e 3d 18 23 08 bd c3 b9 10 3e 48 fe 5f be
       0.050320204 -0.033236593 0.14133362 -0.21874344
000350 7f 3f 82 bd 83 22 d5 bc 79 ac 61 bd 6d f2 e2 3d
       -0.06359767 -0.026017433 -0.055096123 0.11081395
000360 6f de cc bd 2f 49 16 be 6c 8a b0 be 8b 87 b4 bd
       -0.10003363 -0.14676355 -0.34480608 -0.08814915
000370 5b e0 f2 3c 9c cb 44 3e 86 79 cb 3a 5e c5 08 3e
       0.029647997 0.19218296 0.0015523888 0.1335654
000380 ad 22 a1 3d 08 04 bf 3d 90 e8 10 be f2 12 9e 3d
       0.07867942 0.09326941 -0.14151216 0.07718457
000390 70 e7 e7 bc 70 3d f6 bd 61 6e 09 bd 1f 75 5f bb
       -0.0283086 -0.12023437 -0.03355253 -0.003409691
0003a0 8f eb 86 3d 6f 54 99 bd 2e 6c 69 be f1 3b 26 3b
       0.06587898 -0.074868076 -0.22795174 0.0025365318
0003b0 84 5d 25 3d 5b 48 b5 3d e4 28 7b bd 6d 77 3d 3d
       0.040372387 0.08851691 -0.061318293 0.04625647
0003c0 bc 54 3f 3d cd 1b f5 bc 72 c2 32 3e 59 06 6c 3c
       0.04671167 -0.029920483 0.17456988 0.01440581
0003d0 70 7c 9c 3d 4b dc a9 bd 69 18 0c 3c d3 c8 56 3d
       0.07640922 -0.08293971 0.008550742 0.052437615
0003e0 75 91 0a be 23 25 97 bd c5 19 7e 3b 43 e9 6a bd
       -0.1353205 -0.0738013 0.0038772684 -0.057351362
0003f0 11 bb 81 bd ea 48 01 be c8 a2 65 be 6d f6 3e bc
       -0.06334508 -0.12625471 -0.22425377 -0.011655432

policy_layer.bias f4 [7]
000000 13 89 c6 3c af 2b 7b 3d 6f 4e ed bc eb b3 88 3e
       0.024235284 0.061320957 -0.028968064 0.26699767
000010 ca c5 83 bd b0 38 a7 bd e3 55 9e 3d
       -0.0643421 -0.08165109 0.07731225

value_layer.weight f4 [1, 64]
000000 ac 25 f7 bc 80 a6 35 3c 76 69 ee bc 37 8c a9 bc
       -0.03016933 0.01108706 -0.029103022 -0.020696742
000010 a7 a5 00 3b 4c db 12 be 2f fb 6a 3c 61 1b 34 3c
       0.0019629986 -0.14341468 0.014342113 0.010992856
000020 d6 aa 33 be ab 06 0c 3d df ee 87 3d f3 e1 74 bc
       -0.17545637 0.034186047 0.06637358 -0.014946449
000030 ad 78 2e be 52 dc 8b 3d a4 8f 8d bd fd 53 63 3d
       -0.17038222 0.06829132 -0.06912163 0.05550002
000040 b4 7b 47 be 8f a7 04 be 40 7f 17 3d 0e c0 22 bd
       -0.19480783 -0.12954544 0.03698659 -0.03973394
000050 5a 13 5c bd b3 4a 28 3c a8 a9 29 3a 52 f7 de 3c
       -0.053729393 0.010271716 0.0006472119 0.02721754
000060 e3 04 e2 3c b7 da 87 3c a3 ca f1 bb f6 6a c5 bc
       0.02759022 0.016583784 -0.0073788925 -0.024098855
000070 63 01 6f bc 0e d5 46 3c 85 18 b4 bb cc 2f 13 bb
       -0.014587733 0.012135757 -0.005496087 -0.002245891
000080 88 c2 3b bb 24 9e 15 3c 4c 66 6b 3d 13 f4 0f 3c
       -0.0028649885 0.009131942 0.057470605 0.008786219
000090 de 6a 99 bd 47 32 75 be f5 89 c3 bc 64 e7 fd bc
       -0.074910864 -0.2394496 -0.023869494 -0.030994125
0000a0 70 5d 4b 3d f6 88 c9 bc f2 00 54 be ab 16 3f 3e
       0.049649656 -0.02460144 -0.20703486 0.18660991
0000b0 12 a6 4c 3c aa dc 15 3c 83 8d f3 ba 2c 94 ee 3c
       0.012490766 0.009146849 -0.0018581602 0.029123388
0000c0 3a 03 44 3e 45 89 2d 3d af 41 e6 3a 85 41 05 bc
       0.19141856 0.04236724 0.0017567183 -0.008133297
0000d0 d0 69 e0 3d f1 ca 8d bd 53 cb fe bc 6b 1b c1 3a
       0.10957682 -0.069234736 -0.031102812 0.0014732903
0000e0 2a af 31 3c 6f 99 96 bc da 70 1d 3b 90 e3 ad 3c
       0.010844985 -0.01838371 0.0024023564 0.021226674
0000f0 1b c6 63 bc 5a 14 11 be 8d 32 1f bd 7d 8a c9 bb
       -0.0139022125 -0.1416792 -0.03886657 -0.0061505423

log_std_parameter f4 [7]
000000 50 0d d3 be cf d8 25 bf 90 f5 e2 be 6b e9 26 bf
       -0.41221094 -0.6478395 -0.44327974 -0.6519992
000010 00 57 e6 be 59 fe db be 06 99 01 bf
       -0.4498825 -0.4296749 -0.5062412

net_container.0.weight f4 [64, 32]
000000 ed 0b 8d be 33 bc 13 3e 39 3a c8 be 7f 3a 08 be
       -0.2754816 0.14427261 -0.3910692 -0.13303564
000010 48 42 ca 3d e1 18 48 bd 56 d7 7b 3e 4e 34 8e bd
       0.098759234 -0.04885185 0.24593863 -0.0694357
000020 8e 55 dc bc d3 97 4c be 1e 90 3a 3e 4b 29 61 be
       -0.026896264 -0.19979791 0.18219039 -0.21988408
000030 4c 6d e7 3b b9 9f 72 3d d9 f6 8b 3d a0 62 53 be
       0.0070625897 0.059234355 0.06834192 -0.20643091
000040 7f 90 e5 3d 78 ae 16 bd 54 ff a8 3e 22 72 7f 3e
       0.11209201 -0.03678748 0.330073 0.24945882
000050 aa 0f 2c 3d 8c 33 d2 3e 1f f0 88 be c8 e1 9e be
       0.042007126 0.41054952 -0.26745698 -0.31031632
000060 ed 65 50 be b5 b3 9b bc 3a 13 cc 3d f7 10 66 bd
       -0.20351382 -0.01900659 0.09964605 -0.056168523
000070 22 e1 6a 3d fa 0d cc bd 30 71 e8 bc af 57 26 be
       0.05734361 -0.09963603 -0.028374285 -0.16244386
000080 74 33 29 bd d8 52 3b be a9 4d 53 be b9 d5 2b be
       -0.041308835 -0.18293321 -0.20635094 -0.16780747
000090 74 18 24 bc 46 c0 89 3c cb 13 fe bd 4e af 36 bd
       -0.010015596 0.016815316 -0.12406119 -0.044600777
0000a0 90 a9 74 3d 94 8e 68 bd 23 a8 df bd 11 2d 6e 3c
       0.05973202 -0.056776598 -0.109207414 0.014537112
0000b0 a6 17 00 3e a7 8e 1f 3b f3 a1 3a be 14 a9 6c be
       0.12509021 0.0024346502 -0.18225841 -0.23111373
0000c0 40 1c 59 bd d3 09 d1 bd 83 fb 97 bd fa 30 d4 3d
       -0.053005457 -0.10206952 -0.07421019 0.10360904
0000d0 aa 58 b5 be c1 28 06 bf df ec f6 be 33 d5 ed 3e
       -0.35419208 -0.52405936 -0.48227593 0.4645172
0000e0 6a 4f 10 bf 77 98 6c 3e 32 f6 a8 3c 98 4b 74 bd
       -0.56371176 0.23105036 0.020625208 -0.059642404
0000f0 70 fd 87 bd 92 0a b5 bd 91 20 47 3d 0c 80 a7 bc
       -0.06640136 -0.08839907 0.048615042 -0.0204468
000100 6b 5a 34 be 5e 64 4d be b6 79 7c be e1 dc 29 3e
       -0.17612617 -0.20057818 -0.24655804 0.16588165
000110 4f 75 9e bc f2 e1 ed 3d e3 14 17 3e f1 33 17 3e
       -0.019343046 0.11615361 0.14754061 0.14765908
000120 56 9d 31 39 a5 13 a5 bc d1 d1 3f be 75 c5 04 3e
       0.00016938648 -0.020150969 -0.18732382 0.12965949
000130 81 79 5a 3e f6 c6 f5 bd 02 a2 fc bc 3b 0e 54 bd
       0.21335413 -0.120008394 -0.03083897 -0.051771384
000140 5f e7 fd 3d 91 1f c2 bc 0c 2b 80 3e 8d fe e5 3e
       0.12397646 -0.023696693 0.25032842 0.4492077
000150 07 c2 e9 be 93 8b a5 be 45 c9 8d bc 81 6a 3e 3e
       -0.45655844 -0.3233305 -0.017307887 0.18595316
000160 e3 1a bb bd a2 17 57 bb 6a de fe bd ae bc c0 3c
       -0.091359876 -0.0032820483 -0.12444766 0.02352747
000170 98 bb b3 bd 51 1d e7 3d db 42 08 bd 92 56 ee 3b
       -0.08776015 0.112848885 -0.033266883 0.0072735036
000180 0f f9 97 3d 32 92 66 bc e1 b1 a9 bd 23 f1 b3 bd
       0.07420551 -0.014072942 -0.08285881 -0.087862276
000190 e3 0a 0e 3e ad 2c 15 3e 53 d3 cc bd dc 8d 33 bc
       0.1387134 0.14567824 -0.100012444 -0.010959115
0001a0 00 4b 07 3d fe c3 b9 39 56 60 02 3e c1 eb 9c bc
       0.03303051 0.00035431975 0.12732062 -0.019155385
0001b0 e0 46 12 bd ce a1 03 be 49 49 13 3d d6 59 98 3d
       -0.035712123 -0.12854692 0.035958562 0.0743901
0001c0 4b a0 65 3d 59 79 23 bd a5 96 bd be 37 a0 31 be
       0.05606107 -0.039910648 -0.37028995 -0.17346273
0001d0 cd d8 08 3f dc f0 b7 be 41 9c aa 3e eb 38 87 3e
       0.5345581 -0.3592595 0.33322337 0.26410612
0001e0 5f d4 b6 3e 2a 90 1c be 96 10 82 bd f5 8e 0e be
       0.357089 -0.15289369 -0.0635082 -0.13921721
0001f0 d3 f9 f5 3d b6 fb 0a 3e 00 04 f6 3b d2 0c 47 bd
       0.12010541 0.13572583 0.007507801 -0.04859621
000200 14 4e 0d be ca 11 3f be b1 e1 13 3a a1 67 0f be
       -0.13799316 -0.1865913 0.00056412356 -0.14004375
000210 d4 6e 17 bd e4 c5 08 3d 26 c3 60 bd 2a 5a 4e bc
       -0.03697093 0.03339185 -0.054873608 -0.012594739
000220 e5 61 02 3d a7 38 45 bd 65 62 cd bc 49 87 10 bd
       0.03183164 -0.04814973 -0.025071332 -0.035285268
000230 c3 e6 48 be f6 0b 03 3e fb c1 50 bd 69 ca 50 3d
       -0.19619279 0.12797531 -0.050966244 0.050974283
000240 ef 45 9f bd 6a e8 2e be 43 53 a8 3e e4 88 74 be
       -0.07777011 -0.17080846 0.32876024 -0.23880345
000250 23 98 e4 3e 20 b1 11 bf c0 9f aa be c2 b8 2d 3f
       0.4464732 -0.56910896 -0.33325005 0.67860043
000260 a4 8e d3 be 7b 44 a3 3c de 18 70 3d 42 c3 82 3b
       -0.41319764 0.019930115 0.058617465 0.0039905617
000270 bc dd 19 3e 11 20 00 3e 25 c8 23 bd ef 6f 51 be
       0.15025991 0.12512232 -0.039985795 -0.20452856
000280 77 fc 18 be 62 11 94 be 14 5d 93 3d 73 56 ac 3c
       -0.14940058 -0.28919512 0.071954876 0.021037316
000290 3a c8 f5 3d 5f 56 54 be 4a 6c 1a be 61 8d f6 3d
       0.12001081 -0.20736073 -0.15080371 0.12038685
0002a0 6e aa 48 bd e4 3f b1 bd 23 ff 5b be ce 94 0f 3d
       -0.04899066 -0.08654764 -0.21484046 0.03505402
0002b0 d6 19 3c bd 6c 5a 92 bc 19 44 67 3d 1b d7 9d bd
       -0.045923077 -0.017865382 0.056461427 -0.07707044
0002c0 8d 0f cc ba a6 f4 c4 3d 0b ca 92 3e 40 9b 67 3d
       -0.0015568599 0.096169755 0.28669772 0.056544542
0002d0 1d 7c 23 be e7 11 22 3e af ce 18 3d 62 9b 40 bc
       -0.15965314 0.15827142 0.037306484 -0.011755796
0002e0 3f 6b 03 3d ea e6 b4 bb 97 35 9b 3c 9f fb da bc
       0.0320847 -0.005520691 0.018946452 -0.02673131
0002f0 df e9 06 be b3 6e b8 bd 63 9c b8 bd 4e f3 d5 3d
       -0.13175152 -0.09005489 -0.090142034 0.10446797
000300 5c 1a 74 3c ee df 95 be d4 17 a2 3d aa 45 b0 3c
       0.014898863 -0.29272407 0.07914701 0.021517593
000310 a9 27 d3 3a 3e aa 85 3e e9 48 5e be 7a 50 c2 bd
       0.0016109842 0.26106447 -0.217075 -0.09488006
000320 e7 39 07 3e 31 d9 e2 bd 05 ef cd 3d c0 64 0e be
       0.13205682 -0.11076582 0.10055355 -0.1390562
000330 7f 19 7c bd b9 2e 76 3b 2c ab 8b 3d 8e 5a 19 3e
       -0.061547752 0.003756447 0.06819758 0.1497595
000340 6e c1 fe bd 8a cb c5 bd ac b7 6a bb 76 a3 d5 3d
       -0.124392375 -0.096579626 -0.0035815043 0.10431568
000350 dd 8a 09 bf 9c be dc be ec dc 01 bf a4 d5 e8 3e
       -0.53727514 -0.43114173 -0.50727725 0.45475495
000360 32 c1 9e be f6 a6 f0 bd b3 f8 f1 bc 68 b2 02 bc
       -0.3100677 -0.11750595 -0.029537534 -0.007977106
000370 f8 7e b0 3c 58 ef bd 3d 94 2f 17 be f8 c2 91 3d
       0.021544918 0.09274167 -0.14764243 0.071172655
000380 83 bf 83 be 55 75 b2 be fa b8 04 bf 7c b6 fd 3c
       -0.2573205 -0.34855142 -0.5184475 0.030970804
000390 45 c9 93 3e 02 a7 16 3e 6d 40 9d 3e 3c 1f 99 3c
       0.28864494 0.14712146 0.30713215 0.018691652
0003a0 52 c4 8c bd f7 9e 62 be 77 27 24 be 5b a6 84 bd
       -0.06873383 -0.22130953 -0.1603068 -0.06477042
0003b0 8d 1e b6 bc a8 bc 26 bd 1e 76 6f 3d c4 f4 53 bd
       -0.022231365 -0.04070726 0.058462255 -0.0517471
0003c0 85 b7 8e bd 04 6b 1c 3e 94 a3 b0 3e 47 68 44 3e
       -0.06968597 0.15275198 0.344998 0.19180404
0003d0 1c 53 1b 3e 74 74 b9 bd e8 c0 5c bf 0f ef 01 be
       0.15168422 -0.09055415 -0.8623185 -0.1268885
0003e0 d3 52 58 bf 3b 80 c5 3d f5 35 2e 3e 2c ae e2 b8
       -0.8450138 0.09643599 0.1701277 -0.00010808962
0003f0 a6 d1 7c bd 5c e3 4b 3e d1 c2 9a bc a3 50 a9 3e
       -0.061723374 0.1991095 -0.018891724 0.33069333

net_container.0.bias f4 [64]
000000 9a 08 f3 3d 39 38 55 3e 15 1b 86 3e 6f bd 85 3e
       0.11866875 0.20822228 0.26192537 0.2612109
000010 04 fd af bb c4 9f f8 3d ee e6 7c 3e 99 99 09 be
       -0.005370738 0.12139848 0.24697468 -0.13437499
000020 e1 9d 48 3e 11 c9 ba be c1 f4 ce bc 40 41 40 3e
       0.19591476 -0.36481526 -0.025263192 0.18774891
000030 7e 19 97 be e7 8b 95 be 5d f5 04 3e 43 e6 40 3d
       -0.29511636 -0.292083 0.12984224 0.047094595
000040 7c 13 20 be 4c d4 9b be 53 2f e1 3c aa 56 39 be
       -0.15632433 -0.30435407 0.027488386 -0.18099466
000050 b2 68 87 be 8c df 18 be 0b 72 bc 3d 05 db cf 3d
       -0.26447064 -0.14929026 0.092014395 0.101491965
000060 0e 4a a7 3d 65 0e f7 be 7d 8c 4a 3e ab 1e af 3e
       0.08168422 -0.4825317 0.19780155 0.34203085
000070 df f3 07 be 68 c5 1a bd e3 36 d0 3c 45 da 57 be
       -0.13276623 -0.037785918 0.025416797 -0.21079357
000080 d7 1f 60 be 7a 2b 3f be 56 c7 46 be 09 bb 7b be
       -0.21887146 -0.18668929 -0.19411978 -0.24583067
000090 c3 f8 18 bd 6d 78 b9 be fc a5 ab 3c 29 50 88 3e
       -0.037346613 -0.3622469 0.020953171 0.26623657
0000a0 15 83 89 3e 67 5a 95 3e 4b d3 ee be f4 19 a1 be
       0.2685782 0.29170534 -0.4664558 -0.31465113
0000b0 bf dc 33 be 3e 9b 80 be 26 6f 03 3e cd 93 0c be
       -0.17564677 -0.2511844 0.12835369 -0.13728257
0000c0 26 f3 d7 be 8c 20 60 bc ae bd e9 bd 53 d7 c8 3d
       -0.42177695 -0.013679635 -0.11413132 0.09806695
0000d0 87 7e 40 be e4 17 1c be 83 6a 6d be 5e bb 1c 3d
       -0.18798266 -0.15243489 -0.23185162 0.038264625
0000e0 48 6a 6d 3d a0 9d 88 be 1a 7c bc be 78 a4 89 be
       0.057962686 -0.26682758 -0.36813432 -0.26883292
0000f0 80 ea 0f 3d b6 d4 a8 be 5c 7b 21 3d 30 f5 83 be
       0.035135746 -0.32974786 0.039424285 -0.25773

net_container.2.weight f4 [64, 64]
000000 47 36 c6 3d fb d2 30 be 65 f0 52 bd ca 73 98 bc
       0.09678321 -0.17267983 -0.05149879 -0.0186099
000010 c1 2f 36 be 0b 7e 3c bd 56 26 d5 bd 74 4e 48 3e
       -0.17791654 -0.04601864 -0.104077026 0.19561177
000020 1e 8a ca bd 55 f5 47 3e b8 4c 08 3e de d7 8a 3e
       -0.09889625 0.1952718 0.13310516 0.2711782
000030 7c 15 17 3e f7 65 a5 3b 99 26 68 3e 9e 76 43 be
       0.1475429 0.0050475555 0.22670974 -0.19088218
000040 6f 1e 42 3d 02 ec 99 bc 9f fa 56 bd fb c7 79 3d
       0.047392305 -0.018789295 -0.052485105 0.06098173
000050 88 9d ee bc ea c2 87 3d af d5 4c be 54 6c 30 be
       -0.029127851 0.06628974 -0.20003389 -0.17228824
000060 b1 76 8a 3e 62 13 03 3e b3 e4 8e be e2 4d ad bd
       0.2704368 0.12800363 -0.2790886 -0.084621206
000070 f3 54 81 bc 00 b9 77 be 01 b9 de bd 74 53 f4 be
       -0.015787577 -0.24191666 -0.108751304 -0.4771992
000080 8a 5b 4d be 8d cf 98 3e ac 7e 83 3d ad 30 0c 3e
       -0.2005445 0.2984585 0.06420645 0.13690443
000090 2c 26 e8 3d 08 d8 6a be a3 89 93 3d 21 84 3c bd
       0.11335406 -0.22933972 0.072039865 -0.046024445
0000a0 7e a8 69 bd d8 76 f4 3b 2f b7 45 3e f0 f4 23 3e
       -0.057045452 0.0074604563 0.1930816 0.16011405
0000b0 1c cd d3 3c 3a 51 0d 3e 1d 64 6c be e7 f6 7f 3e
       0.02585464 0.13800517 -0.23085065 0.2499653
0000c0 6c 30 45 bd 2e e8 0d bd 94 2c ac 3d 21 10 8e bc
       -0.04814188 -0.034645252 0.0840694 -0.017341675
0000d0 78 08 22 3d 51 fa 03 be 83 59 6e 3c a6 3d 22 3d
       0.039558858 -0.12888457 0.014547708 0.039609574
0000e0 6d 95 20 be 6e 05 15 3d 5e 2d 83 3d cd 7a ca 3d
       -0.15682001 0.03638213 0.064051375 0.09886704
0000f0 d8 c0 83 be f5 74 81 bc 2b c0 1e bd a4 88 c6 3d
       -0.25733066 -0.01580284 -0.038757484 0.09694031
000100 a7 ba e2 bd 3c 7b ba 3d ee 4e 81 3d 8c 30 a7 3d
       -0.11070757 0.09105536 0.06313883 0.081635565
000110 67 0c 43 3e bd f9 a9 bd eb 76 0e 3d ab 00 92 be
       0.190477 -0.08299587 0.034781378 -0.28516135
000120 4c 8f 2b 3e c6 7b 5e 3d 70 36 cc be 55 f3 7a 3d
       0.16753882 0.05431726 -0.39885283 0.061267216
000130 e6 39 44 3c 72 df fb bd b6 6e 69 3d b1 65 14 bd
       0.011976695 -0.12298478 0.056990348 -0.036229793
000140 12 ac b9 bd ff 80 d5 3c eb ec 6c 3d 34 96 6a bc
       -0.09066023 0.026062487 0.05784313 -0.014318038
000150 6e 7e 0a be ff de 5c 3e 6a 4b 73 bd bf c0 bd bd
       -0.13524792 0.21569441 -0.059398092 -0.09265279
000160 2a 18 08 3e b5 41 62 3e ab dc 96 3d b0 a4 20 bd
       0.13290468 0.22095378 0.07366308 -0.03921956
000170 f7 5c c7 3d 3d da 21 3e c3 40 b0 be bd 42 3d be
       0.097345285 0.15805908 -0.3442441 -0.1848249
000180 f4 bd 96 3e 87 08 48 bd a9 29 74 be 23 1a 6b 3d
       0.29441798 -0.048836257 -0.23844017 0.057397973
000190 ec 1e 84 be e8 16 89 bd ae ce d8 bb ce 57 0a 3e
       -0.25804842 -0.06693822 -0.006616435 0.13510057
0001a0 d6 eb 18 3e dc c2 41 3e bb ed c0 3c ce a6 30 3c
       0.14933714 0.18921989 0.023550859 0.010781957
0001b0 92 ef fb 3d 2d 53 0e be 76 83 1c be 3e 1e 85 bb
       0.12301554 -0.13898917 -0.15284523 -0.004062443
0001c0 53 db 14 3d c6 46 51 bd 2b ef 26 3c 0a a0 fc bd
       0.036341976 -0.051092885 0.010188858 -0.123352125
0001d0 c0 8f f5 bd e1 56 91 be 54 c3 bd 3d 02 b4 03 3d
       -0.11990309 -0.28386596 0.092657715 0.03215409
0001e0 77 8a 7c 3d aa 4e de 3d f7 e0 37 be 88 4e 7c bd
       0.061655488 0.10854848 -0.17956911 -0.06159833
0001f0 44 59 e4 bc ce 08 80 be c1 f4 42 bd a0 a0 f9 bd
       -0.027874596 -0.25006717 -0.047596697 -0.1218884
000200 8c dd 20 bd c0 f6 42 be e3 73 4d be 6f 4b 43 3e
       -0.039273784 -0.1903944 -0.20063739 0.19071744
000210 73 f0 69 be fc 51 12 bc 82 e9 8e be 0d 18 1e be
       -0.2284563 -0.008930679 -0.27912527 -0.15438862
000220 06 8e 0c be a3 57 f3 3d c5 1f fb bc 66 26 08 be
       -0.13726053 0.1188195 -0.030654797 -0.13295898
000230 68 12 4e bd f4 aa 79 3e 33 c7 ca bd 10 3c 93 bd
       -0.050310522 0.2438162 -0.099012755 -0.071891904
000240 7a 3d 9d be 5d 6e 66 bd 24 ff 9a 3d 89 e0 24 be
       -0.30710965 -0.056257594 0.075681955 -0.16101278
000250 dd c3 8c 3d c4 1f 42 3d c9 a9 3b bd ba fe 50 3d
       0.068732955 0.047393575 -0.045816217 0.051024176
000260 b4 ef 61 bd c4 d5 2a 3d 3b 07 07 3c 12 96 0e bd
       -0.05516024 0.04170777 0.00824147 -0.034811087
000270 03 86 9d bd 4a ab d3 bd e5 04 f2 3d 31 97 50 bd
       -0.07691576 -0.10335405 0.1181734 -0.050925437
000280 5f 11 e8 bd 4e a4 3b be 55 78 32 be f5 30 92 3d
       -0.11331438 -0.18324396 -0.17428716 0.07138244
000290 5b 51 c5 3d 74 d1 07 be 09 e3 f4 bd 3a 69 48 3d
       0.09634658 -0.13263494 -0.11957366 0.048928477
0002a0 85 87 76 be 93 30 f9 3c b6 a6 67 be 5e c5 8b bc
       -0.24075134 0.03041867 -0.22622189 -0.017061885
0002b0 a6 81 5e 3b 95 b6 29 3e c0 eb 8b 3d 06 b7 84 3d
       0.0033951788 0.16573556 0.06832075 0.064802215
0002c0 68 47 05 bd 63 89 1e 3d 4a b6 cd bd 0a ab a1 be
       -0.0325388 0.03870524 -0.100445345 -0.31575805
0002d0 17 8c e9 bd e6 94 36 bb 8f 2f ad bd 0d 74 cb bd
       -0.11403673 -0.0027859746 -0.08456337 -0.09934244
0002e0 31 23 d5 bd 04 9e d8 3d 35 34 83 3d 7e 53 e2 3d
       -0.10407103 0.10577014 0.06406442 0.11051081
0002f0 be 0b b9 bd 9b 19 b6 3d fd f0 10 3e 64 c4 0b 3d
       -0.09035443 0.088916026 0.1415443 0.03412284
000300 68 9a 99 be e8 2c 13 3e 4b 3f 4a be 24 ad 36 3d
       -0.30000615 0.14372599 -0.19750707 0.044598714
000310 1f 2d 41 bd db 9e 6e 3c 83 64 e5 3d cc fe 9a be
       -0.04716217 0.014564241 0.11200812 -0.3027252
000320 97 f0 bf bd e1 61 63 be 7f a0 30 bd b5 91 fd 3d
       -0.09372061 -0.22205307 -0.04312181 0.12381307
000330 9e 90 69 3d e7 75 df bb 21 30 d0 bd fb b1 b7 bd
       0.057022683 -0.006819475 -0.1016543 -0.08969494
000340 23 33 97 be 1c a2 8f be 94 72 a0 3d ba 59 86 bd
       -0.29531202 -0.28053367 0.07834354 -0.06560083
000350 46 78 a7 3d 1d 5a ae be e2 a5 fd bd cc 3f b5 3d
       0.08177237 -0.34053126 -0.12385155 0.08850059
000360 71 9b 10 bd 5e 90 23 be a7 59 32 bd 16 20 7c bc
       -0.03530449 -0.1597304 -0.04354253 -0.015388509
000370 d0 87 1e bd 63 8e 2c 3e 5d c5 44 bd a7 0d ef bd
       -0.03870374 0.16851191 -0.048039783 -0.11672526
000380 22 76 40 bd e7 ef 5b be 3f 8f 54 3d f7 a1 7e be
       -0.04698766 -0.21478234 0.051894423 -0.24866472
000390 38 dc 1b 3e 06 cc 33 bd 9b 75 2d bd 33 c5 2f bd
       0.15220726 -0.043895744 -0.042348485 -0.042912673
0003a0 61 f0 0d be 7a ec 87 bd 65 68 c3 bd e5 37 65 bd
       -0.13861229 -0.06636901 -0.09541396 -0.05596151
0003b0 d6 d9 95 bd 61 2c e3 3c ea 7a 9f 3c a5 b1 fc ba
       -0.073169395 0.027731122 0.01946779 -0.0019279016
0003c0 fa 22 8d bd 23 c4 ac 3c 62 77 84 3e 59 d2 89 be
       -0.06891437 0.021089619 0.25872332 -0.26918295
0003d0 20 35 13 3d 24 ce 4e be 02 e7 17 be 1c 61 85 be
       0.035939336 -0.20195824 -0.14834216 -0.2605065
0003e0 8d 5f 65 bb a6 63 70 bc 7f 8c 39 bd 10 9c 42 be
       -0.003499958 -0.014672196 -0.045300003 -0.19004846
0003f0 f6 a4 15 be 31 35 9b 3c ad da 8a 3b 45 b3 02 bc
       -0.14613709 0.018946262 0.004237494 -0.0079773115

net_container.2.bias f4 [64]
000000 3c a0 c2 be 3a 20 75 be 8c 77 7e be c6 d0 2c be
       -0.38012874 -0.23938075 -0.24850291 -0.16876516
000010 a0 6f 57 be 96 d7 c0 bd ae c1 59 be 2f fe 02 3d
       -0.21038675 -0.0941612 -0.21265289 0.03198069
000020 61 87 ba be 8a d6 df 3d 49 47 0f bd 1e 6d 5d 3d
       -0.3643141 0.10929592 -0.034980092 0.05405914
000030 08 ef 9b be 88 32 01 bd 97 9b bc be f4 9b 91 3e
       -0.30455804 -0.03154233 -0.36837456 0.28439295
000040 af 49 36 3d 5e 9e 76 be 0e 24 b4 3c c2 72 76 be
       0.044503864 -0.2408385 0.021989848 -0.24067214
000050 41 6c 7f be 75 1e 57 be c6 d2 ee b9 56 7d 1c 3e
       -0.2494364 -0.21007712 -0.00045551936 0.15282187
000060 73 15 cc 3d 77 20 62 3d bb 84 0e be fc 10 79 bd
       0.099650286 0.055206742 -0.1391782 -0.060807213
000070 2b 28 60 3d 19 48 5f 3d a9 69 9c bd 1a b7 39 be
       0.054725807 0.054512117 -0.076373406 -0.18136254
000080 fd 0b f1 3d 6c e1 3b 3e 98 97 dc 3d 95 fd 1b 3e
       0.11769865 0.1834771 0.10771102 0.15233453
000090 4a dc de be c9 56 a1 be ea dd 74 bd 7a a1 10 be
       -0.43527442 -0.31511524 -0.059781946 -0.14124098
0000a0 e5 62 b9 3d 89 83 8e bd 43 6c 73 be b1 2b 36 3e
       0.09052066 -0.06958682 -0.23771767 0.17790104
0000b0 09 04 ad be fa 08 22 bc f5 30 1b be 1f f3 73 3e
       -0.3379214 -0.0098898355 -0.15155394 0.23823212
0000c0 40 04 44 be 93 01 88 3e 2c ba 12 3d 5b d1 77 bd
       -0.19142246 0.265637 0.03582208 -0.06050239
0000d0 16 a0 95 3e d4 9d ab be 06 37 69 be 58 56 22 3e
       0.29223698 -0.3351885 -0.22774896 0.1585325
0000e0 f0 cc e4 be c3 e5 fb bd 34 23 92 bd a8 ff 54 bc
       -0.44687605 -0.12299683 -0.07135621 -0.013000406
0000f0 17 d2 13 be 81 17 f0 be d0 b6 d3 be 81 8a 52 3d
       -0.14435612 -0.46892932 -0.41350412 0.05140162
