logs/skrl/reach_franka/2024-12-18_21-11-53_ppo_torch/checkpoints/best_agent.pt (torch, 125154 bytes, 38 tensors)

log_std_parameter f4 [7]
0	0xbf74146f	-0.9534368
1	0xbfa7e12f	-1.3115596
2	0xbf8a3358	-1.0796919
3	0xbfb4e98a	-1.413377
4	0xbf80ca52	-1.0061743
5	0xbf76f058	-0.96460485
6	0xbf7add55	-0.97993976

net_container.0.weight f4 [64, 32]
0	0xbec40e7c	-0.382923
1	0x3e100384	0.14063841
2	0xbebe654e	-0.37186664
3	0xbe1a8640	-0.15090275
4	0x3d9c4f2c	0.07632288
5	0xbd7d074c	-0.061774537
6	0x3e81a422	0.25320536
7	0xbd1f2e81	-0.03886271
8	0x3bf9071a	0.0075997235
9	0xbe562740	-0.2091341
10	0x3e2b193a	0.16708842
11	0xbe8a0f36	-0.2696473
12	0x3a9fa7b0	0.0012180712
13	0x3dadcdbd	0.08486507
14	0x3c44392e	0.011976523
15	0xbe44756f	-0.19185422
16	0x3e0e3731	0.13888241
17	0xbcd759d5	-0.026287952
18	0x3eaa99bf	0.33320424
19	0x3e59cc8e	0.21269438
20	0x3dbdcba7	0.09267359
21	0x3ec45fd9	0.38354376
22	0xbe7dbf7f	-0.24780081
23	0xbe9213ea	-0.28530818
24	0xbe3aa1b4	-0.18225747
25	0xbd6bf765	-0.05760898
26	0x3dcc73e8	0.09983045
27	0xbb3beeaf	-0.0028676202
28	0x3d695f61	0.056975726
29	0xbda07e93	-0.07836642
30	0xbd70e3fc	-0.058811173
31	0xbe2f768d	-0.17135067
32	0xbdbbc42b	-0.091682754
33	0xbe5bb168	-0.21454394
34	0xbe61a06c	-0.22033852
35	0xbe5d9dbd	-0.21642204
36	0xbd3bdd77	-0.045865502
37	0xbcaadccf	-0.020857243
38	0xbe17db09	-0.14829649
39	0x3c8a503c	0.016883962
40	0x3d23367a	0.039846875
41	0xbd476fcb	-0.0486906
42	0xbe000762	-0.12502816
43	0xbc2a05ec	-0.010377388
44	0x3da5ec17	0.08101671
45	0x3d5f1389	0.05446199
46	0xbe267f9d	-0.16259618
47	0xbe1fa8e2	-0.15591767
48	0xbd8c4d66	-0.068507
49	0xbdae6474	-0.08515254
50	0xbdee411b	-0.11633512
51	0x3dc161a9	0.09442455
52	0xbebd4957	-0.36970016
53	0xbeef1340	-0.46694374
54	0xbf04cbaf	-0.51873296
55	0x3ed2fc48	0.412081
56	0xbf1a8a4d	-0.6036728
57	0x3e82deab	0.25560507
58	0xbcd126ca	-0.025531191
59	0xbc6aa696	-0.014321944
60	0xbda546e2	-0.080701604
61	0xbde5facd	-0.11229477
62	0x3d797326	0.06090083
63	0xbd2efa9e	-0.042719476
64	0xbe608cb2	-0.21928671
65	0xbe49aab0	-0.19694018
66	0xbe7856fe	-0.24251935
67	0x3e440e58	0.19146097
68	0xbce83643	-0.028346187
69	0x3e0e3d14	0.13890487
70	0x3e1d0ac5	0.1533614
71	0x3decd252	0.11563553
72	0xbcd4bd6f	-0.025969235
73	0xbd7ea175	-0.062165696
74	0xbe6fbf01	-0.23412706
75	0x3dafdfa1	0.08587576
76	0x3e30c0f3	0.17261104
77	0xbd787ec5	-0.06066777
78	0xbc3434de	-0.010998933
79	0xbd0e4b1c	-0.0347396
80	0x3dec62e9	0.11542303
81	0x3ae45e4f	0.0017423126
82	0x3e7a3f21	0.24438144
83	0x3ef81bf5	0.4845883
84	0xbf09aaf9	-0.5377651
85	0xbe92fac9	-0.2870696
86	0x3b02fe40	0.001998797
87	0x3e1b710e	0.15179846
88	0xbd9053e0	-0.07047248
89	0xbce188fc	-0.02753114
90	0xbda488fd	-0.08033941
91	0x3d2a177c	0.041526303
92	0xbdd61295	-0.10452763
93	0x3dee0bbc	0.11623332
94	0xbd76f946	-0.06029632
95	0x3c5fbd1c	0.013655927
96	0x3dc97dd7	0.09838455
97	0xbd89048f	-0.066903226
98	0xbdc55de4	-0.09637049
99	0xbe2dc1e6	-0.16968498
100	0x3e0c5f6f	0.1370828
101	0x3e494ec0	0.19658947
102	0xbde38de1	-0.11111046
103	0xbd02b9ba	-0.031915404
104	0x3d206138	0.039155215
105	0xbcb6022f	-0.022217838
106	0x3e10509f	0.14093255
107	0x3c903210	0.017601997
108	0xbd519915	-0.05117138
109	0xbe0d6a75	-0.13810141
110	0xbc174d85	-0.009234791
111	0x3d91f0d4	0.071260124
112	0x3d2ed7bb	0.042686205
113	0xbb293868	-0.0025820974
114	0xbecd7e90	-0.40135622
115	0xbe52f500	-0.20601273
116	0x3f194cc0	0.59882736
117	0xbec835b6	-0.39103478
118	0x3ea4f344	0.32216847
119	0x3e9689b8	0.29401946
120	0x3eb0b7ba	0.34515172
121	0xbe0f837f	-0.14015006
122	0xbde9451d	-0.113901354
123	0xbe2113b5	-0.15730174
124	0x3da08426	0.07837705
125	0x3e07c6c4	0.13259417
126	0x3c0fc60a	0.008775244
127	0xbd2711b0	-0.040788352
128	0xbe0858a8	-0.1331507
129	0xbe48e3f1	-0.19618203
130	0xbc814e31	-0.015784355
131	0xbe0fedd3	-0.14055566
132	0xbdbcf083	-0.092255615
133	0x3c16c0cc	0.00920124
134	0xbd3b9591	-0.045796935
135	0xbd075379	-0.03303859
136	0x3d229e6e	0.03970187
137	0xbdd3e39d	-0.10346148
138	0xbd645a78	-0.05575034
139	0x3c24b155	0.010052045
140	0xbe55b4ca	-0.20869747
141	0x3dd75f54	0.10516229
142	0xbd035c35	-0.032070357
143	0x3cae4b61	0.021276178
144	0xbdb60f70	-0.08889663
145	0xbe0cfc64	-0.13768154
146	0x3ec5e219	0.3864906
147	0xbe2b5654	-0.1673215
148	0x3f0d7661	0.55258757
149	0xbee3c483	-0.44485864
150	0xbed676f4	-0.4188763
151	0x3f11196b	0.5667941
152	0xbf01d689	-0.5071798
153	0x3b038a52	0.002007146
154	0x3cc996eb	0.024608096
155	0xbc06bdb0	-0.008223936
156	0x3e2dbdd9	0.16966952
157	0x3d840276	0.06445782
158	0xbd32b7eb	-0.04363243
159	0xbe557eda	-0.20849171
160	0xbe260cf1	-0.16215874
161	0xbeb66552	-0.35624176
162	0x3d4d3838	0.050102443
163	0x3c2243c9	0.009903857
164	0x3dbcb138	0.09213489
165	0xbe6eaf12	-0.23308972
166	0xbe281b84	-0.16416746
167	0x3df3dc30	0.11907232
168	0xbd28973f	-0.041159865
169	0xbd808730	-0.06275785
170	0xbe49ce35	-0.19707568
171	0x3ce6bda0	0.028166592
172	0x3d8987b7	0.06715339
173	0x3d8531ff	0.065036766
174	0x3c76e8be	0.0150701385
175	0xbd858d4f	-0.06521093
176	0xbb4976d9	-0.0030741005
177	0x3d95f6c4	0.073224574
178	0x3e986517	0.29764625
179	0x3d199528	0.037495762
180	0xbdb27974	-0.087145716
181	0x3e22c297	0.15894543
182	0x3cf16d59	0.029471086
183	0xbc4e0d5a	-0.012576425
184	0x3cc26fb3	0.023734903
185	0x3cd6ccf8	0.026220784
186	0x3c095d6d	0.008384091
187	0xbc0177e3	-0.007902118
188	0xbdd95248	-0.10611397
189	0xbdcee8c1	-0.10102988
190	0xbded857a	-0.11597724
191	0x3dd80a3f	0.10548829
192	0xbc589bef	-0.013220771
193	0xbe8f2f82	-0.27965933
194	0x3d9a93ad	0.07547698
195	0x3d0a0f9a	0.033706285
196	0xbcae8049	-0.021301406
197	0x3ea00f9b	0.31261906
198	0xbe82a20d	-0.2551426
199	0xbe07e571	-0.13271119
200	0x3d655874	0.05599256
201	0xbe1d4c63	-0.1536117
202	0x3dfc0b2c	0.12306818
203	0xbe01e23c	-0.12683958
204	0xbdae1dfa	-0.08501811
205	0x3d9d0049	0.0766607
206	0x3de7a958	0.11311597
207	0x3e672f09	0.22576536
208	0xbe0724ad	-0.13197584
209	0xbd19a9df	-0.037515517
210	0xbd07b69f	-0.033133145
211	0x3e03b697	0.12862621
212	0xbf23f409	-0.64044243
213	0xbea9dc09	-0.33175686
214	0xbf0daa2d	-0.5533779
215	0x3eba9182	0.3643914
216	0xbeb8a9aa	-0.36066943
217	0xbde299d7	-0.11064499
218	0x3b9efb5f	0.004851743
219	0x3c529941	0.012853921
220	0xbb5955bd	-0.0033162676
221	0x3d81f2e2	0.06345154
222	0xbde85481	-0.11344243
223	0x3d2b5485	0.04182865
224	0xbe96594e	-0.2936501
225	0xbeb334f3	-0.35001335
226	0xbf05c8cb	-0.5225951
227	0x3d1db1ec	0.038499758
228	0x3e4fc9fc	0.20291895
229	0x3e23c8cf	0.15994571
230	0x3ea3a1c4	0.31959355
231	0x3ce7d497	0.028299613
232	0xbd6f683a	-0.058449008
233	0xbe6dcece	-0.23223421
234	0xbe8fcc0f	-0.28085372
235	0xbdf28d03	-0.11843302
236	0xbdb9fffe	-0.0908203
237	0xbd111fb4	-0.035430625
238	0xbc29adb4	-0.010356355
239	0xbcfec63e	-0.031100389
240	0xbd9b5dd6	-0.07586257
241	0x3e0ca24a	0.13733783
242	0x3eb3fb1d	0.35152522
243	0x3e54d273	0.20783405
244	0x3e059897	0.1304649
245	0xbd9ab71c	-0.075544566
246	0xbf6a975b	-0.916372
247	0xbe105f52	-0.14098862
248	0xbf677ccd	-0.90424806
249	0x3d93c129	0.07214577
250	0x3e05c967	0.1306511
251	0x3c80a325	0.015702793
252	0xbd9cd1d2	-0.076572075
253	0x3e076f22	0.13225988
254	0xbda4c65b	-0.08045646
255	0x3ea0463c	0.31303585

net_container.0.bias f4 [64]
0	0x3e0ec97c	0.13944048
1	0x3e5862a3	0.21131377
2	0x3e837400	0.25674438
3	0x3e838b4b	0.2569221
4	0xbc79146a	-0.015202621
5	0x3dde2507	0.10846906
6	0x3e64d2cf	0.22346042
7	0xbe1ac206	-0.15113077
8	0x3e286deb	0.1644818
9	0xbeb3f495	-0.3514754
10	0xbcdb70ad	-0.026787126
11	0x3e5beba0	0.21476603
12	0xbe8532ec	-0.26015413
13	0xbe93e4b7	-0.28885433
14	0x3e2eb122	0.17059758
15	0xbd10b97d	-0.035333145
16	0xbe129769	-0.14315571
17	0xbe934d6d	-0.2877001
18	0x3d178ba0	0.03699839
19	0xbe46dddb	-0.19420569
20	0xbeb0ace6	-0.3450691
21	0xbe26eae1	-0.16300537
22	0x3d67284c	0.056434914
23	0x3dbd02d7	0.09229057
24	0x3df6fe01	0.12060166
25	0xbf00ea3e	-0.50357425
26	0x3e2a0e94	0.16607124
27	0x3ebc0db9	0.3672922
28	0xbe1d7672	-0.15377215
29	0xbd5e048d	-0.05420356
30	0x3c779c4b	0.015112947
31	0xbe6da43a	-0.23207179
32	0xbe8674d5	-0.2626101
33	0xbe41a589	-0.18910803
34	0xbe580c77	-0.21098505
35	0xbe651949	-0.22372927
36	0xbdb5af8d	-0.08871374
37	0xbeb1a24a	-0.3469413
38	0x3cc84caf	0.024450628
39	0x3e9d4bf4	0.3072201
40	0x3e8839e7	0.26606676
41	0x3e9b23fe	0.30300897
42	0xbee76c8b	-0.452
43	0xbe9941ef	-0.29933116
44	0xbe29fade	-0.16599604
45	0xbe9dc81a	-0.30816728
46	0x3df23415	0.1182634
47	0xbe0554de	-0.13020656
48	0xbee393b1	-0.44448617
49	0xbcf84a42	-0.030308846
50	0xbdf9d818	-0.1219942
51	0x3dd3345f	0.10312723
52	0xbe59b870	-0.21261764
53	0xbe166acb	-0.14689176
54	0xbe8c9769	-0.27459267
55	0xbd3a57db	-0.04549394
56	0x39b846f5	0.00035148082
57	0xbe840d35	-0.25791326
58	0xbec7aab0	-0.38997412
59	0xbe90c3cb	-0.28274378
60	0x3c32cc2f	0.010912939
61	0xbeb35d8d	-0.3503231
62	0x3d491f58	0.049102157
63	0xbe866411	-0.2624822

net_container.2.weight f4 [64, 64]
0	0x3e130aed	0.14359637
1	0xbe2f9ae1	-0.17148925
2	0xbc7b9d65	-0.01535735
3	0xbd67c927	-0.05658832
4	0xbe38d909	-0.18051542
5	0xbd400fb0	-0.04688996
6	0xbd230a8c	-0.03980498
7	0x3e462d02	0.19353107
8	0xbd3901f7	-0.04516789
9	0x3e762fd8	0.24041688
10	0x3dfeea39	0.12447018
11	0x3e88c61b	0.26713642
12	0x3dfa3434	0.12216988
13	0xbcc03f5e	-0.023467716
14	0x3e7ba1ad	0.24573393
15	0xbe822fd2	-0.2542711
16	0x3ca40e04	0.020026214
17	0xbd83b4ee	-0.06430994
18	0xbd7100c4	-0.05883862
19	0xbc827e9c	-0.015929513
20	0xbcbcea91	-0.023061069
21	0x3cfd219b	0.030899813
22	0xbe1fa7a7	-0.15591298
23	0xbe729369	-0.23689045
24	0x3e8cf5c9	0.2753127
25	0x3d946cca	0.07247312
26	0xbea1a878	-0.31573844
27	0xbde730b1	-0.11288584
28	0xbce3d09d	-0.027809436
29	0xbe69effd	-0.22845455
30	0xbdd3e49b	-0.103463374
31	0xbf00b670	-0.5027838
32	0xbe3bf239	-0.1835412
33	0x3ec1b8f7	0.3783643
34	0x3d57dbce	0.052699856
35	0x3e2bcf88	0.16778386
36	0x3de670dd	0.11251996
37	0xbe8cedcf	-0.27525184
38	0x3d93cc4a	0.072166994
39	0xbc909292	-0.017648015
40	0xbcff27cc	-0.031146906
41	0x3cdbd8d6	0.026836794
42	0x3e5ffa4a	0.21872821
43	0x3e365aa9	0.17808022
44	0x3bbd78f9	0.0057822433
45	0x3e087498	0.13325727
46	0xbe71be8c	-0.23607844
47	0x3e98ff44	0.29882252
48	0xbde30a5f	-0.110859625
49	0xbd4b70b1	-0.049668018
50	0x3daf5731	0.08561552
51	0xbc58b82b	-0.013227503
52	0x3cdeebec	0.027212106
53	0xbe1d5f74	-0.15368444
54	0xbc10a5e3	-0.008828613
55	0x3cdf121d	0.027230317
56	0xbe1b2d06	-0.15153894
57	0x3d59f1f3	0.053209256
58	0x3d1551f2	0.036455102
59	0x3ddc83af	0.10767304
60	0xbe9f86fe	-0.31157678
61	0xbbae87ff	-0.0053262706
62	0xbdef486c	-0.11683735
63	0x3d95ef7d	0.073210694
64	0xbd904a1d	-0.07045386
65	0x3df1d4cf	0.11808168
66	0x3d236883	0.039894592
67	0x3dc0365c	0.09385368
68	0x3e37e031	0.17956616
69	0xbda61182	-0.08108808
70	0x3d4b93e4	0.049701586
71	0xbea187c6	-0.315489
72	0x3e00afc4	0.1256705
73	0x3d9848de	0.07435773
74	0xbee9b2df	-0.4564428
75	0x3dae7f7a	0.08520408
76	0x3d37a39f	0.044833776
77	0xbe05ead3	-0.1307786
78	0x3d4209e6	0.04737272
79	0xbc94025e	-0.018067535
80	0xbe153943	-0.14572625
81	0x3d9b18de	0.075731024
82	0x3d0de7d7	0.034644928
83	0xbd9d729b	-0.07687875
84	0xbe174613	-0.14772825
85	0x3e81fda0	0.25388813
86	0xbd383b42	-0.044978388
87	0xbd8a1c31	-0.06743658
88	0x3dd457e5	0.10368327
89	0x3e8c021f	0.27345368
90	0x3dc961e0	0.09833121
91	0xbad94363	-0.0016575869
92	0x3da83b4f	0.08214437
93	0x3e267c07	0.1625825
94	0xbeb56457	-0.35428116
95	0xbe71a84b	-0.23599355
96	0x3eaa5647	0.3326895
97	0xbda2d217	-0.07950228
98	0xbe7d073f	-0.24709795
99	0x3c66550f	0.0140583655
100	0xbe8c290d	-0.2737507
101	0xbd08d0bf	-0.0334022
102	0xbc22820f	-0.009918704
103	0x3e0c26b6	0.13686642
104	0x3e22724a	0.1586391
105	0x3e118716	0.14211687
106	0x3bd3d978	0.0064651333
107	0xbc925e59	-0.017867254
108	0x3e16278d	0.14663525
109	0xbe1eebc1	-0.1551962
110	0xbe213957	-0.1574453
111	0x3c2b6a76	0.010462394
112	0xbcd7a33b	-0.026322952
113	0xbd7451be	-0.059648268
114	0xbc479991	-0.012182609
115	0xbe2db702	-0.16964343
116	0xbe15d9e6	-0.14633903
117	0xbe9a6d2b	-0.30161414
118	0x3d68df99	0.056853864
119	0xbc9c4e1b	-0.019080212
120	0x3d701cdd	0.058621276
121	0x3dbfcb06	0.093648955
122	0xbe82c2f3	-0.2553936
123	0xbe0a1584	-0.1348477
124	0xbd1e9761	-0.038718585
125	0xbe863c3b	-0.26217827
126	0xbd27da94	-0.040979937
127	0xbdf9bf2b	-0.121946655
128	0xbcd38249	-0.02581896
129	0xbe1d732c	-0.15375966
130	0xbe5ab308	-0.21357358
131	0x3e60f92f	0.21970056
132	0xbe53658b	-0.20644204
133	0x3c857ac2	0.016293887
134	0xbe9db695	-0.30803362
135	0xbe0ca782	-0.13735774
136	0xbe70234f	-0.23450969
137	0x3dd511da	0.104037955
138	0xbc1c113d	-0.009525594
139	0xbe16793f	-0.14694689
140	0xbdd14a07	-0.10219198
141	0x3e596285	0.21228988
142	0xbe06e749	-0.13174166
143	0xbe0ea1b6	-0.13928875
144	0xbec25226	-0.379533
145	0xbdcf380e	-0.101181135
146	0x3db2d925	0.08732823
147	0xbe1c6bd8	-0.15275514
148	0x3da0e531	0.07856215
149	0x3d16abc6	0.03678491
150	0xbd95aa7f	-0.0730791
151	0x3dd24ca5	0.10268525
152	0xbcfbb3a3	-0.030725306
153	0x3d279c62	0.040920623
154	0x3d293692	0.041311808
155	0xbcc24835	-0.023716072
156	0xbd96612e	-0.07342754
157	0xbe09d767	-0.13461076
158	0x3e052748	0.13003266
159	0xbdbbb12a	-0.09164651
160	0xbdd0a502	-0.10187723
161	0xbe6a5303	-0.22883229
162	0xbe287d18	-0.1645397
163	0xbb817dd8	-0.0039517693
164	0x3dda5ad7	0.106618576
165	0xbe3a84c6	-0.18214712
166	0xbdfab5bd	-0.12241695
167	0x3db58684	0.088635474
168	0xbe81aa9c	-0.25325477
169	0x3d4a6dd7	0.049421158
170	0xbe8d18c0	-0.27557945
171	0x3c39d1d0	0.011341527
172	0xbad8a788	-0.001652942
173	0x3e39c237	0.18140493
174	0x3dbb3ea4	0.09142807
175	0x3d9b398c	0.075793356
176	0xbd6a3e21	-0.057188157
177	0x3d401381	0.0468936
178	0xbdaf50b8	-0.08560318
179	0xbea82ef2	-0.32848316
180	0xbe098f1d	-0.134335
181	0xbd39bce1	-0.045346145
182	0xbdc0bfd6	-0.0941159
183	0xbe14aa6d	-0.14518137
184	0xbe07ff89	-0.13281073
185	0x3dd4f5f7	0.103984766
186	0x3c906d10	0.01763013
187	0x3e18545b	0.14875929
188	0xbdb856dc	-0.09000942
189	0x3dbba218	0.09161776
190	0x3e129bad	0.14317198
191	0x3d1141c6	0.035463117
192	0xbea31d46	-0.3185827
193	0x3e1db41f	0.15400742
194	0xbe89e1e3	-0.2693015
195	0x3d05f56e	0.032704763
196	0xbaedd35c	-0.0018144655
197	0x3d27a8a4	0.040932313
198	0x3dd4a19b	0.10382386
199	0xbea26625	-0.31718555
200	0xbe0f7223	-0.14008383
201	0xbe9009f7	-0.28132603
202	0xbd698692	-0.057013102
203	0x3e2157c0	0.1575613
204	0x3d17a888	0.03702596
205	0xbba8011b	-0.005127085
206	0xbe0cb46c	-0.137407
207	0xbd9bb35c	-0.076025695
208	0xbedd0c30	-0.4317336
209	0xbead9db9	-0.33909395
210	0x3dc9913d	0.09842155
211	0xbca497a5	-0.020091841
212	0x3d86acdb	0.06575938
213	0xbeda3509	-0.42618588
214	0xbe3fe6fd	-0.18740459
215	0x3d21689e	0.03940641
216	0xbc00b696	-0.007856032
217	0xbe41a610	-0.18911004
218	0xbc228ed1	-0.009921745
219	0xbba889ed	-0.005143395
220	0xbb8588a4	-0.0040751267
221	0x3e06ed1d	0.13176389
222	0xbd9238cd	-0.0713974
223	0xbdb4a1f6	-0.08819954
224	0x3c973a87	0.018460525
225	0xbe80756e	-0.25089592
226	0x3d8307ff	0.063980095
227	0xbe943ed4	-0.28954184
228	0x3e0c7cb5	0.13719447
229	0x3d502872	0.05081982
230	0xbd4fe143	-0.050751936
231	0x3a676c19	0.00088280585
232	0xbe0d260e	-0.13784048
233	0xbd79f274	-0.061022237
234	0xbe2f82eb	-0.17139785
235	0xbc3e4135	-0.011612226
236	0xbddcc78f	-0.1078025
237	0x39f17cc5	0.00046060063
238	0x3d338f5c	0.04383789
239	0xbd003ee7	-0.03130999
240	0xbdb8545a	-0.09000464
241	0xbd552b5b	-0.0520433
242	0x3e8f38a3	0.27972898
243	0xbea4c3a1	-0.32180503
244	0x3cb9d373	0.022683835
245	0xbe66bbb9	-0.22532548
246	0xbe07f3a4	-0.13276535
247	0xbea3aab1	-0.31966165
248	0x3b4f9049	0.0031671694
249	0xbd1d1696	-0.038351618
250	0xbd1722a1	-0.03689826
251	0xbe58393f	-0.21115588
252	0xbc7951f9	-0.015217298
253	0x3c1fe329	0.009758749
254	0x3d180df0	0.037122667
255	0xbd1180c6	-0.0355232

net_container.2.bias f4 [64]
0	0xbeb95043	-0.36194047
1	0xbe52a2a5	-0.20569856
2	0xbe646976	-0.22305855
3	0xbe1b704a	-0.15179554
4	0xbe6628b3	-0.22476463
5	0xbe0da5f0	-0.13832831
6	0xbe6144c0	-0.21998882
7	0x3cbb5083	0.02286554
8	0xbec9b9c1	-0.3939953
9	0x3dfb7d23	0.12279727
10	0xbd580e69	-0.052748118
11	0x3dacc05b	0.084351264
12	0xbeb8372b	-0.3597959
13	0xbd59cde1	-0.053174857
14	0xbeba6874	-0.36407816
15	0x3e8b5f05	0.27220932
16	0x3d997435	0.07492868
17	0xbe867eb7	-0.2626855
18	0x3d09e917	0.033669557
19	0xbe629637	-0.22127615
20	0xbe8355e2	-0.2565146
21	0xbe6b7c8f	-0.22996734
22	0xbbd65605	-0.006541016
23	0x3e32c644	0.17458445
24	0x3dae50cf	0.08511507
25	0x3d580cc0	0.052746534
26	0xbe0fc6c5	-0.14040668
27	0xbd591d95	-0.053006727
28	0x3c9e302c	0.01931008
29	0x3d496b23	0.04917444
30	0xbd84a5c4	-0.0647693
31	0xbe365df9	-0.17809285
32	0x3e1414ec	0.14461106
33	0x3e3fae09	0.18718733
34	0x3dc2222b	0.09479173
35	0x3e116254	0.14197665
36	0xbeef2a63	-0.46712026
37	0xbea22231	-0.3166671
38	0xbdb7e237	-0.08978694
39	0xbe0e7bad	-0.13914366
40	0x3d9eb76c	0.07749829
41	0xbddd02b1	-0.10791529
42	0xbe8712ff	-0.2638168
43	0x3e3cf0ec	0.1845128
44	0xbebbb3f4	-0.3666073
45	0xbcd73cb0	-0.026274055
46	0xbe369462	-0.17830041
47	0x3e86c8a9	0.26324967
48	0xbe527716	-0.2055324
49	0x3e659ebb	0.22423832
50	0x3d307c41	0.043087248
51	0xbcd9bf04	-0.026580341
52	0x3e8c3bec	0.27389467
53	0xbea1d2ec	-0.31606233
54	0xbe54188f	-0.20712493
55	0x3e239e7f	0.1597843
56	0xbed22340	-0.4104252
57	0xbd9553ec	-0.072913975
58	0xbda10446	-0.07862143
59	0xbcb4c8eb	-0.022068461
60	0xbe117768	-0.14205706
61	0xbef5f4a3	-0.48038206
62	0xbecb0940	-0.39655495
63	0xbbcbf8e9	-0.0062247408

policy_layer.weight f4 [7, 64]
0	0x3e928269	0.2861512
1	0xbbf36497	-0.0074277627
2	0xbdf8af51	-0.12142814
3	0xbe17ea85	-0.14835556
4	0xbd866897	-0.06562918
5	0xbcde3e56	-0.027129333
6	0xbd851813	-0.064987324
7	0x3d4b7837	0.049675193
8	0xbd4fe6cd	-0.05075722
9	0x3e134d7a	0.14385024
10	0x3e4e8433	0.20167617
11	0x3e0ea5bd	0.13930412
12	0xbdbc1a2e	-0.09184681
13	0xbe8d173e	-0.27556795
14	0x3d44c03f	0.048034903
15	0xbd2ecaec	-0.04267399
16	0xbda1d807	-0.07902532
17	0xbdbf1b82	-0.093314186
18	0x3d3f55f1	0.04671282
19	0x3e20790e	0.15671179
20	0xbdd6cf8c	-0.10488805
21	0xbd9f3c2a	-0.07775147
22	0x3dd13b54	0.10216394
23	0x3cf0721b	0.029351285
24	0x3dc92e06	0.098232314
25	0xbe9b9788	-0.30389047
26	0xbe68c8a2	-0.22732785
27	0xba5cb281	-0.0008418933
28	0xbe6ac6b2	-0.22927359
29	0x3dc45636	0.09586756
30	0xbd9b363b	-0.07578703
31	0xbc7cdce2	-0.015433522
32	0xbcef4dd7	-0.029211922
33	0x3e244c45	0.1604472
34	0x3e5255ef	0.20540594
35	0xbe082790	-0.13296342
36	0x3d0cd203	0.03437997
37	0x3d329b29	0.043605004
38	0xbde9f8f0	-0.11424434
39	0xbe9dae39	-0.30796984
40	0x3e1e9cf9	0.15489568
41	0xbe2a1c77	-0.16612421
42	0xbd55431f	-0.052065965
43	0xbc3ce6d1	-0.01152964
44	0xbdef0b28	-0.1167205
45	0xbe298a3e	-0.16556641
46	0xbda8dc6e	-0.082451686
47	0x3dc54c9e	0.09633754
48	0x3dabf4a4	0.08396271
49	0x3b813e31	0.0039441814
50	0xbd554d59	-0.052075718
51	0xbc6f793b	-0.014616306
52	0xbc9bfb81	-0.019040825
53	0x3d2bcbf7	0.041942563
54	0x39b51c15	0.00034543933
55	0xbdd3d3e5	-0.1034315
56	0x3e993384	0.29922116
57	0x3e1f77a8	0.15572989
58	0x3bee04d4	0.007263759
59	0xbdbf1d87	-0.09331804
60	0xbcfa9cc2	-0.030592326
61	0xbcecda56	-0.028912704
62	0x3e911a22	0.2834025
63	0xbe172889	-0.14761557
64	0xbd96499d	-0.07338259
65	0xbd27d967	-0.040978815
66	0xbe81fa53	-0.25386295
67	0xbde7b008	-0.11312872
68	0xbe176c77	-0.1478747
69	0x3d04c054	0.03240998
70	0x3dd4e7e1	0.1039579
71	0xbcd9bdc5	-0.026579747
72	0xbd094d26	-0.03352084
73	0x3df55063	0.11978223
74	0xbd100186	-0.035157703
75	0x3dc97131	0.09836043
76	0xbbf0f67a	-0.007353601
77	0x3dcba681	0.099438675
78	0x3ddd227b	0.10797592
79	0xbd53e5e5	-0.051732916
80	0xbca32d3e	-0.019919034
81	0x3cfcf508	0.030878559
82	0xbd720d16	-0.05909451
83	0x3c499c6a	0.012305358
84	0xbd931a1e	-0.07182716
85	0xbe3d0b18	-0.18461263
86	0x3da5dcdf	0.080987684
87	0x3db71992	0.08940424
88	0x3dada1e1	0.084781416
89	0xbda7820f	-0.081791036
90	0x3de2af40	0.110685825
91	0xbdfca17e	-0.1233549
92	0x3c9d15af	0.019175379
93	0x3d0a609b	0.033783536
94	0xbe909e6a	-0.2824586
95	0xbe46d7bf	-0.19418238
96	0x3d60988f	0.05483299
97	0x3dd4bc4e	0.10387479
98	0x3e1cb477	0.15303217
99	0x3b03edbf	0.0020130721
100	0xbd5fc0e5	-0.054627318
101	0xbd64a356	-0.05581983
102	0x3e81c14a	0.2534278
103	0xbc841675	-0.01612399
104	0x3e4327c4	0.19058138
105	0xbcd842e2	-0.02639908
106	0x3e04f0ab	0.12982433
107	0x3e0fc698	0.14040601
108	0x3d5ca037	0.05386373
109	0x3e0f1f5a	0.13976803
110	0x3e221178	0.15826976
111	0x3bd4d672	0.0064952904
112	0xbbfcd823	-0.007716195
113	0x3d900889	0.07032878
114	0x3d7b7e6f	0.061399873
115	0x3bc34619	0.005959284
116	0xbd3fdf16	-0.04684361
117	0xbda63c0d	-0.081169225
118	0xbcc00932	-0.023441885
119	0x3e332774	0.17495519
120	0xbe27ab50	-0.16373944
121	0xbd0a3510	-0.03374201
122	0xbd0cf6a1	-0.03441489
123	0x3d2b48f3	0.041817617
124	0xbcaeb369	-0.021325784
125	0x3cb19669	0.021678166
126	0xbe4c03fd	-0.19923396
127	0xbd5eb4c1	-0.0543716
128	0x3e9e7b12	0.3095327
129	0x3dac6c24	0.08419064
130	0xbd2657ae	-0.04061096
131	0xbe14ea20	-0.14542437
132	0x3d1034e4	0.03520669
133	0xbcfcd7ce	-0.030864622
134	0x3c737ca2	0.014861258
135	0x3dfa9625	0.12235669
136	0x3d3c40b1	0.045960132
137	0x3d028c76	0.031872235
138	0x3e5f68ef	0.21817373
139	0x3bad8476	0.0052953316
140	0x3c0ac366	0.008469438
141	0xbeaa8355	-0.33303323
142	0xbdbe353b	-0.09287497
143	0xbe29f6db	-0.16598074
144	0x3d54a3f9	0.05191419
145	0xbd9247b1	-0.0714258
146	0xbe3a4696	-0.18190989
147	0x3e230c22	0.15922597
148	0xbd5958f3	-0.053063344
149	0x3c0ba62c	0.008523505
150	0xbd6a8b14	-0.05726154
151	0x3c58bb9c	0.013228323
152	0x3b33cfc9	0.0027437082
153	0xbe13e263	-0.14441828
154	0xbe668860	-0.2251296
155	0x3daf75b6	0.085673735
156	0x3dbb8fb5	0.09158269
157	0xbdd6309e	-0.10458492
158	0x3d227c1b	0.039669137
159	0xbdb1150f	-0.08646595
160	0xbc97f26b	-0.018548211
161	0x3d9ba27c	0.07599351
162	0x3e3034a0	0.17207575
163	0x3c81b917	0.015835328
164	0x3d518788	0.051154643
165	0x3e2d7c2a	0.16941896
166	0xbd7ec6c6	-0.062201284
167	0xbe900c78	-0.28134513
168	0x3e80dbbf	0.25167653
169	0xbcea13d0	-0.0285739
170	0xbb5ee25f	-0.003400944
171	0x3e0f1d63	0.13976054
172	0xbe5b6a2c	-0.2142722
173	0xbc6d6f11	-0.014491812
174	0x3bded8a8	0.00680073
175	0xbd2867d9	-0.04111466
176	0xbdfe6120	-0.12420869
177	0xbd0f9dde	-0.035062663
178	0x3b294b16	0.0025832108
179	0xbd2d950e	-0.042378478
180	0x3d0483cf	0.032352265
181	0xbd9460fd	-0.072450615
182	0xbd8d0f71	-0.06887711
183	0xbe0be0b9	-0.13659944
184	0x3e6175b5	0.22017558
185	0x3dd4d52d	0.103922226
186	0x3d4e5c47	0.05038097
187	0xbd399f62	-0.045318015
188	0xbdf50cc9	-0.11965329
189	0x3b099555	0.002099355
190	0xbda9e5fa	-0.08295818
191	0xbe08100e	-0.13287374
192	0xbd6e3569	-0.058156405
193	0x3d88f6ff	0.06687736
194	0x3de0e33a	0.1098084
195	0xbcbcfdad	-0.02307018
196	0xbdc2340e	-0.09482585
197	0xbe4c6645	-0.19960888
198	0xbeb23d82	-0.34812552
199	0x3c541c56	0.012946209
200	0xbe2a9792	-0.16659382
201	0xbbb894b6	-0.005632962
202	0x3da8357a	0.08213325
203	0x3b6258cd	0.0034537793
204	0xbdeedb08	-0.11662871
205	0xbe008807	-0.1255189
206	0xbe41cb07	-0.18925105
207	0x3ce49246	0.02790178
208	0x3d058459	0.03259692
209	0xbcec8000	-0.028869629
210	0x3e20ca9e	0.15702292
211	0xbe6268ba	-0.22110263
212	0xbd745d91	-0.059659544
213	0xbd764fd0	-0.06013471
214	0xbcc085be	-0.023501273
215	0x3de513bc	0.11185405
216	0xbdccafad	-0.09994445
217	0xbe1cb710	-0.15304208
218	0xbed0c6b2	-0.40776592
219	0xbdf56f92	-0.11984171
220	0x3cbbdda2	0.022932831
221	0x3e6ff3d5	0.23432858
222	0xbc2e4224	-0.010635886
223	0x3e2ef4e0	0.170856
224	0x3da54c32	0.08071174
225	0x3dcdc1d1	0.10046733
226	0xbdf22637	-0.11823695
227	0x3d72f8f6	0.05931946
228	0xbca930ee	-0.020653214
229	0xbdef0936	-0.11671679
230	0x3cf384b0	0.029726356
231	0xbc1ce608	-0.009576328
232	0x3d901b05	0.070364036
233	0xbd99014d	-0.07470951
234	0xbe51e3ba	-0.20497027
235	0xba9d3aa6	-0.0011995628
236	0x3ceb264d	0.028704787
237	0x3df61102	0.12014963
238	0xbd43dee6	-0.047819994
239	0x3d3f6d49	0.04673508
240	0x3d39d10b	0.045365375
241	0xbcc05882	-0.023479704
242	0x3e495b0e	0.19663641
243	0x3d616df0	0.055036485
244	0x3d947acb	0.072499834
245	0xbdafb5aa	-0.085795715
246	0x3d4dde5a	0.05026088
247	0x3d8511a3	0.064975046
248	0xbe08b4d4	-0.1335023
249	0xbdb8e4da	-0.09028025
250	0x3d98c962	0.07460286
251	0xbd8e7977	-0.06956761
252	0xbd9f8afa	-0.077901796
253	0xbe019939	-0.12656106
254	0xbe61e4fc	-0.22060007
255	0x3b11c0a2	0.0022240062

policy_layer.bias f4 [7]
0	0x3d7b7719	0.061392877
1	0x3d78aefd	0.060713757
2	0xbd4a1381	-0.049335007
3	0x3e919358	0.28432727
4	0xbd09ab5b	-0.033610683
5	0xbdc3f856	-0.09568851
6	0x3d482bf4	0.048870042

value_layer.weight f4 [1, 64]
0	0xbc1ccf68	-0.009570934
1	0xbc0fcb6b	-0.008776526
2	0x3af28632	0.0018503128
3	0xbc3d356f	-0.011548384
4	0x3d19f9fc	0.03759192
5	0xbdde9a54	-0.108692795
6	0x3d11930f	0.035540637
7	0x3d01d97e	0.031701557
8	0xbe182ea9	-0.1486155
9	0x3b3633c5	0.0027801853
10	0x3d4fba61	0.050714854
11	0xbce32ce1	-0.02773136
12	0xbdb7e96c	-0.089800686
13	0x3d2713ba	0.040790297
14	0xbcf79bb6	-0.030225616
15	0x3cb06372	0.021531794
16	0xbdfa4d6e	-0.122218
17	0xbcc48e0d	-0.023993516
18	0x398ec332	0.00027229782
19	0xbcf764c4	-0.030199416
20	0xbccca4f3	-0.024980998
21	0x3d1f5b59	0.038905475
22	0x3c0f8b06	0.008761173
23	0x3c80479a	0.015659142
24	0x3d7310b2	0.059342094
25	0xbcbbe597	-0.022936625
26	0xbcbb90c8	-0.022896186
27	0xbc240bbd	-0.010012564
28	0xbc9b60f8	-0.018967137
29	0x3bfd3ab6	0.007727946
30	0x3c879cdd	0.01655429
31	0x3c805df8	0.015669808
32	0xbca382e4	-0.019959874
33	0x3c94b127	0.01815088
34	0x3d2a6fc8	0.04161051
35	0x3c3e8d70	0.011630401
36	0xbd18e52a	-0.037327923
37	0xbe351ae0	-0.17686033
38	0xbd0531e6	-0.03251829
39	0xbcfca2ab	-0.030839285
40	0x3cdd443a	0.027010072
41	0x3a4c9eb0	0.00078056287
42	0xbe19e458	-0.15028512
43	0x3e0672bb	0.13129704
44	0xbca8ac99	-0.020590113
45	0x3bc8e153	0.0061303764
46	0xbc1ba199	-0.009498977
47	0x3c0c1d9d	0.008551982
48	0x3de14e71	0.1100129
49	0x3c30ece6	0.0107986685
50	0xbc7f7209	-0.015591153
51	0xbccce6fe	-0.02501249
52	0x3d8c5e35	0.06853906
53	0xbd154f17	-0.03645238
54	0xbc95ecf6	-0.018301468
55	0xbb231f7b	-0.002489059
56	0xbc8969d5	-0.016774097
57	0xbd3ae23f	-0.04562592
58	0x3cd15d14	0.025557078
59	0x3c9988fe	0.01874208
60	0x3c4c7ebd	0.012481389
61	0xbde16185	-0.110049285
62	0xbcd2c945	-0.025730738
63	0x3ce7154e	0.028208401

log_std_parameter f4 [7]
0	0xbf74146f	-0.9534368
1	0xbfa7e12f	-1.3115596
2	0xbf8a3358	-1.0796919
3	0xbfb4e98a	-1.413377
4	0xbf80ca52	-1.0061743
5	0xbf76f058	-0.96460485
6	0xbf7add55	-0.97993976

net_container.0.weight f4 [64, 32]
0	0xbec40e7c	-0.382923
1	0x3e100384	0.14063841
2	0xbebe654e	-0.37186664
3	0xbe1a8640	-0.15090275
4	0x3d9c4f2c	0.07632288
5	0xbd7d074c	-0.061774537
6	0x3e81a422	0.25320536
7	0xbd1f2e81	-0.03886271
8	0x3bf9071a	0.0075997235
9	0xbe562740	-0.2091341
10	0x3e2b193a	0.16708842
11	0xbe8a0f36	-0.2696473
12	0x3a9fa7b0	0.0012180712
13	0x3dadcdbd	0.08486507
14	0x3c44392e	0.011976523
15	0xbe44756f	-0.19185422
16	0x3e0e3731	0.13888241
17	0xbcd759d5	-0.026287952
18	0x3eaa99bf	0.33320424
19	0x3e59cc8e	0.21269438
20	0x3dbdcba7	0.09267359
21	0x3ec45fd9	0.38354376
22	0xbe7dbf7f	-0.24780081
23	0xbe9213ea	-0.28530818
24	0xbe3aa1b4	-0.18225747
25	0xbd6bf765	-0.05760898
26	0x3dcc73e8	0.09983045
27	0xbb3beeaf	-0.0028676202
28	0x3d695f61	0.056975726
29	0xbda07e93	-0.07836642
30	0xbd70e3fc	-0.058811173
31	0xbe2f768d	-0.17135067
32	0xbdbbc42b	-0.091682754
33	0xbe5bb168	-0.21454394
34	0xbe61a06c	-0.22033852
35	0xbe5d9dbd	-0.21642204
36	0xbd3bdd77	-0.045865502
37	0xbcaadccf	-0.020857243
38	0xbe17db09	-0.14829649
39	0x3c8a503c	0.016883962
40	0x3d23367a	0.039846875
41	0xbd476fcb	-0.0486906
42	0xbe000762	-0.12502816
43	0xbc2a05ec	-0.010377388
44	0x3da5ec17	0.08101671
45	0x3d5f1389	0.05446199
46	0xbe267f9d	-0.16259618
47	0xbe1fa8e2	-0.15591767
48	0xbd8c4d66	-0.068507
49	0xbdae6474	-0.08515254
50	0xbdee411b	-0.11633512
51	0x3dc161a9	0.09442455
52	0xbebd4957	-0.36970016
53	0xbeef1340	-0.46694374
54	0xbf04cbaf	-0.51873296
55	0x3ed2fc48	0.412081
56	0xbf1a8a4d	-0.6036728
57	0x3e82deab	0.25560507
58	0xbcd126ca	-0.025531191
59	0xbc6aa696	-0.014321944
60	0xbda546e2	-0.080701604
61	0xbde5facd	-0.11229477
62	0x3d797326	0.06090083
63	0xbd2efa9e	-0.042719476
64	0xbe608cb2	-0.21928671
65	0xbe49aab0	-0.19694018
66	0xbe7856fe	-0.24251935
67	0x3e440e58	0.19146097
68	0xbce83643	-0.028346187
69	0x3e0e3d14	0.13890487
70	0x3e1d0ac5	0.1533614
71	0x3decd252	0.11563553
72	0xbcd4bd6f	-0.025969235
73	0xbd7ea175	-0.062165696
74	0xbe6fbf01	-0.23412706
75	0x3dafdfa1	0.08587576
76	0x3e30c0f3	0.17261104
77	0xbd787ec5	-0.06066777
78	0xbc3434de	-0.010998933
79	0xbd0e4b1c	-0.0347396
80	0x3dec62e9	0.11542303
81	0x3ae45e4f	0.0017423126
82	0x3e7a3f21	0.24438144
83	0x3ef81bf5	0.4845883
84	0xbf09aaf9	-0.5377651
85	0xbe92fac9	-0.2870696
86	0x3b02fe40	0.001998797
87	0x3e1b710e	0.15179846
88	0xbd9053e0	-0.07047248
89	0xbce188fc	-0.02753114
90	0xbda488fd	-0.08033941
91	0x3d2a177c	0.041526303
92	0xbdd61295	-0.10452763
93	0x3dee0bbc	0.11623332
94	0xbd76f946	-0.06029632
95	0x3c5fbd1c	0.013655927
96	0x3dc97dd7	0.09838455
97	0xbd89048f	-0.066903226
98	0xbdc55de4	-0.09637049
99	0xbe2dc1e6	-0.16968498
100	0x3e0c5f6f	0.1370828
101	0x3e494ec0	0.19658947
102	0xbde38de1	-0.11111046
103	0xbd02b9ba	-0.031915404
104	0x3d206138	0.039155215
105	0xbcb6022f	-0.022217838
106	0x3e10509f	0.14093255
107	0x3c903210	0.017601997
108	0xbd519915	-0.05117138
109	0xbe0d6a75	-0.13810141
110	0xbc174d85	-0.009234791
111	0x3d91f0d4	0.071260124
112	0x3d2ed7bb	0.042686205
113	0xbb293868	-0.0025820974
114	0xbecd7e90	-0.40135622
115	0xbe52f500	-0.20601273
116	0x3f194cc0	0.59882736
117	0xbec835b6	-0.39103478
118	0x3ea4f344	0.32216847
119	0x3e9689b8	0.29401946
120	0x3eb0b7ba	0.34515172
121	0xbe0f837f	-0.14015006
122	0xbde9451d	-0.113901354
123	0xbe2113b5	-0.15730174
124	0x3da08426	0.07837705
125	0x3e07c6c4	0.13259417
126	0x3c0fc60a	0.008775244
127	0xbd2711b0	-0.040788352
128	0xbe0858a8	-0.1331507
129	0xbe48e3f1	-0.19618203
130	0xbc814e31	-0.015784355
131	0xbe0fedd3	-0.14055566
132	0xbdbcf083	-0.092255615
133	0x3c16c0cc	0.00920124
134	0xbd3b9591	-0.045796935
135	0xbd075379	-0.03303859
136	0x3d229e6e	0.03970187
137	0xbdd3e39d	-0.10346148
138	0xbd645a78	-0.05575034
139	0x3c24b155	0.010052045
140	0xbe55b4ca	-0.20869747
141	0x3dd75f54	0.10516229
142	0xbd035c35	-0.032070357
143	0x3cae4b61	0.021276178
144	0xbdb60f70	-0.08889663
145	0xbe0cfc64	-0.13768154
146	0x3ec5e219	0.3864906
147	0xbe2b5654	-0.1673215
148	0x3f0d7661	0.55258757
149	0xbee3c483	-0.44485864
150	0xbed676f4	-0.4188763
151	0x3f11196b	0.5667941
152	0xbf01d689	-0.5071798
153	0x3b038a52	0.002007146
154	0x3cc996eb	0.024608096
155	0xbc06bdb0	-0.008223936
156	0x3e2dbdd9	0.16966952
157	0x3d840276	0.06445782
158	0xbd32b7eb	-0.04363243
159	0xbe557eda	-0.20849171
160	0xbe260cf1	-0.16215874
161	0xbeb66552	-0.35624176
162	0x3d4d3838	0.050102443
163	0x3c2243c9	0.009903857
164	0x3dbcb138	0.09213489
165	0xbe6eaf12	-0.23308972
166	0xbe281b84	-0.16416746
167	0x3df3dc30	0.11907232
168	0xbd28973f	-0.041159865
169	0xbd808730	-0.06275785
170	0xbe49ce35	-0.19707568
171	0x3ce6bda0	0.028166592
172	0x3d8987b7	0.06715339
173	0x3d8531ff	0.065036766
174	0x3c76e8be	0.0150701385
175	0xbd858d4f	-0.06521093
176	0xbb4976d9	-0.0030741005
177	0x3d95f6c4	0.073224574
178	0x3e986517	0.29764625
179	0x3d199528	0.037495762
180	0xbdb27974	-0.087145716
181	0x3e22c297	0.15894543
182	0x3cf16d59	0.029471086
183	0xbc4e0d5a	-0.012576425
184	0x3cc26fb3	0.023734903
185	0x3cd6ccf8	0.026220784
186	0x3c095d6d	0.008384091
187	0xbc0177e3	-0.007902118
188	0xbdd95248	-0.10611397
189	0xbdcee8c1	-0.10102988
190	0xbded857a	-0.11597724
191	0x3dd80a3f	0.10548829
192	0xbc589bef	-0.013220771
193	0xbe8f2f82	-0.27965933
194	0x3d9a93ad	0.07547698
195	0x3d0a0f9a	0.033706285
196	0xbcae8049	-0.021301406
197	0x3ea00f9b	0.31261906
198	0xbe82a20d	-0.2551426
199	0xbe07e571	-0.13271119
200	0x3d655874	0.05599256
201	0xbe1d4c63	-0.1536117
202	0x3dfc0b2c	0.12306818
203	0xbe01e23c	-0.12683958
204	0xbdae1dfa	-0.08501811
205	0x3d9d0049	0.0766607
206	0x3de7a958	0.11311597
207	0x3e672f09	0.22576536
208	0xbe0724ad	-0.13197584
209	0xbd19a9df	-0.037515517
210	0xbd07b69f	-0.033133145
211	0x3e03b697	0.12862621
212	0xbf23f409	-0.64044243
213	0xbea9dc09	-0.33175686
214	0xbf0daa2d	-0.5533779
215	0x3eba9182	0.3643914
216	0xbeb8a9aa	-0.36066943
217	0xbde299d7	-0.11064499
218	0x3b9efb5f	0.004851743
219	0x3c529941	0.012853921
220	0xbb5955bd	-0.0033162676
221	0x3d81f2e2	0.06345154
222	0xbde85481	-0.11344243
223	0x3d2b5485	0.04182865
224	0xbe96594e	-0.2936501
225	0xbeb334f3	-0.35001335
226	0xbf05c8cb	-0.5225951
227	0x3d1db1ec	0.038499758
228	0x3e4fc9fc	0.20291895
229	0x3e23c8cf	0.15994571
230	0x3ea3a1c4	0.31959355
231	0x3ce7d497	0.028299613
232	0xbd6f683a	-0.058449008
233	0xbe6dcece	-0.23223421
234	0xbe8fcc0f	-0.28085372
235	0xbdf28d03	-0.11843302
236	0xbdb9fffe	-0.0908203
237	0xbd111fb4	-0.035430625
238	0xbc29adb4	-0.010356355
239	0xbcfec63e	-0.031100389
240	0xbd9b5dd6	-0.07586257
241	0x3e0ca24a	0.13733783
242	0x3eb3fb1d	0.35152522
243	0x3e54d273	0.20783405
244	0x3e059897	0.1304649
245	0xbd9ab71c	-0.075544566
246	0xbf6a975b	-0.916372
247	0xbe105f52	-0.14098862
248	0xbf677ccd	-0.90424806
249	0x3d93c129	0.07214577
250	0x3e05c967	0.1306511
251	0x3c80a325	0.015702793
252	0xbd9cd1d2	-0.076572075
253	0x3e076f22	0.13225988
254	0xbda4c65b	-0.08045646
255	0x3ea0463c	0.31303585

net_container.0.bias f4 [64]
0	0x3e0ec97c	0.13944048
1	0x3e5862a3	0.21131377
2	0x3e837400	0.25674438
3	0x3e838b4b	0.2569221
4	0xbc79146a	-0.015202621
5	0x3dde2507	0.10846906
6	0x3e64d2cf	0.22346042
7	0xbe1ac206	-0.15113077
8	0x3e286deb	0.1644818
9	0xbeb3f495	-0.3514754
10	0xbcdb70ad	-0.026787126
11	0x3e5beba0	0.21476603
12	0xbe8532ec	-0.26015413
13	0xbe93e4b7	-0.28885433
14	0x3e2eb122	0.17059758
15	0xbd10b97d	-0.035333145
16	0xbe129769	-0.14315571
17	0xbe934d6d	-0.2877001
18	0x3d178ba0	0.03699839
19	0xbe46dddb	-0.19420569
20	0xbeb0ace6	-0.3450691
21	0xbe26eae1	-0.16300537
22	0x3d67284c	0.056434914
23	0x3dbd02d7	0.09229057
24	0x3df6fe01	0.12060166
25	0xbf00ea3e	-0.50357425
26	0x3e2a0e94	0.16607124
27	0x3ebc0db9	0.3672922
28	0xbe1d7672	-0.15377215
29	0xbd5e048d	-0.05420356
30	0x3c779c4b	0.015112947
31	0xbe6da43a	-0.23207179
32	0xbe8674d5	-0.2626101
33	0xbe41a589	-0.18910803
34	0xbe580c77	-0.21098505
35	0xbe651949	-0.22372927
36	0xbdb5af8d	-0.08871374
37	0xbeb1a24a	-0.3469413
38	0x3cc84caf	0.024450628
39	0x3e9d4bf4	0.3072201
40	0x3e8839e7	0.26606676
41	0x3e9b23fe	0.30300897
42	0xbee76c8b	-0.452
43	0xbe9941ef	-0.29933116
44	0xbe29fade	-0.16599604
45	0xbe9dc81a	-0.30816728
46	0x3df23415	0.1182634
47	0xbe0554de	-0.13020656
48	0xbee393b1	-0.44448617
49	0xbcf84a42	-0.030308846
50	0xbdf9d818	-0.1219942
51	0x3dd3345f	0.10312723
52	0xbe59b870	-0.21261764
53	0xbe166acb	-0.14689176
54	0xbe8c9769	-0.27459267
55	0xbd3a57db	-0.04549394
56	0x39b846f5	0.00035148082
57	0xbe840d35	-0.25791326
58	0xbec7aab0	-0.38997412
59	0xbe90c3cb	-0.28274378
60	0x3c32cc2f	0.010912939
61	0xbeb35d8d	-0.3503231
62	0x3d491f58	0.049102157
63	0xbe866411	-0.2624822

net_container.2.weight f4 [64, 64]
0	0x3e130aed	0.14359637
1	0xbe2f9ae1	-0.17148925
2	0xbc7b9d65	-0.01535735
3	0xbd67c927	-0.05658832
4	0xbe38d909	-0.18051542
5	0xbd400fb0	-0.04688996
6	0xbd230a8c	-0.03980498
7	0x3e462d02	0.19353107
8	0xbd3901f7	-0.04516789
9	0x3e762fd8	0.24041688
10	0x3dfeea39	0.12447018
11	0x3e88c61b	0.26713642
12	0x3dfa3434	0.12216988
13	0xbcc03f5e	-0.023467716
14	0x3e7ba1ad	0.24573393
15	0xbe822fd2	-0.2542711
16	0x3ca40e04	0.020026214
17	0xbd83b4ee	-0.06430994
18	0xbd7100c4	-0.05883862
19	0xbc827e9c	-0.015929513
20	0xbcbcea91	-0.023061069
21	0x3cfd219b	0.030899813
22	0xbe1fa7a7	-0.15591298
23	0xbe729369	-0.23689045
24	0x3e8cf5c9	0.2753127
25	0x3d946cca	0.07247312
26	0xbea1a878	-0.31573844
27	0xbde730b1	-0.11288584
28	0xbce3d09d	-0.027809436
29	0xbe69effd	-0.22845455
30	0xbdd3e49b	-0.103463374
31	0xbf00b670	-0.5027838
32	0xbe3bf239	-0.1835412
33	0x3ec1b8f7	0.3783643
34	0x3d57dbce	0.052699856
35	0x3e2bcf88	0.16778386
36	0x3de670dd	0.11251996
37	0xbe8cedcf	-0.27525184
38	0x3d93cc4a	0.072166994
39	0xbc909292	-0.017648015
40	0xbcff27cc	-0.031146906
41	0x3cdbd8d6	0.026836794
42	0x3e5ffa4a	0.21872821
43	0x3e365aa9	0.17808022
44	0x3bbd78f9	0.0057822433
45	0x3e087498	0.13325727
46	0xbe71be8c	-0.23607844
47	0x3e98ff44	0.29882252
48	0xbde30a5f	-0.110859625
49	0xbd4b70b1	-0.049668018
50	0x3daf5731	0.08561552
51	0xbc58b82b	-0.013227503
52	0x3cdeebec	0.027212106
53	0xbe1d5f74	-0.15368444
54	0xbc10a5e3	-0.008828613
55	0x3cdf121d	0.027230317
56	0xbe1b2d06	-0.15153894
57	0x3d59f1f3	0.053209256
58	0x3d1551f2	0.036455102
59	0x3ddc83af	0.10767304
60	0xbe9f86fe	-0.31157678
61	0xbbae87ff	-0.0053262706
62	0xbdef486c	-0.11683735
63	0x3d95ef7d	0.073210694
64	0xbd904a1d	-0.07045386
65	0x3df1d4cf	0.11808168
66	0x3d236883	0.039894592
67	0x3dc0365c	0.09385368
68	0x3e37e031	0.17956616
69	0xbda61182	-0.08108808
70	0x3d4b93e4	0.049701586
71	0xbea187c6	-0.315489
72	0x3e00afc4	0.1256705
73	0x3d9848de	0.07435773
74	0xbee9b2df	-0.4564428
75	0x3dae7f7a	0.08520408
76	0x3d37a39f	0.044833776
77	0xbe05ead3	-0.1307786
78	0x3d4209e6	0.04737272
79	0xbc94025e	-0.018067535
80	0xbe153943	-0.14572625
81	0x3d9b18de	0.075731024
82	0x3d0de7d7	0.034644928
83	0xbd9d729b	-0.07687875
84	0xbe174613	-0.14772825
85	0x3e81fda0	0.25388813
86	0xbd383b42	-0.044978388
87	0xbd8a1c31	-0.06743658
88	0x3dd457e5	0.10368327
89	0x3e8c021f	0.27345368
90	0x3dc961e0	0.09833121
91	0xbad94363	-0.0016575869
92	0x3da83b4f	0.08214437
93	0x3e267c07	0.1625825
94	0xbeb56457	-0.35428116
95	0xbe71a84b	-0.23599355
96	0x3eaa5647	0.3326895
97	0xbda2d217	-0.07950228
98	0xbe7d073f	-0.24709795
99	0x3c66550f	0.0140583655
100	0xbe8c290d	-0.2737507
101	0xbd08d0bf	-0.0334022
102	0xbc22820f	-0.009918704
103	0x3e0c26b6	0.13686642
104	0x3e22724a	0.1586391
105	0x3e118716	0.14211687
106	0x3bd3d978	0.0064651333
107	0xbc925e59	-0.017867254
108	0x3e16278d	0.14663525
109	0xbe1eebc1	-0.1551962
110	0xbe213957	-0.1574453
111	0x3c2b6a76	0.010462394
112	0xbcd7a33b	-0.026322952
113	0xbd7451be	-0.059648268
114	0xbc479991	-0.012182609
115	0xbe2db702	-0.16964343
116	0xbe15d9e6	-0.14633903
117	0xbe9a6d2b	-0.30161414
118	0x3d68df99	0.056853864
119	0xbc9c4e1b	-0.019080212
120	0x3d701cdd	0.058621276
121	0x3dbfcb06	0.093648955
122	0xbe82c2f3	-0.2553936
123	0xbe0a1584	-0.1348477
124	0xbd1e9761	-0.038718585
125	0xbe863c3b	-0.26217827
126	0xbd27da94	-0.040979937
127	0xbdf9bf2b	-0.121946655
128	0xbcd38249	-0.02581896
129	0xbe1d732c	-0.15375966
130	0xbe5ab308	-0.21357358
131	0x3e60f92f	0.21970056
132	0xbe53658b	-0.20644204
133	0x3c857ac2	0.016293887
134	0xbe9db695	-0.30803362
135	0xbe0ca782	-0.13735774
136	0xbe70234f	-0.23450969
137	0x3dd511da	0.104037955
138	0xbc1c113d	-0.009525594
139	0xbe16793f	-0.14694689
140	0xbdd14a07	-0.10219198
141	0x3e596285	0.21228988
142	0xbe06e749	-0.13174166
143	0xbe0ea1b6	-0.13928875
144	0xbec25226	-0.379533
145	0xbdcf380e	-0.101181135
146	0x3db2d925	0.08732823
147	0xbe1c6bd8	-0.15275514
148	0x3da0e531	0.07856215
149	0x3d16abc6	0.03678491
150	0xbd95aa7f	-0.0730791
151	0x3dd24ca5	0.10268525
152	0xbcfbb3a3	-0.030725306
153	0x3d279c62	0.040920623
154	0x3d293692	0.041311808
155	0xbcc24835	-0.023716072
156	0xbd96612e	-0.07342754
157	0xbe09d767	-0.13461076
158	0x3e052748	0.13003266
159	0xbdbbb12a	-0.09164651
160	0xbdd0a502	-0.10187723
161	0xbe6a5303	-0.22883229
162	0xbe287d18	-0.1645397
163	0xbb817dd8	-0.0039517693
164	0x3dda5ad7	0.106618576
165	0xbe3a84c6	-0.18214712
166	0xbdfab5bd	-0.12241695
167	0x3db58684	0.088635474
168	0xbe81aa9c	-0.25325477
169	0x3d4a6dd7	0.049421158
170	0xbe8d18c0	-0.27557945
171	0x3c39d1d0	0.011341527
172	0xbad8a788	-0.001652942
173	0x3e39c237	0.18140493
174	0x3dbb3ea4	0.09142807
175	0x3d9b398c	0.075793356
176	0xbd6a3e21	-0.057188157
177	0x3d401381	0.0468936
178	0xbdaf50b8	-0.08560318
179	0xbea82ef2	-0.32848316
180	0xbe098f1d	-0.134335
181	0xbd39bce1	-0.045346145
182	0xbdc0bfd6	-0.0941159
183	0xbe14aa6d	-0.14518137
184	0xbe07ff89	-0.13281073
185	0x3dd4f5f7	0.103984766
186	0x3c906d10	0.01763013
187	0x3e18545b	0.14875929
188	0xbdb856dc	-0.09000942
189	0x3dbba218	0.09161776
190	0x3e129bad	0.14317198
191	0x3d1141c6	0.035463117
192	0xbea31d46	-0.3185827
193	0x3e1db41f	0.15400742
194	0xbe89e1e3	-0.2693015
195	0x3d05f56e	0.032704763
196	0xbaedd35c	-0.0018144655
197	0x3d27a8a4	0.040932313
198	0x3dd4a19b	0.10382386
199	0xbea26625	-0.31718555
200	0xbe0f7223	-0.14008383
201	0xbe9009f7	-0.28132603
202	0xbd698692	-0.057013102
203	0x3e2157c0	0.1575613
204	0x3d17a888	0.03702596
205	0xbba8011b	-0.005127085
206	0xbe0cb46c	-0.137407
207	0xbd9bb35c	-0.076025695
208	0xbedd0c30	-0.4317336
209	0xbead9db9	-0.33909395
210	0x3dc9913d	0.09842155
211	0xbca497a5	-0.020091841
212	0x3d86acdb	0.06575938
213	0xbeda3509	-0.42618588
214	0xbe3fe6fd	-0.18740459
215	0x3d21689e	0.03940641
216	0xbc00b696	-0.007856032
217	0xbe41a610	-0.18911004
218	0xbc228ed1	-0.009921745
219	0xbba889ed	-0.005143395
220	0xbb8588a4	-0.0040751267
221	0x3e06ed1d	0.13176389
222	0xbd9238cd	-0.0713974
223	0xbdb4a1f6	-0.08819954
224	0x3c973a87	0.018460525
225	0xbe80756e	-0.25089592
226	0x3d8307ff	0.063980095
227	0xbe943ed4	-0.28954184
228	0x3e0c7cb5	0.13719447
229	0x3d502872	0.05081982
230	0xbd4fe143	-0.050751936
231	0x3a676c19	0.00088280585
232	0xbe0d260e	-0.13784048
233	0xbd79f274	-0.061022237
234	0xbe2f82eb	-0.17139785
235	0xbc3e4135	-0.011612226
236	0xbddcc78f	-0.1078025
237	0x39f17cc5	0.00046060063
238	0x3d338f5c	0.04383789
239	0xbd003ee7	-0.03130999
240	0xbdb8545a	-0.09000464
241	0xbd552b5b	-0.0520433
242	0x3e8f38a3	0.27972898
243	0xbea4c3a1	-0.32180503
244	0x3cb9d373	0.022683835
245	0xbe66bbb9	-0.22532548
246	0xbe07f3a4	-0.13276535
247	0xbea3aab1	-0.31966165
248	0x3b4f9049	0.0031671694
249	0xbd1d1696	-0.038351618
250	0xbd1722a1	-0.03689826
251	0xbe58393f	-0.21115588
252	0xbc7951f9	-0.015217298
253	0x3c1fe329	0.009758749
254	0x3d180df0	0.037122667
255	0xbd1180c6	-0.0355232

net_container.2.bias f4 [64]
0	0xbeb95043	-0.36194047
1	0xbe52a2a5	-0.20569856
2	0xbe646976	-0.22305855
3	0xbe1b704a	-0.15179554
4	0xbe6628b3	-0.22476463
5	0xbe0da5f0	-0.13832831
6	0xbe6144c0	-0.21998882
7	0x3cbb5083	0.02286554
8	0xbec9b9c1	-0.3939953
9	0x3dfb7d23	0.12279727
10	0xbd580e69	-0.052748118
11	0x3dacc05b	0.084351264
12	0xbeb8372b	-0.3597959
13	0xbd59cde1	-0.053174857
14	0xbeba6874	-0.36407816
15	0x3e8b5f05	0.27220932
16	0x3d997435	0.07492868
17	0xbe867eb7	-0.2626855
18	0x3d09e917	0.033669557
19	0xbe629637	-0.22127615
20	0xbe8355e2	-0.2565146
21	0xbe6b7c8f	-0.22996734
22	0xbbd65605	-0.006541016
23	0x3e32c644	0.17458445
24	0x3dae50cf	0.08511507
25	0x3d580cc0	0.052746534
26	0xbe0fc6c5	-0.14040668
27	0xbd591d95	-0.053006727
28	0x3c9e302c	0.01931008
29	0x3d496b23	0.04917444
30	0xbd84a5c4	-0.0647693
31	0xbe365df9	-0.17809285
32	0x3e1414ec	0.14461106
33	0x3e3fae09	0.18718733
34	0x3dc2222b	0.09479173
35	0x3e116254	0.14197665
36	0xbeef2a63	-0.46712026
37	0xbea22231	-0.3166671
38	0xbdb7e237	-0.08978694
39	0xbe0e7bad	-0.13914366
40	0x3d9eb76c	0.07749829
41	0xbddd02b1	-0.10791529
42	0xbe8712ff	-0.2638168
43	0x3e3cf0ec	0.1845128
44	0xbebbb3f4	-0.3666073
45	0xbcd73cb0	-0.026274055
46	0xbe369462	-0.17830041
47	0x3e86c8a9	0.26324967
48	0xbe527716	-0.2055324
49	0x3e659ebb	0.22423832
50	0x3d307c41	0.043087248
51	0xbcd9bf04	-0.026580341
52	0x3e8c3bec	0.27389467
53	0xbea1d2ec	-0.31606233
54	0xbe54188f	-0.20712493
55	0x3e239e7f	0.1597843
56	0xbed22340	-0.4104252
57	0xbd9553ec	-0.072913975
58	0xbda10446	-0.07862143
59	0xbcb4c8eb	-0.022068461
60	0xbe117768	-0.14205706
61	0xbef5f4a3	-0.48038206
62	0xbecb0940	-0.39655495
63	0xbbcbf8e9	-0.0062247408

policy_layer.weight f4 [7, 64]
0	0x3e928269	0.2861512
1	0xbbf36497	-0.0074277627
2	0xbdf8af51	-0.12142814
3	0xbe17ea85	-0.14835556
4	0xbd866897	-0.06562918
5	0xbcde3e56	-0.027129333
6	0xbd851813	-0.064987324
7	0x3d4b7837	0.049675193
8	0xbd4fe6cd	-0.05075722
9	0x3e134d7a	0.14385024
10	0x3e4e8433	0.20167617
11	0x3e0ea5bd	0.13930412
12	0xbdbc1a2e	-0.09184681
13	0xbe8d173e	-0.27556795
14	0x3d44c03f	0.048034903
15	0xbd2ecaec	-0.04267399
16	0xbda1d807	-0.07902532
17	0xbdbf1b82	-0.093314186
18	0x3d3f55f1	0.04671282
19	0x3e20790e	0.15671179
20	0xbdd6cf8c	-0.10488805
21	0xbd9f3c2a	-0.07775147
22	0x3dd13b54	0.10216394
23	0x3cf0721b	0.029351285
24	0x3dc92e06	0.098232314
25	0xbe9b9788	-0.30389047
26	0xbe68c8a2	-0.22732785
27	0xba5cb281	-0.0008418933
28	0xbe6ac6b2	-0.22927359
29	0x3dc45636	0.09586756
30	0xbd9b363b	-0.07578703
31	0xbc7cdce2	-0.015433522
32	0xbcef4dd7	-0.029211922
33	0x3e244c45	0.1604472
34	0x3e5255ef	0.20540594
35	0xbe082790	-0.13296342
36	0x3d0cd203	0.03437997
37	0x3d329b29	0.043605004
38	0xbde9f8f0	-0.11424434
39	0xbe9dae39	-0.30796984
40	0x3e1e9cf9	0.15489568
41	0xbe2a1c77	-0.16612421
42	0xbd55431f	-0.052065965
43	0xbc3ce6d1	-0.01152964
44	0xbdef0b28	-0.1167205
45	0xbe298a3e	-0.16556641
46	0xbda8dc6e	-0.082451686
47	0x3dc54c9e	0.09633754
48	0x3dabf4a4	0.08396271
49	0x3b813e31	0.0039441814
50	0xbd554d59	-0.052075718
51	0xbc6f793b	-0.014616306
52	0xbc9bfb81	-0.019040825
53	0x3d2bcbf7	0.041942563
54	0x39b51c15	0.00034543933
55	0xbdd3d3e5	-0.1034315
56	0x3e993384	0.29922116
57	0x3e1f77a8	0.15572989
58	0x3bee04d4	0.007263759
59	0xbdbf1d87	-0.09331804
60	0xbcfa9cc2	-0.030592326
61	0xbcecda56	-0.028912704
62	0x3e911a22	0.2834025
63	0xbe172889	-0.14761557
64	0xbd96499d	-0.07338259
65	0xbd27d967	-0.040978815
66	0xbe81fa53	-0.25386295
67	0xbde7b008	-0.11312872
68	0xbe176c77	-0.1478747
69	0x3d04c054	0.03240998
70	0x3dd4e7e1	0.1039579
71	0xbcd9bdc5	-0.026579747
72	0xbd094d26	-0.03352084
73	0x3df55063	0.11978223
74	0xbd100186	-0.035157703
75	0x3dc97131	0.09836043
76	0xbbf0f67a	-0.007353601
77	0x3dcba681	0.099438675
78	0x3ddd227b	0.10797592
79	0xbd53e5e5	-0.051732916
80	0xbca32d3e	-0.019919034
81	0x3cfcf508	0.030878559
82	0xbd720d16	-0.05909451
83	0x3c499c6a	0.012305358
84	0xbd931a1e	-0.07182716
85	0xbe3d0b18	-0.18461263
86	0x3da5dcdf	0.080987684
87	0x3db71992	0.08940424
88	0x3dada1e1	0.084781416
89	0xbda7820f	-0.081791036
90	0x3de2af40	0.110685825
91	0xbdfca17e	-0.1233549
92	0x3c9d15af	0.019175379
93	0x3d0a609b	0.033783536
94	0xbe909e6a	-0.2824586
95	0xbe46d7bf	-0.19418238
96	0x3d60988f	0.05483299
97	0x3dd4bc4e	0.10387479
98	0x3e1cb477	0.15303217
99	0x3b03edbf	0.0020130721
100	0xbd5fc0e5	-0.054627318
101	0xbd64a356	-0.05581983
102	0x3e81c14a	0.2534278
103	0xbc841675	-0.01612399
104	0x3e4327c4	0.19058138
105	0xbcd842e2	-0.02639908
106	0x3e04f0ab	0.12982433
107	0x3e0fc698	0.14040601
108	0x3d5ca037	0.05386373
109	0x3e0f1f5a	0.13976803
110	0x3e221178	0.15826976
111	0x3bd4d672	0.0064952904
112	0xbbfcd823	-0.007716195
113	0x3d900889	0.07032878
114	0x3d7b7e6f	0.061399873
115	0x3bc34619	0.005959284
116	0xbd3fdf16	-0.04684361
117	0xbda63c0d	-0.081169225
118	0xbcc00932	-0.023441885
119	0x3e332774	0.17495519
120	0xbe27ab50	-0.16373944
121	0xbd0a3510	-0.03374201
122	0xbd0cf6a1	-0.03441489
123	0x3d2b48f3	0.041817617
124	0xbcaeb369	-0.021325784
125	0x3cb19669	0.021678166
126	0xbe4c03fd	-0.19923396
127	0xbd5eb4c1	-0.0543716
128	0x3e9e7b12	0.3095327
129	0x3dac6c24	0.08419064
130	0xbd2657ae	-0.04061096
131	0xbe14ea20	-0.14542437
132	0x3d1034e4	0.03520669
133	0xbcfcd7ce	-0.030864622
134	0x3c737ca2	0.014861258
135	0x3dfa9625	0.12235669
136	0x3d3c40b1	0.045960132
137	0x3d028c76	0.031872235
138	0x3e5f68ef	0.21817373
139	0x3bad8476	0.0052953316
140	0x3c0ac366	0.008469438
141	0xbeaa8355	-0.33303323
142	0xbdbe353b	-0.09287497
143	0xbe29f6db	-0.16598074
144	0x3d54a3f9	0.05191419
145	0xbd9247b1	-0.0714258
146	0xbe3a4696	-0.18190989
147	0x3e230c22	0.15922597
148	0xbd5958f3	-0.053063344
149	0x3c0ba62c	0.008523505
150	0xbd6a8b14	-0.05726154
151	0x3c58bb9c	0.013228323
152	0x3b33cfc9	0.0027437082
153	0xbe13e263	-0.14441828
154	0xbe668860	-0.2251296
155	0x3daf75b6	0.085673735
156	0x3dbb8fb5	0.09158269
157	0xbdd6309e	-0.10458492
158	0x3d227c1b	0.039669137
159	0xbdb1150f	-0.08646595
160	0xbc97f26b	-0.018548211
161	0x3d9ba27c	0.07599351
162	0x3e3034a0	0.17207575
163	0x3c81b917	0.015835328
164	0x3d518788	0.051154643
165	0x3e2d7c2a	0.16941896
166	0xbd7ec6c6	-0.062201284
167	0xbe900c78	-0.28134513
168	0x3e80dbbf	0.25167653
169	0xbcea13d0	-0.0285739
170	0xbb5ee25f	-0.003400944
171	0x3e0f1d63	0.13976054
172	0xbe5b6a2c	-0.2142722
173	0xbc6d6f11	-0.014491812
174	0x3bded8a8	0.00680073
175	0xbd2867d9	-0.04111466
176	0xbdfe6120	-0.12420869
177	0xbd0f9dde	-0.035062663
178	0x3b294b16	0.0025832108
179	0xbd2d950e	-0.042378478
180	0x3d0483cf	0.032352265
181	0xbd9460fd	-0.072450615
182	0xbd8d0f71	-0.06887711
183	0xbe0be0b9	-0.13659944
184	0x3e6175b5	0.22017558
185	0x3dd4d52d	0.103922226
186	0x3d4e5c47	0.05038097
187	0xbd399f62	-0.045318015
188	0xbdf50cc9	-0.11965329
189	0x3b099555	0.002099355
190	0xbda9e5fa	-0.08295818
191	0xbe08100e	-0.13287374
192	0xbd6e3569	-0.058156405
193	0x3d88f6ff	0.06687736
194	0x3de0e33a	0.1098084
195	0xbcbcfdad	-0.02307018
196	0xbdc2340e	-0.09482585
197	0xbe4c6645	-0.19960888
198	0xbeb23d82	-0.34812552
199	0x3c541c56	0.012946209
200	0xbe2a9792	-0.16659382
201	0xbbb894b6	-0.005632962
202	0x3da8357a	0.08213325
203	0x3b6258cd	0.0034537793
204	0xbdeedb08	-0.11662871
205	0xbe008807	-0.1255189
206	0xbe41cb07	-0.18925105
207	0x3ce49246	0.02790178
208	0x3d058459	0.03259692
209	0xbcec8000	-0.028869629
210	0x3e20ca9e	0.15702292
211	0xbe6268ba	-0.22110263
212	0xbd745d91	-0.059659544
213	0xbd764fd0	-0.06013471
214	0xbcc085be	-0.023501273
215	0x3de513bc	0.11185405
216	0xbdccafad	-0.09994445
217	0xbe1cb710	-0.15304208
218	0xbed0c6b2	-0.40776592
219	0xbdf56f92	-0.11984171
220	0x3cbbdda2	0.022932831
221	0x3e6ff3d5	0.23432858
222	0xbc2e4224	-0.010635886
223	0x3e2ef4e0	0.170856
224	0x3da54c32	0.08071174
225	0x3dcdc1d1	0.10046733
226	0xbdf22637	-0.11823695
227	0x3d72f8f6	0.05931946
228	0xbca930ee	-0.020653214
229	0xbdef0936	-0.11671679
230	0x3cf384b0	0.029726356
231	0xbc1ce608	-0.009576328
232	0x3d901b05	0.070364036
233	0xbd99014d	-0.07470951
234	0xbe51e3ba	-0.20497027
235	0xba9d3aa6	-0.0011995628
236	0x3ceb264d	0.028704787
237	0x3df61102	0.12014963
238	0xbd43dee6	-0.047819994
239	0x3d3f6d49	0.04673508
240	0x3d39d10b	0.045365375
241	0xbcc05882	-0.023479704
242	0x3e495b0e	0.19663641
243	0x3d616df0	0.055036485
244	0x3d947acb	0.072499834
245	0xbdafb5aa	-0.085795715
246	0x3d4dde5a	0.05026088
247	0x3d8511a3	0.064975046
248	0xbe08b4d4	-0.1335023
249	0xbdb8e4da	-0.09028025
250	0x3d98c962	0.07460286
251	0xbd8e7977	-0.06956761
252	0xbd9f8afa	-0.077901796
253	0xbe019939	-0.12656106
254	0xbe61e4fc	-0.22060007
255	0x3b11c0a2	0.0022240062

policy_layer.bias f4 [7]
0	0x3d7b7719	0.061392877
1	0x3d78aefd	0.060713757
2	0xbd4a1381	-0.049335007
3	0x3e919358	0.28432727
4	0xbd09ab5b	-0.033610683
5	0xbdc3f856	-0.09568851
6	0x3d482bf4	0.048870042
